checkpoints/treeMoE_TSLA_md1_hde32_al3_be1_mlp1_EXPNEW_0/checkpoint.pth (torch, 208738 bytes, 19 tensors)

root.gating.0.weight f4 [16, 437]
000000 c8 df 90 3c 5d d1 29 3d e3 1c d5 bc a0 32 5f bc
       0.017684832 0.04145943 -0.02601475 -0.01362291
000010 71 48 a2 3c 54 70 3d bd e8 4a 2a bd 6b cf e1 3c
       0.019809933 -0.046249703 -0.041575342 0.027564725
000020 35 dd 36 bc b3 29 12 3c 61 05 2f 3d c9 2f 05 bb
       -0.011161138 0.008921075 0.04272974 -0.0020322672
000030 8e 4e a8 bc 81 37 87 bc 45 b7 2d bd e5 1e a1 bc
       -0.02054527 -0.016505959 -0.042411108 -0.019668052
000040 a7 d7 f8 3c 06 e4 f0 3c c3 b1 2c bd 57 be 69 bc
       0.030376269 0.029405605 -0.042161714 -0.014266572
000050 b2 12 54 bb d1 48 88 3a ba 3c 27 bd 1d ed 10 3d
       -0.0032359776 0.0010397678 -0.040829398 0.03538238
000060 47 3d 2d 3c 7b 29 cd bc cc 0f 1c 3d b3 64 2d 3d
       0.010573692 -0.025044193 0.038101003 0.042332362
000070 81 36 f6 3c a2 44 30 bd bb a4 39 3d 8f c8 da bb
       0.030055286 -0.043034203 0.045323115 -0.0066767405
000080 03 67 61 bc d3 ba 9d 3c 29 8c b8 3c 2d 55 5c bd
       -0.01375747 0.019254124 0.022527771 -0.053792167
000090 b4 06 c4 3c 67 b8 bc bc ff cd 00 3c 43 e7 6f 3c
       0.023928978 -0.023037149 0.007861613 0.014642539
0000a0 e1 da 2b 3c d5 e3 3d 3d 00 0a b5 3c 96 93 1c 3d
       0.0104891965 0.046359856 0.022099495 0.038226686
0000b0 e9 58 17 3d d5 6d ee bc 7e a7 f2 b9 07 b9 aa 3b
       0.036950026 -0.029105106 -0.00046282628 0.0052100453
0000c0 3b c4 e3 bb 47 47 58 bd e2 16 da bc 0d ba 25 bd
       -0.0069508827 -0.05280235 -0.02662224 -0.040460635
0000d0 b7 2e 1f bd 9b 5d 0e bd 13 40 43 bd 83 f5 9a 3c
       -0.03886291 -0.034757238 -0.047668528 0.018915897
0000e0 b9 ef 38 3c f1 77 3d 3c 6f f9 b2 3c f3 a2 4c bd
       0.011287623 0.011564241 0.021847455 -0.049960088
0000f0 70 d5 52 bd 54 17 05 3d 42 40 9a 3c 1c 1e c4 3b
       -0.05147308 0.03249295 0.018829469 0.0059850346
000100 b5 5d a7 bc d1 32 e1 3c 9c 69 2c bc 9d 19 15 bd
       -0.020430425 0.027490051 -0.010523226 -0.03640138
000110 a6 3d e8 bc b6 aa a3 bc 0f 1d 85 3c 9f 95 2e 3d
       -0.028349709 -0.019978862 0.016249208 0.04262316
000120 aa 2b 32 bd 5e e2 22 3d 9e 02 43 bd 0f 4d dc 3c
       -0.043498673 0.03976666 -0.047609918 0.026892213
000130 ce e9 09 bd 5a 91 63 3c cb 04 38 3c ca 49 35 bd
       -0.03367024 0.013889635 0.0112316115 -0.044259824
000140 64 d0 01 3d 57 7d 0e bd da a7 0d 3d 3f e9 45 3d
       0.031692877 -0.034787502 0.034583904 0.048318144
000150 82 12 6d bc a5 74 15 3d a0 b8 83 bb ba 08 65 3c
       -0.014469745 0.036488194 -0.0040198117 0.013979131
000160 d6 df da bb b2 df 83 3c 98 13 40 bd 95 b8 34 bd
       -0.0066795154 0.016097877 -0.046893686 -0.044121344
000170 ba 25 c8 3c b7 da 84 3c fe 40 1b bd 37 46 60 bc
       0.024432052 0.016217573 -0.03790378 -0.0136886155
000180 9c d9 16 3d 47 82 a7 bc ff 61 19 3d c8 fd 15 3d
       0.036828622 -0.020447863 0.037446972 0.036618978
000190 78 73 3b bd 51 19 0e bd ce a5 b6 bc b4 af e3 bc
       -0.045764416 -0.034692112 -0.022295859 -0.027793743
0001a0 2f e4 c8 3b 18 d4 3d bc 80 e6 00 3d fb d1 da 3c
       0.006130717 -0.011586212 0.031469822 0.026711455
0001b0 e5 a8 27 3d 36 8a e4 3b 02 5f 19 bd e5 87 22 bd
       0.040932555 0.006974484 -0.037444122 -0.03968038
0001c0 ab be ba ba 7e ae 36 3a 05 40 1c 3d 94 9c 36 bd
       -0.0014247497 0.00069687504 0.03814699 -0.04458292
0001d0 a9 36 c9 bc fd be 06 bd 37 39 87 3c 04 23 83 3c
       -0.024562197 -0.032896984 0.016506774 0.016007908
0001e0 81 c8 03 bc a7 90 9e 3c a5 66 85 ba 67 26 93 3c
       -0.008043409 0.019356085 -0.0010177685 0.017962648
0001f0 94 e2 8e bc 39 a8 f6 bc 21 4c c1 bc 5a ce a7 bc
       -0.017442025 -0.030109512 -0.023595871 -0.020484138
000200 58 86 e3 3c 13 dd 33 bd 4c 0d c9 3c 48 11 00 3b
       0.027774021 -0.043912005 0.024542473 0.001954155
000210 df 15 bf bc 72 b7 b8 bc bb 53 0a bc ef a7 08 3b
       -0.023325859 -0.022548411 -0.008442814 0.002085205
000220 93 40 29 3d fd 1c 12 bd e5 0b bd bc 36 73 41 3d
       0.04132135 -0.035672177 -0.02307696 0.047229014
000230 93 54 97 bc 1d 09 1f 3c c9 d2 34 bd b5 a5 47 3d
       -0.018472945 0.009706763 -0.044146333 0.048742015
000240 c0 70 8c bc da 36 20 3d 98 1a c6 bc 9d 9a 75 3c
       -0.017143607 0.03911481 -0.024182603 0.014990476
000250 c9 89 2c 3b 2d dc a4 3c dc 95 f3 bc 76 a5 1f 3d
       0.0026327244 0.02012452 -0.029734544 0.038976155
000260 8f 2f e1 3c cb 1b 33 bc 74 ac 49 3c ea c8 29 3d
       0.027488498 -0.010931919 0.012309182 0.041451372
000270 34 85 fa bb 71 fd 50 bc 9a b4 2c bd 82 cd 77 bc
       -0.0076452736 -0.012755738 -0.042164423 -0.0151246805
000280 11 f8 c3 bb de ba 30 3d 6d 47 1f 3d 41 05 d1 3c
       -0.0059804996 0.04314696 0.038886476 0.0255152
000290 cd 6f 88 3c 2d bf bc 3c 7c f6 00 3d d2 b1 13 bc
       0.016654873 0.023040378 0.031485066 -0.009014564
0002a0 0d a0 fa bc 0f 75 70 3c 7c 71 24 3d 1d 0f cd ba
       -0.030593896 0.014676346 0.04014729 -0.0015644763
0002b0 fd 1d f5 bc 95 cb ac bc 44 38 84 3c 30 a2 76 bc
       -0.029921526 -0.02109317 0.01614011 -0.015053317
0002c0 84 93 32 bd 23 71 e4 bb 9f f1 f1 3c b3 45 16 bd
       -0.043597713 -0.0069714948 0.02953416 -0.036687564
0002d0 52 b5 2f 3d 77 a2 6e 3c ab f3 b0 3b 1d 22 1f 3c
       0.04289753 0.014565102 0.0054001412 0.009712723
0002e0 58 d4 7b 3c 4c e7 20 bd 36 f1 1e bd 6b 53 28 bd
       0.015370451 -0.039283082 -0.038804255 -0.04109518
0002f0 62 ff 81 3b 0f c3 4b 3b e5 25 32 3d 6f 70 2f bd
       0.0039672116 0.0031091606 0.04349317 -0.042831834
000300 6c b0 3f 3d 9f 44 88 3c 20 03 19 bd 4f 75 e5 b9
       0.04679911 0.016634284 -0.037356496 -0.00043765685
000310 d0 eb bc 3b 47 1c 64 bb be df 88 ba 18 4f ae 3c
       0.0057654157 -0.0034806894 -0.0010442657 0.02127795
000320 69 ff 7f 3c 37 5c e3 3b 6f cd 04 3c 08 54 81 3c
       0.015624859 0.006938483 0.00810562 0.01578714
000330 0c f7 91 3c cc 08 b1 3c d6 9c 7d 3c 34 d6 11 3d
       0.017817996 0.02161064 0.015479287 0.03560467
000340 ff bf ed 3c 7e 70 05 3d b1 5b 55 bc fe 80 1c 3c
       0.029022215 0.032577984 -0.013022349 0.0095522385
000350 21 6e 00 3d c1 2c 4a bd 07 40 26 bd 57 ad d6 bc
       0.031355027 -0.049359087 -0.040588405 -0.026205702
000360 ee 75 95 3c 05 19 2a 3c 5e 59 14 bd d6 b4 0d 3d
       0.01824471 0.010381942 -0.03621804 0.034596287
000370 76 5e 10 bd df 13 15 bd e3 91 27 3d 88 2d f4 3c
       -0.035246335 -0.036395904 0.040910613 0.029806867
000380 d3 5d 12 bc 41 44 37 3b 4f 77 1d bc 85 14 25 3d
       -0.008933502 0.0027964266 -0.009610965 0.040302772
000390 61 7e 29 bd 49 e8 0a 3d a6 ba 09 3d e6 a8 e1 3c
       -0.04138029 0.03391293 0.033625267 0.027546357
0003a0 75 eb 46 ba 58 07 67 bc f8 41 5f bc ec bd 83 3c
       -0.00075881864 -0.014100872 -0.013626568 0.016081773
0003b0 e2 0b 1e bd d8 71 ca bc 67 01 8c 3b 4b 25 12 bd
       -0.03858555 -0.024712488 0.004272628 -0.035680097
0003c0 5d 42 1c bd b0 b0 05 bb 8e bb 35 bd 9c fb be bc
       -0.038149226 -0.0020399503 -0.04436832 -0.023313336
0003d0 82 66 27 3a 16 3b 27 3d cf 81 d7 bc 29 54 41 bd
       0.0006385819 0.040827833 -0.026307015 -0.047199402
0003e0 40 3c c2 bb 5b 49 a1 bc 48 e3 df 3c 56 a0 36 3c
       -0.0059275925 -0.019688299 0.027330056 0.0111466255
0003f0 5c ad 45 bc ed 6d af 3c 27 e2 e3 bc dc d0 14 3d
       -0.012065258 0.021414721 -0.027817799 0.036331996

root.gating.0.bias f4 [16]
000000 d9 07 2b 3d bd ba 9a bc b7 12 e2 bc 32 a9 aa 3c
       0.04175553 -0.018887872 -0.027596815 0.020832632
000010 a7 1e 09 bd b8 d3 21 3d 35 2d 48 3c dd 9a da 3b
       -0.033476498 0.03950855 0.012217809 0.006671293
000020 fa 23 3e bd 57 d3 0b bd c1 fa cb 3c 22 68 30 3b
       -0.04642103 -0.034137096 0.024899842 0.0026917537
000030 e5 ae ab 3c 28 8d 45 3d da b4 b0 bc 0e 09 ed 3c
       0.02095742 0.04823032 -0.021570612 0.028934982

root.gating.2.weight f4 [1, 16]
000000 9e 02 0a 3e 46 43 da 3d 5d d4 fd 3c 68 fa 1f be
       0.13477561 0.10657363 0.030985052 -0.15622866
000010 8f a9 66 bd 5d bf ab 3d d6 5d b0 3d c6 35 68 3e
       -0.056314047 0.08386109 0.08611648 0.22676763
000020 46 65 98 bd 8c 19 45 3e 4f 3a 74 3d e5 49 b1 3c
       -0.074411914 0.19248027 0.05962592 0.021641681
000030 2f 52 35 bd b9 35 7a 3e ef 4b a1 3d fa 79 3a bd
       -0.04426783 0.24434556 0.07875811 -0.045526482

root.left_child.gating.0.weight f4 [16, 437]
000000 7c a7 93 bb 12 c6 fe bc 8c 2d 09 3d c0 74 04 3c
       -0.0045060497 -0.031100307 0.033490703 0.008084476
000010 14 55 63 3c ca ba c8 bc a9 41 d6 bc d4 45 43 bd
       0.013875265 -0.02450313 -0.026154356 -0.047674015
000020 f3 d2 38 3d ca 3f 4c 3c 1c d5 b6 bc b5 0b f8 bc
       0.04512305 0.01246638 -0.022318415 -0.03027902
000030 8f 74 0c 3d 52 84 1e bd 69 0d 88 bc 6f 9d 1c bc
       0.034290846 -0.03870041 -0.016607957 -0.0095590195
000040 ca 64 bd bc 4f 13 07 3d a8 cd 52 bc 61 f3 92 3c
       -0.023119349 0.0329774 -0.012866415 0.017938318
000050 ee b6 38 bd 36 01 3f 3c e8 6b 3b bd 4e f4 84 3c
       -0.04509633 0.011658004 -0.045757204 0.016229775
000060 b0 b3 3e bd 1d 37 33 bc 9e 1b b0 3c 99 38 6a bc
       -0.046558082 -0.010938433 0.021497544 -0.0142957205
000070 86 57 ba bc f2 00 60 3c fc 12 4e bc 47 54 32 3d
       -0.022746813 0.0136721 -0.012577768 0.043537404
000080 e7 cd 28 bd c2 99 10 3d f3 a5 e2 bc 02 97 ad bc
       -0.04121199 0.035302885 -0.027667021 -0.02119017
000090 4a 85 23 3d fa 16 10 bc f6 65 ae 3c f0 dc a8 3c
       0.039922036 -0.008794541 0.021288853 0.020613164
0000a0 45 f4 24 3d 0c 27 21 3c ed 14 b5 bc 9a f8 9b 3c
       0.040272016 0.00983597 -0.022104705 0.01903944
0000b0 ba 09 84 3c f8 54 58 3b 03 04 0a bd 15 8e 3a bc
       0.01611792 0.003300963 -0.033695232 -0.011386414
0000c0 09 bf 2b bd f7 33 cc bc 24 0e db 3b d3 35 13 3d
       -0.041930232 -0.024927123 0.0066850353 0.035940003
0000d0 b0 eb 82 bc ab 25 2e bc bb aa 3e 3d 28 44 1b 3d
       -0.015981525 -0.010629098 0.04654954 0.037906796
0000e0 f3 91 f0 bc 06 a2 c4 3c 18 60 67 3b b8 11 1b bd
       -0.029366469 0.02400304 0.003530508 -0.037858695
0000f0 cd 11 af bc 10 26 20 bd 91 a5 b7 bc 5a ab b0 bc
       -0.021370793 -0.0390988 -0.022417815 -0.021566082
000100 10 af 17 3d bd e1 cd bc ba 11 3c 3c d6 52 da 3c
       0.037032187 -0.025132054 0.011478836 0.026650827
000110 f5 1a 03 bd 44 af 80 3a ad 65 f0 bc b1 39 bc ba
       -0.03200813 0.0009817858 -0.029345358 -0.0014360455
000120 28 f1 34 bd b7 9d 92 bc 34 79 87 3c f2 82 d2 3c
       -0.044175297 -0.01789747 0.016537286 0.025697205
000130 97 82 8b bc 71 e3 88 bc 5a e8 96 bc ec ea 06 bc
       -0.017030044 -0.016710015 -0.01842134 -0.008234721
000140 40 eb 50 3c e8 aa a2 bb 02 94 17 3d ff 6d 2e bc
       0.0127514005 -0.0049642213 0.037006386 -0.010646342
000150 d3 07 db ba 3e 35 17 3d 73 45 c7 bc 8d f4 59 3c
       -0.0016710706 0.03691601 -0.024325108 0.013302934
000160 db a0 21 3d 52 23 db bc 3f ec 17 bd 7d b1 24 bd
       0.039460044 -0.02675024 -0.037090536 -0.04020833
000170 50 9e 3e bd 3b 07 23 3c 20 7a 1f bd f9 f2 20 3d
       -0.046537697 0.009950454 -0.038934827 0.039294217
000180 d2 53 28 bd b3 a6 11 3d 57 91 07 3d ad 49 29 bd
       -0.041095562 0.035559367 0.03309759 -0.04133003
000190 0f 96 13 3d 85 3f 1f bd 17 eb a6 bc e3 ab f8 3b
       0.03603178 -0.038878936 -0.020375771 0.00758885
0001a0 a5 67 ab 3b 05 a8 04 3d 70 fd 29 3d ea e7 cb bc
       0.0052308613 0.0323868 0.041501462 -0.024890859
0001b0 4d e9 4b bc d7 e2 18 bd 5d cf 32 bd fd a3 2d bd
       -0.01244576 -0.037325706 -0.04365479 -0.04239272
0001c0 25 e2 32 bd b9 f9 80 bc 6b 64 0a bd 8d 57 78 bb
       -0.0436727 -0.015744077 -0.033787172 -0.0037893981
0001d0 04 6d 55 3c 6f 98 99 3c a2 e2 25 3d f5 ae 8f bb
       0.01302648 0.018749444 0.040499337 -0.00438487
0001e0 9b 83 52 3c a7 66 ea bc c4 c2 2d 3c 56 f5 1b bc
       0.01284876 -0.028613402 0.010605518 -0.009518942
0001f0 92 89 f6 bc 7d b1 12 bd ab b4 a0 bc a7 14 06 3d
       -0.030094896 -0.035813797 -0.0196174 0.03273454
000200 ad 1f 93 bb 06 73 40 bd be 56 16 3d 3a 64 41 bd
       -0.00448986 -0.046984695 0.036703818 -0.047214724
000210 6e e5 11 3d 9d e4 95 bb 7a 73 3b 3d da 6c 95 bc
       0.03561919 -0.004574372 0.045764424 -0.018240381
000220 1d 41 3a 3d 8b a7 a3 3c a8 fa 6e b9 b1 2c e8 3b
       0.045472253 0.019977352 -0.00022790825 0.0070854058
000230 36 ba 22 3c 97 fa b5 bc 44 e7 21 bd 46 33 24 bd
       0.009932091 -0.022214217 -0.039527193 -0.04008796
000240 da 3d dc 3b 94 9d 9c 3c 2b 6a 3c bd 70 15 0d 3d
       0.0067212405 0.019118108 -0.045999687 0.034444273
000250 3f 11 81 3c 86 1c 09 bd f9 1b 43 3d 11 88 f5 bc
       0.015755294 -0.033474468 0.0476341 -0.029972108
000260 44 b8 ff 3c f9 4b 1e 3d f0 6e a7 bc 37 ed 1f 3d
       0.031215794 0.038646672 -0.020438641 0.039044585
000270 16 ac 05 bd 76 ef b7 bc 20 d3 cd bc 61 b2 18 bd
       -0.032634817 -0.022453051 -0.025125086 -0.03727949
000280 e7 c7 bf 3c a5 36 fe 3c 2b 64 2d 3c 7f 29 b2 3c
       0.02341075 0.031031916 0.010582964 0.021748303
000290 e0 9d c8 bb 4f 42 3a 3c e8 98 f4 bc 63 02 2e 3d
       -0.006122336 0.011368348 -0.029858068 0.042482745
0002a0 78 76 eb bb ec 8c c2 3c a5 53 15 bc 43 0b 09 bd
       -0.0071857534 0.023748837 -0.009114181 -0.033458006
0002b0 45 d3 cd 3b 49 c2 6d bc 27 2a 0b 3c 19 64 7c 3c
       0.006281289 -0.014511653 0.008493937 0.0154047245
0002c0 c6 73 b9 3c 19 67 18 3d 70 f3 26 3d 10 93 60 bc
       0.022638213 0.037207697 0.040759504 -0.013706937
0002d0 a9 0f f6 ba 26 61 37 3d f5 96 fc bc 09 e5 90 3c
       -0.0018772978 0.044770382 -0.0308337 0.017687337
0002e0 71 ac 3e 3d 03 ac 7e 3c b4 9e 13 3c 0e ca 0f bd
       0.04655117 0.0155439405 0.009010006 -0.035104804
0002f0 3d 8f 90 3c 03 41 cc bc 5a be 32 bd 93 7c 9f 3c
       0.017646426 -0.024933344 -0.043638565 0.019468581
000300 63 a8 22 bd 14 73 f5 3c a5 d4 9a bb ed e6 0f 3d
       -0.039711367 0.0299621 -0.0047250562 0.035132337
000310 81 e1 16 3d 44 ae 0e bd 7d 4f 83 bc 7e c9 d3 3c
       0.03683615 -0.03483416 -0.016029114 0.025852915
000320 d8 a5 3e 3c 5a a3 30 3b 17 5f b0 bc 5f a1 9f 3b
       0.01163622 0.0026952834 -0.021529717 0.004871532
000330 05 c6 bc bc f2 8a b0 bc ca ff 36 3d 05 af 43 bd
       -0.023043642 -0.02155063 0.044677533 -0.047774334
000340 3b ed 59 3c 5f b0 c9 bc b7 f9 61 3c d6 6b ef 3c
       0.013301189 -0.024620233 0.013792447 0.029226225
000350 ad 81 3d 3d 4a 93 95 bc f4 97 cc 3c 15 7e fc bc
       0.046266247 -0.01825871 0.0249748 -0.03082184
000360 c0 9b 2f 3d 78 b7 41 bd 16 b9 42 3d 02 5b d9 bc
       0.042873144 -0.04729411 0.047539793 -0.026532654
000370 92 65 21 bd 12 30 23 3d 60 95 21 bd 65 db 2f 3c
       -0.039403506 0.039840765 -0.039449096 0.01073346
000380 17 dc 0c 3d f9 44 21 bd 62 a8 a5 bb 8a 72 bf 3c
       0.03438958 -0.039372418 -0.005055473 0.023370046
000390 e6 bf 2a bd b4 32 9e bc 0c 61 22 3c d3 1e 41 3d
       -0.041686915 -0.019311287 0.009910833 0.047148537
0003a0 02 83 a7 3c a5 99 17 3c 70 08 a3 3c d0 1b fd 3c
       0.020448212 0.00925294 0.019901484 0.030897051
0003b0 a5 97 cf bc cd bc 20 3d 0b af 0b bc 9c 19 fa 3c
       -0.025340864 0.039242554 -0.00852562 0.03052979
0003c0 89 a6 ac bc 6f 6e f3 3c b5 0f 90 3c af 8e 18 bd
       -0.021075504 0.029715745 0.017585615 -0.03724545
0003d0 55 bb da bc ec 85 03 bd e0 cb da bc 90 fe 2e 3d
       -0.026700655 -0.03211014 -0.026708543 0.04272324
0003e0 17 a6 bc 3b db 47 2d 3d 5d 7e 36 3d e4 fd 45 bc
       0.005757104 0.042304855 0.044554103 -0.012084458
0003f0 14 43 21 bd 0d 7d 83 3c 01 be 39 3d f8 dc b9 bc
       -0.03937061 0.01605084 0.045347217 -0.022688374

root.left_child.gating.0.bias f4 [16]
000000 7f c6 6c 3c 49 63 86 bb d6 bd 16 bc 53 94 ce 3c
       0.014451622 -0.004101191 -0.009200534 0.02521721
000010 14 44 36 3d 48 d3 99 bc ad b3 81 bc 4d 7c 2c bd
       0.044498518 -0.018777505 -0.015832746 -0.04211073
000020 ee 1d 59 bc 6c 49 98 bc bd c4 d1 3c ef cf 03 bd
       -0.013251765 -0.018589698 0.025606507 -0.032180723
000030 c4 01 de bc 36 af 1c bd c5 c1 f1 3c f7 e4 f9 bc
       -0.027100451 -0.03825303 0.029511342 -0.030504687

root.left_child.gating.2.weight f4 [1, 16]
000000 f4 fa fe bd 48 32 30 be c0 b9 4f 3c c8 61 b0 3d
       -0.12450209 -0.17206681 0.012678564 0.086124
000010 ac 98 5b be de 61 6b 3e 4a 18 19 be 04 24 ff bd
       -0.21444958 0.22986552 -0.14950672 -0.12458041
000020 38 37 24 3d 4e d6 71 be 20 b9 54 3d 1c c2 ce 3d
       0.040091723 -0.23616907 0.05193436 0.10095617
000030 94 77 c6 3d 64 41 56 be 60 ea 5a bc de 1e 42 be
       0.096907765 -0.20923382 -0.013361543 -0.18957087

root.left_child.feature_selector.logit_phi f4 [437]
000000 51 5d 19 3b 97 5e c9 ba ec fb 06 3c e9 5f 48 bb
       0.0023401568 -0.0015363273 0.008238774 -0.0030574745
000010 81 92 05 3c 1f b4 63 3a 50 09 33 b9 d9 42 66 ba
       0.008152605 0.0008686203 -0.0001707424 -0.0008783765
000020 1b 2d ae 3a 71 b0 f2 ba ee 8d f5 b8 18 53 2d 3b
       0.0013288589 -0.0018515718 -0.00011708947 0.0026447233
000030 2e 92 33 bb 26 78 ac 3b 4a 68 48 bb 56 42 fb ba
       -0.0027400362 0.0052633462 -0.003057974 -0.001916955
000040 fa 28 5f bb 75 64 f9 3a cb f9 86 39 2d 42 e8 ba
       -0.0034051524 0.0019027131 0.00025744582 -0.0017719917
000050 4c 35 15 bc 36 30 89 ba 82 69 94 b9 0f e0 2e 39
       -0.009106945 -0.0010466638 -0.0002830737 0.00016677401
000060 af 43 09 3a 5b 61 70 3b a8 f7 93 3b 70 30 cf 3a
       0.0005236221 0.0036679122 0.004515607 0.0015807282
000070 88 01 4a ba 92 c8 83 3b 56 d0 9c b8 ea b6 f2 3b
       -0.00077059167 0.0040217126 -7.477465e-05 0.007407059
000080 6e 16 1f 3a 37 0e c7 ba d0 2b c0 3a a2 fc 36 3b
       0.0006068711 -0.0015186731 0.0014661495 0.0027921577
000090 bd e0 7a b9 b4 d5 2d bb d7 19 aa ba 92 f8 f4 ba
       -0.0002392558 -0.0026525082 -0.0012977672 -0.0018689802
0000a0 9b 76 d6 ba fd 50 ba ba a4 fa 31 bb 4c a1 ef b9
       -0.0016362251 -0.001421481 -0.002715745 -0.00045705808
0000b0 b4 4a 8c bb 99 8a ae 3a 25 d7 00 3b 89 83 ab b7
       -0.0042813662 0.0013316452 0.0019659486 -2.044604e-05
0000c0 0c 81 a4 3a cc 94 9a 3b da a3 43 bb 50 f5 56 ba
       0.0012550666 0.004717445 -0.0029852302 -0.00082000066
0000d0 f8 2c 0a 3b 2a 18 b3 bb c0 46 31 3b 77 88 96 ba
       0.0021083932 -0.005465527 0.0027050227 -0.0011484761
0000e0 8c be 3b ba 5b fd 7c 3b c1 8f 34 3b 91 44 6f ba
       -0.00071618776 0.003860316 0.0027551504 -0.00091273437
0000f0 1d e1 13 b9 13 13 16 3a f1 c0 03 bb a3 73 f3 ba
       -0.00014102874 0.0005724888 -0.0020104016 -0.0018573891
000100 10 03 14 bb f7 86 0d 3b f7 49 87 3a 8b 69 4d 3b
       -0.0022584833 0.0021595338 0.0010321726 0.0031343426
000110 e0 4b f5 ba e4 f0 81 bb 2f a9 60 bb f2 b7 e1 3a
       -0.0018714629 -0.003965484 -0.0034280529 0.0017220958
000120 b5 57 56 3a 2c c3 5e 3b eb eb 0a bb dd 6f bf 37
       0.00081765215 0.0033990843 -0.0021197747 2.2821065e-05
000130 7d 3e af ba 81 3f 8d ba 73 a0 b9 3a c3 81 d0 b9
       -0.0013370063 -0.0010776372 0.0014162197 -0.00039769532
000140 80 26 16 3b 85 70 2d bb 10 bb 30 ba 94 0f de 3a
       0.0022911131 -0.0026464772 -0.00067417417 0.0016941899
000150 92 14 b1 39 b7 33 d2 3a 8c 2c e0 3a 97 a3 cf ba
       0.00033775397 0.0016037141 0.001710312 -0.00158416
000160 9a ba ce 39 d7 7a e0 b8 76 66 1c 3b cd 27 27 3b
       0.0003943041 -0.00010704033 0.0023864782 0.00255059
000170 ba 6f cc b9 5c 11 a3 3b e6 ca 10 ba 25 a2 14 ba
       -0.00038993155 0.0049764346 -0.0005523398 -0.00056699134
000180 e0 94 88 ba 64 46 88 bb 30 c6 17 3a 69 14 da 39
       -0.0010420345 -0.004158782 0.0005789725 0.00041595407
000190 88 b5 d4 ba 32 6c b0 39 4b 43 0e bb c4 0a 56 bb
       -0.0016228417 0.00033649948 -0.002170759 -0.0032660225
0001a0 cd a8 88 3a 07 12 9e 3a 0f ed 67 39 19 9e 3c 3b
       0.0010426283 0.0012059816 0.00022118188 0.0028780757
0001b0 96 ee 4b 3b 20 aa 41 bb 08 54 6f 3a e6 01 eb b9
       0.003111755 -0.0029550865 0.0009129648 -0.00044824107
0001c0 bc 48 63 3b 8f 7b 09 bb 16 66 70 3b c4 93 77 bb
       0.0034680804 -0.0020978188 0.0036681942 -0.0037777284
0001d0 6b dd de 3b 09 16 e9 3a 13 83 8e ba b2 44 ed 3a
       0.0068012974 0.0017783056 -0.0010872803 0.0018102138
0001e0 26 c3 e9 3a 11 11 93 b9 c6 1f 6d b9 ac 9b 34 3b
       0.0017834648 -0.0002805074 -0.00022613918 0.0027558608
0001f0 00 5f b9 b7 f1 c6 31 3b 57 ff ad bb 09 f0 12 3b
       -2.2097956e-05 0.0027126635 -0.00530998 0.0022420904
000200 76 47 e5 b9 43 94 f3 bb b2 9b 96 ba 57 45 54 ba
       -0.00043731526 -0.0074334457 -0.0011490493 -0.00080974906
000210 59 e6 8d ba 8f e9 20 3b a0 df a9 3a 95 08 e5 ba
       -0.0010826095 0.0024553274 0.0012960322 -0.0017473871
000220 84 08 5b 39 19 fe 61 ba 85 2c 01 ba 65 09 e6 ba
       0.0002088864 -0.00086209323 -0.00049275934 -0.0017550407
000230 0f 88 87 3a f5 b4 07 bb 48 db 0b 3a e7 fd c9 39
       0.0010340231 -0.0020707224 0.00053351047 0.0003852688
000240 1d 26 29 3b 19 45 52 bb 7b a8 8b 3a 05 70 d1 3a
       0.002581007 -0.0032084642 0.001065507 0.0015978819
000250 64 ce 4d 3b 47 ca 49 3b 28 b4 a6 39 99 42 b2 3a
       0.0031403536 0.0030790733 0.00031796214 0.001360017
000260 60 00 68 ba 36 4d 6a 39 2f 7f 21 bb 8f 98 76 ba
       -0.00088501535 0.00022344742 -0.0024642458 -0.0009406888
000270 ec d7 4a ba f0 ae 03 bb b9 a2 14 bb 5a a6 6e 3b
       -0.00077378633 -0.0020093285 -0.0022679998 0.0036415071
000280 26 be e2 ba 11 79 24 bb e1 6d cb 39 1b 7f 29 3a
       -0.00172991 -0.0025096575 0.00038801043 0.00064657786
000290 ff 0b b5 ba ce 24 11 bb 8d ec f7 ba 49 a5 6c bb
       -0.0013812779 -0.0022147181 -0.0018915102 -0.003610926
0002a0 6e f3 82 bb 33 51 f6 3b 63 67 c6 3a 48 dc 94 bb
       -0.0039963042 0.007517004 0.0015137013 -0.004542861
0002b0 53 88 42 ba 95 3d 83 ba 94 11 23 3b a5 7e bb b7
       -0.00074208266 -0.001001286 0.0024882304 -2.235111e-05
0002c0 a5 0e db b9 f7 86 8f ba c1 d1 0c ba 51 e7 94 3b
       -0.00041781846 -0.0010950257 -0.0005371832 0.0045441766
0002d0 db 72 4a bb 99 48 38 3b 70 d1 80 3a 30 74 f8 3a
       -0.0030891213 0.0028119443 0.0009828042 0.0018955525
0002e0 bb 09 5a ba a8 b1 94 3b a9 4c ed bb eb 42 71 ba
       -0.000831749 0.00453778 -0.0072418046 -0.0009203392
0002f0 d7 ba 1f 3b 42 9b 18 b9 9d d8 ba b8 a7 7e a0 bb
       0.002437284 -0.00014553688 -8.9095185e-05 -0.0048979106
000300 14 a8 7b 3b f9 ef 67 3a 4e ce b0 39 28 dd ec b8
       0.0038399743 0.00088477094 0.00033723045 -0.000112945505
000310 8d ee 18 39 8b 99 7f 3a 76 a7 6e bb 99 2f ae b9
       0.00014584717 0.0009750358 -0.0036415732 -0.0003322333
000320 0f b2 76 37 22 04 d7 ba fb 41 30 bb 62 ac 75 bb
       1.47042e-05 -0.001640443 -0.0026894796 -0.0037486781
000330 e0 a5 87 ba ca a7 24 b8 f0 03 29 bb e0 b7 88 ba
       -0.0010349117 -3.9256913e-05 -0.00257897 -0.0010430776
000340 84 86 1a bb 09 80 c2 ba f1 06 07 bb a8 10 08 bb
       -0.0023578713 -0.0014839183 -0.0020603503 -0.002076188
000350 6f b2 2a 3b f7 bb 41 3b da d2 76 bb 9f cc 28 ba
       0.0026046296 0.0029561499 -0.0037662298 -0.00064391823
000360 8a f0 fb 3a 07 8d 64 ba a6 a2 f5 38 38 0f 73 3b
       0.0019221467 -0.00087185245 0.00011712806 0.0037087929
000370 a5 e3 95 bb 74 2f a2 39 eb 00 24 3b d0 70 1e 3b
       -0.0045742565 0.00030934403 0.0025024961 0.0024176128
000380 60 50 74 b9 93 58 e8 ba bd a5 ca 3a d8 30 1b b8
       -0.00023299595 -0.0017726592 0.0015460771 -3.700037e-05
000390 a5 a4 6a 3b 56 6e 1a b9 68 67 2c 39 39 1d 05 3b
       0.0035803702 -0.00014727688 0.0001644172 0.0020311608
0003a0 ef ab dc ba c2 4d 98 bb 97 fd 0a 3a 9b 80 8b b9
       -0.0016835908 -0.0046479413 0.000530207 -0.00026607965
0003b0 5e 3d ad 3a bf 11 3d b9 a7 93 2c bb fb be 0a bb
       0.0013217141 -0.00018031056 -0.0026333125 -0.0021170962
0003c0 81 06 c2 ba 02 38 cd 3a 95 c7 1e bb 72 43 b3 bb
       -0.0014802964 0.001565695 -0.0024227847 -0.0054706866
0003d0 fb 6b 0e 3b 95 df 89 3b 13 f8 a6 ba 8d 28 d7 bb
       0.0021731842 0.0042075613 -0.0012738727 -0.0065661133
0003e0 07 0b ad b9 33 92 d0 ba 35 74 9a 3b 99 d8 87 39
       -0.00033005347 -0.0015912711 0.00471356 0.00025910584
0003f0 03 26 d8 3b f6 cb 8f 3b 23 9f b8 ba 37 0e d8 39
       0.006596328 0.0043883277 -0.0014085512 0.0004120932

root.left_child.local_expert.fc1.weight f4 [32, 437]
000000 2f 2f 62 bb d8 92 43 bc 99 15 0a 3d 28 c4 26 bb
       -0.0034512987 -0.011936866 0.033712003 -0.0025446508
000010 d1 c7 cb 3c 63 0e c1 bc fb 51 a3 3c ed cb 05 3d
       0.024875553 -0.02356643 0.019936552 0.032665182
000020 44 e2 94 3c c8 a3 2c bd 0d 9b 10 bc df be fa bc
       0.018174298 -0.04214838 -0.0088260295 -0.030608593
000030 10 15 29 bb 78 ab 2d bd b8 35 e0 3c eb 29 2d bd
       -0.0025799908 -0.042399853 0.027369365 -0.042276304
000040 2e a9 1b bc 08 79 41 bd 95 ad c0 bc 59 ff ca bc
       -0.009500785 -0.047234565 -0.02352027 -0.024779962
000050 30 ed 24 bd 38 90 01 3c 74 43 34 bd 0c 57 e1 bc
       -0.040265262 0.00790792 -0.04400964 -0.027507327
000060 49 8a 2d 3d bf 6d 8c ba cf 2e 99 3c cc 24 c3 bc
       0.042368207 -0.0010713859 0.018699078 -0.023821257
000070 ac 53 02 bc c3 73 ba 3c 39 ef 9b 3c 2a 62 dd 3b
       -0.007954519 0.022760278 0.019034969 0.006756087
000080 13 13 0c 3d 40 bb d5 3c a6 4c 32 bd 63 28 cd 3b
       0.034197878 0.026090264 -0.04353013 0.006260918
000090 de 1c b4 bc a1 33 13 bb fe ef 18 bd 01 54 81 3c
       -0.021986421 -0.0022461193 -0.03733825 0.015787126
0000a0 bc c8 a3 3c af 79 1a 3d be 89 c6 bc b8 eb 32 bc
       0.019993179 0.037713703 -0.024235602 -0.010920458
0000b0 08 40 47 3c d2 5b 2e bd fd 67 14 3c 98 06 38 3c
       0.012161262 -0.042568035 0.009057996 0.011232041
0000c0 2f a0 68 3b 8f df 08 3c 14 9f f4 3c b9 25 67 3c
       0.0035495867 0.008354082 0.02986101 0.014108115
0000d0 57 8e ec bc 4b 48 67 3a ee c5 e5 3a c4 ad f5 3c
       -0.028876467 0.0008822723 0.0017530301 0.029990084
0000e0 09 ce 19 3d 05 0c c3 3c fd 13 b3 bc 67 c0 e9 ba
       0.037550006 0.023809442 -0.021860117 -0.001783383
0000f0 5f b7 4f bc 20 67 2c bb 94 f7 61 bc 8e 81 bb bc
       -0.012677996 -0.0026306584 -0.013791937 -0.022888925
000100 b1 6e 53 3d 23 8d 35 3d 4c b3 13 bd 0a 83 e6 bb
       0.051619235 0.04432405 -0.036059663 -0.007034664
000110 16 a2 b1 bc b7 99 e6 ba 88 47 17 bd b3 e9 52 3d
       -0.021683734 -0.0017593418 -0.036933452 0.051492404
000120 b0 f3 63 bb b5 67 27 3b bf b0 e0 3b c1 cb ca bc
       -0.00347827 0.0025543992 0.0068570073 -0.02475536
000130 3d e7 38 3d 67 71 d5 bb 8a 98 79 bc 6a 16 39 bc
       0.0451424 -0.0065137628 -0.015234122 -0.011296848
000140 19 57 1c bd 19 82 b3 bb 91 ce b4 bc 4e e2 63 3c
       -0.038169 -0.0054781553 -0.022071155 0.013908936
000150 c6 9b 29 bc 18 ac c9 bb 49 2a 7c bc 37 f1 11 3d
       -0.010352081 -0.0061545484 -0.015390941 0.03563043
000160 b2 cc 32 3d 1e ac 37 bd c5 21 ca 3b 7f 66 ef 3b
       0.043652244 -0.044841878 0.0061685764 0.0073059197
000170 5e 49 f6 bc f2 39 d4 3c 8f 7a 7b 3c 02 61 45 bd
       -0.030064281 0.025906537 0.015349044 -0.048188217
000180 27 6c 3e bd fb a7 fa bc 09 0d 17 3d 5d bb 06 3c
       -0.04648986 -0.030597677 0.036877666 0.008223382
000190 16 e6 4b bc 91 ab e5 bb 18 b3 e9 bc cb 89 94 ba
       -0.0124449935 -0.0070089777 -0.028527781 -0.0011332569
0001a0 71 e1 1c bd 26 e7 bf bc fe 20 a3 bc 47 11 1a 3c
       -0.038300935 -0.02342565 -0.019913193 0.009403533
0001b0 6b 03 21 3d a3 bd 0f bd 0f 15 91 bb bb 0c a7 bc
       0.0393099 -0.03509296 -0.004427559 -0.020391813
0001c0 b3 5b 34 3d 7f 75 41 3c 02 92 b2 3c b3 64 5c bc
       0.044032764 0.011807798 0.021798138 -0.013451743
0001d0 54 55 d9 bc ee 18 0b bd f0 a9 e3 bb 87 5a 2a bc
       -0.026529945 -0.03395932 -0.0069477484 -0.01039756
0001e0 4b 60 26 3d a7 f2 8c 3b 8a e1 77 bb 3d cc 15 bd
       0.040619176 0.0043013874 -0.003782364 -0.03657173
0001f0 7b ef 0e bc eb c8 6c ba df 82 fd 3c 3b 57 19 bc
       -0.008724089 -0.00090326247 0.030946193 -0.009359176
000200 75 b8 c7 3b 89 89 fa 3b 1d b6 2d bc c6 01 5c bc
       0.006094987 0.00764579 -0.010602501 -0.013428157
000210 69 a8 11 3c 77 17 e2 bc 01 40 b6 bc d1 16 c2 36
       0.00889025 -0.02759908 -0.022247316 5.7843067e-06
000220 b3 2c 1e 3d ea 5e 63 3c b8 7c 2d bc 1e be 29 3d
       0.038616847 0.01387761 -0.010588817 0.041441076
000230 58 ef c4 3c c1 18 25 bd 11 b9 05 bd 98 ba 12 3d
       0.02403991 -0.04030681 -0.032647196 0.03582248
000240 1f 83 a7 bc c5 06 a0 bc 0f 9b 3a bd d1 9f fb 3c
       -0.020448266 -0.019534478 -0.04555803 0.030715855
000250 0c c0 94 3b bb a8 29 bd 25 91 f3 bb 46 b1 9c bc
       0.0045394953 -0.04142068 -0.007433074 -0.0191275
000260 b8 5c 52 bc 43 08 f0 bc ef 01 05 3c a8 4b a1 3b
       -0.012839489 -0.029300814 0.008118137 0.004922349
000270 fc a3 0a bd 73 ac 5d bc 22 7e 28 bd 51 0e 1c bd
       -0.033847794 -0.013529885 -0.041135915 -0.03809959
000280 0a 7f 08 3d b8 83 13 3d 9a 73 3f bd e3 c9 f8 bc
       0.03332428 0.03601429 -0.046741106 -0.030369705
000290 23 3e 96 3c 4a 59 1b bd 46 55 34 3d de e9 0a bd
       0.018340176 -0.03792695 0.044026636 -0.03391444
0002a0 4f 91 3f bd 06 1e 6d bc 66 6e 3d bd 38 d4 03 3d
       -0.046769436 -0.01447249 -0.046247862 0.03218481
0002b0 82 af f3 3b 13 5f 41 3c 01 cf 06 3c f7 fe 2f 3d
       0.0074366936 0.011802453 0.0082280645 0.042967763
0002c0 19 bf 13 3d 69 38 17 bd b4 6e 23 3d b2 be cf 3b
       0.036070917 -0.03691903 0.039900497 0.0063398713
0002d0 5d 21 a8 3c e4 dd 27 3c 7e 7d d3 3b fa 24 7e 3b
       0.020523721 0.010245774 0.006454169 0.0038779364
0002e0 08 62 58 3b 5a f4 c5 3c 3b ac a1 bc de a5 36 3d
       0.0033017416 0.024164367 -0.019735446 0.044591777
0002f0 78 0d 03 3d d1 c8 94 3c 58 d3 20 3b 43 31 9b bc
       0.031995267 0.018162163 0.0024540033 -0.018944388
000300 ae 2c 3f bc c6 ea 0f bd 44 27 4c bc d4 9c 29 bd
       -0.011668367 -0.035136007 -0.0124605335 -0.04140933
000310 15 c3 bf bc ab 59 5b 3c 49 63 d3 3c 18 a5 c8 3c
       -0.023408452 0.013388078 0.025804179 0.024492785
000320 7d 62 e7 bc 03 f1 dd 3c 92 d8 f2 bb 02 67 91 3c
       -0.028245205 0.027092462 -0.007411071 0.017749313
000330 f1 e5 b3 3b fe 7a ea 3c 3e 62 a1 bb 2c 7f 18 bd
       0.0054900576 0.0286231 -0.0049250415 -0.037230656
000340 29 22 1b 3d 41 c8 0e bc 7d b5 67 bc 5c b3 d1 3c
       0.037874375 -0.008714736 -0.014142391 0.02559822
000350 70 ce 2e 3c d6 83 8c bc d7 dc 99 3c 4c cc ee bc
       0.010669336 -0.017152708 0.018782062 -0.02915015
000360 3b 6d b2 bb ea 04 3b bd a7 80 ac 3c b9 a8 b2 3c
       -0.00544515 -0.045658983 0.02105744 0.021808969
000370 cb d0 e7 3c b5 96 18 bb 21 59 1f 3d de 0a 9e 3c
       0.028297802 -0.0023283188 0.03890336 0.019292291
000380 cb ab 01 3c 3a 6f 0d bd 7d 67 40 3c 15 ad 0a bd
       0.007914494 -0.034529902 0.0117434235 -0.03385647
000390 3c fc a3 bc 52 42 2b 3c 89 c7 10 3c e7 72 05 bd
       -0.020017736 0.010452824 0.008836635 -0.032580283
0003a0 bf 7a c2 3a a5 d3 26 bd 33 6d 38 3d 04 82 cc bc
       0.0014837607 -0.040729184 0.045026015 -0.02496434
0003b0 be d7 bf bc db 7d 1e bd 5a be 01 3d 79 4d 03 3d
       -0.023418304 -0.038694244 0.031675674 0.032056306
0003c0 8e 46 11 3c 35 36 fc bc 8f 09 62 3c 4e 19 04 3c
       0.008866919 -0.030787567 0.013796224 0.008062674
0003d0 15 bc d9 3c ee ee d5 3c 66 51 e3 3c 88 76 32 3b
       0.026578942 0.026114907 0.027748775 0.0027231295
0003e0 1b bb 66 3c 9d f4 0a bd 88 ac c3 3c 73 7a 01 bc
       0.014082695 -0.033924688 0.02388598 -0.007902729
0003f0 a7 63 06 bd 87 1b 10 bd 0b ce d8 3c f0 c2 67 3b
       -0.03280988 -0.035182502 0.026465436 0.0035363995

root.left_child.local_expert.fc1.bias f4 [32]
000000 3b 52 23 3d 6f cc 43 3c 16 da 3a bc 59 4d 0b bd
       0.039873343 0.011950596 -0.011404535 -0.03400931
000010 1f 48 5a bc 8d 83 d4 bb ef 0f e2 bc d6 f3 2d bc
       -0.013322859 -0.0064854086 -0.027595488 -0.010617217
000020 36 e6 33 3d 96 32 21 bd 8d a7 ef bc 39 49 02 bd
       0.043920718 -0.039354883 -0.0292547 -0.03180811
000030 6b ab 5a bc 9c 08 d5 3c 3d 5a ad bc 67 cd e4 bc
       -0.013346533 0.026005082 -0.021161193 -0.027929975
000040 e3 bb 40 bc dc ea 33 bc 7f 34 2f bd ac 27 61 3c
       -0.011763546 -0.010981288 -0.042774674 0.013742369
000050 3b 59 b9 3c 84 45 f6 3c 15 bd fc 3c 0a d9 25 bd
       0.022625556 0.030062445 0.03085188 -0.040490188
000060 cf 08 42 bb 73 99 d8 3c 25 57 b3 3c 50 e6 c2 3c
       -0.00296073 0.026440358 0.02189214 0.023791462
000070 d3 5f ed bc 25 34 13 bd 87 42 ea bb cd 83 c2 3c
       -0.028976357 -0.0359384 -0.007149044 0.023744488

root.left_child.local_expert.fc2.weight f4 [2, 32]
000000 7e e8 1c 3e 63 6f 20 3b 50 86 d9 bd 16 e3 e7 3d
       0.15323064 0.0024480454 -0.10621321 0.1132261
000010 aa 84 14 3e 8b 23 0f be 4d 71 25 be bf cf c7 3d
       0.14503732 -0.13978402 -0.16156502 0.09756421
000020 1a 1f 12 be f8 c5 a3 3d 68 03 17 3e 2b 9e e8 3d
       -0.14269677 0.07996744 0.14747393 0.11358293
000030 96 85 e4 bc b8 14 0b 3e 51 96 27 3e a3 1e 63 bd
       -0.02789573 0.13582122 0.16365935 -0.05544914
000040 b9 7a 0b be a1 d7 c4 bd 6a eb bb 3d 96 d7 c2 3d
       -0.13621034 -0.096114404 0.09175761 0.09513776
000050 e6 8e 11 3e fe 46 bd bd d4 70 ff 3d 0e 43 1c 3c
       0.14214668 -0.09242056 0.12472692 0.009537471
000060 35 3a 17 3e aa 0e e6 bc 8c 43 92 bd 8b 42 b2 3d
       0.14768298 -0.028083164 -0.0714179 0.08704098
000070 3c c5 07 bc a0 dd 28 be ce 75 ad 3b d3 c7 bc 3d
       -0.00828677 -0.16490793 0.0052935844 0.09217801
000080 56 6f e6 3b 06 84 b2 3d 17 57 1d 3e 41 e8 09 be
       0.0070323152 0.08716588 0.15365253 -0.13467504
000090 c5 3c 2e 3e 8b d6 28 be 39 1a da bb 98 a2 92 bd
       0.17015369 -0.16488092 -0.006655958 -0.071599185
0000a0 f2 1f 01 be 26 ad ce 3d 01 f2 dc bd 4e 67 31 be
       -0.12609842 0.10091619 -0.10788346 -0.17324564
0000b0 1a 01 29 3d d8 6f 3a 3e bf bb b1 3d 97 65 2c 3c
       0.041260816 0.18206728 0.08678388 0.010522268
0000c0 87 89 31 3e e0 b8 c1 bc 3a b8 d2 bd a9 9c b9 3d
       0.17337619 -0.023647726 -0.10289045 0.09063084
0000d0 ec 61 8e bd da 19 96 3d 0d 59 ac 3d c8 be ea 3d
       -0.06952271 0.073291495 0.084154226 0.1146217
0000e0 92 31 17 3e 8b ce cf 3d fd 2e ea 3d c7 d4 13 be
       0.14765003 0.10146817 0.114347436 -0.14436637
0000f0 32 2d cc 3d fb 21 04 be 54 81 f3 bb f1 f0 3b bd
       0.09969558 -0.12903588 -0.0074311886 -0.045884077

root.left_child.local_expert.fc2.bias f4 [2]
000000 6c d9 1b be 4f 09 4f bc
       -0.15219659 -0.012636497

root.right_child.gating.0.weight f4 [16, 437]
000000 a4 69 90 bc ee eb fc 3b c3 bc 19 3d dd b4 bb bc
       -0.017628498 0.0077185547 0.037533533 -0.02291339
000010 dc 70 81 bb b9 55 16 3c 35 2b f8 bb fd 84 1a bd
       -0.0039502215 0.009175711 -0.00757351 -0.037724484
000020 0b 58 13 bd df a4 3c bd b4 a8 27 3d 82 5d 1d 3d
       -0.035972636 -0.04605567 0.040932372 0.038419254
000030 61 3b 18 3d 22 92 2f bc 61 08 03 3c 6d 5f d7 3b
       0.037166003 -0.010715993 0.007997603 0.006572655
000040 80 b0 c6 bc 81 1f 20 3d 6a ad 97 bc 1e 72 bb 3c
       -0.024254084 0.039092544 -0.018515307 0.022881564
000050 ae 44 2c 3d 11 ea 2c 3c c8 9e f3 bc 66 66 37 bd
       0.042057686 0.010553853 -0.029738799 -0.04477539
000060 65 b3 a7 bc ca b7 2d 3c 3e d1 00 bd 20 c3 64 bc
       -0.020471284 0.010602901 -0.03144955 -0.013962537
000070 72 63 fa bc d8 11 7b bc d2 ca fe bc bd ac a5 3b
       -0.030564997 -0.0153240785 -0.031102572 0.0050559924
000080 a1 8f 7c bc 34 91 e6 bc de ac 69 3b af 97 2b 3d
       -0.015415103 -0.02814541 0.0035656015 0.041892704
000090 b8 2c 38 3c d0 65 18 bd 1c 1f 10 bd 79 69 97 3c
       0.0112411305 -0.03720647 -0.03518592 0.01848291
0000a0 67 b1 b5 3c a0 2e 0f bd 09 62 e6 3c 12 86 a2 ba
       0.022179319 -0.034956574 0.028122919 -0.0012399575
0000b0 6f 6c 36 3d 97 e7 91 3c df d6 09 3c e3 83 8d bc
       0.044537004 0.017810626 0.008413046 -0.017274803
0000c0 c5 d1 ee 3c db 3f b7 3c 6a e6 68 3c 1c c6 0d 3d
       0.02915276 0.022369316 0.014215091 0.03461276
0000d0 43 e5 93 bc 0a 8b 30 3d 4d e1 88 3c f2 87 37 3d
       -0.018053656 0.043101348 0.016708994 0.044807382
0000e0 8c f6 87 3c 44 68 0b bc 6a 8f 6c 3c e6 d2 37 bd
       0.016597055 -0.008508746 0.014438489 -0.044878863
0000f0 98 33 94 bb 81 42 2b bd 7b 16 e9 3c b9 8f 96 3b
       -0.004522752 -0.04181147 0.028453102 0.00459477
000100 cb 87 8b 3b 19 b8 bd 3c de 63 fc bc d9 a4 09 bd
       0.004258131 0.023159074 -0.03080934 -0.033604477
000110 6d 98 ed 3b 67 18 ab 3c b7 56 12 3c 59 9d 29 3c
       0.0072508366 0.02088566 0.008931807 0.010352456
000120 ba 47 a6 3c a5 0f a0 3c 6c c5 02 bd 23 d3 28 bd
       0.020297874 0.01953871 -0.031926557 -0.04121698
000130 e2 eb f3 3b 5c 82 ce 3c 4a 83 2a bd 7e 77 75 bc
       0.007443891 0.025208645 -0.041629113 -0.014982102
000140 51 0a 2a 3d e8 c3 5f bb 5c 70 f7 bb 09 8e 12 3c
       0.041513745 -0.0034143869 -0.007551236 0.008944997
000150 a2 8d 31 3c 8d 1c 10 3d e8 5f ea 3c fd 4c a2 3c
       0.010836991 0.03518348 0.028610185 0.019812101
000160 67 20 02 bd 61 00 01 3d 64 41 1e bb d0 88 8e bb
       -0.031769183 0.031494502 -0.0024147863 -0.0043498054
000170 82 fc 4b 3c 21 bb 80 bc 31 db db 3c 56 29 5a bc
       0.012450339 -0.01571423 0.026837917 -0.013315519
000180 92 84 02 bd 09 29 cf bc a6 04 51 3c a3 00 98 bc
       -0.03186471 -0.025288122 0.012757456 -0.018554991
000190 57 67 b8 bb a3 1b 96 3c e7 7a cd bc af be 2f bd
       -0.0056275534 0.018323725 -0.025083018 -0.04290646
0001a0 d6 bd 34 bd 62 6d ee 3c 4c 08 35 3c 30 5f 20 bc
       -0.044126354 0.029104892 0.011049341 -0.0097883195
0001b0 c1 3e fa bc 35 13 a5 3c 44 b5 89 bc e4 68 20 3d
       -0.030547502 0.02015076 -0.016810067 0.03916253
0001c0 7c 13 a8 3c 0b de 3b 3d b6 de 22 3c e5 a8 3a bc
       0.020517103 0.045866054 0.009940794 -0.011392807
0001d0 ed c6 1a 3d 91 4e 1f 3d 7f df e3 3b 3f d0 67 bc
       0.037787367 0.038893286 0.006954133 -0.014148771
0001e0 ef 08 41 3c f9 63 8f 3c 8b 07 69 3b 5b 3a 0f 3d
       0.011781915 0.017503725 0.0035557474 0.03496776
0001f0 d4 2f 12 bd f0 b1 41 3d a2 ff ce 3c 81 7e 04 3d
       -0.035690144 0.047288835 0.02526838 0.032347206
000200 ae 2d 87 ba ad 70 87 bc 3c 8b 2f bd 26 c6 37 bd
       -0.0010313296 -0.01653322 -0.042857394 -0.044866703
000210 7a 94 ea 3c 0c 87 a7 bc 78 f2 22 3c 75 f4 d8 3c
       0.028635252 -0.020450138 0.009945504 0.026483754
000220 f2 dc d0 bb 62 01 ae bb b8 5a 06 3b 46 4d 41 3d
       -0.006373995 -0.0053102234 0.002050085 0.047192834
000230 bf 18 a4 3c 44 38 d1 bb 97 54 3a 3d 24 ba 30 bd
       0.020031331 -0.006384881 0.045490827 -0.043146268
000240 40 01 a3 3c 31 27 91 3c 0c 78 9d bb e1 cd d0 bb
       0.019898057 0.017718883 -0.0048055705 -0.006372199
000250 04 32 94 3c 7a 1f 25 bd 64 e7 43 bd 13 e8 ca bc
       0.018090256 -0.04031322 -0.047828093 -0.024768865
000260 57 b5 12 3d a8 41 06 3d 70 5e 79 3c c4 ac 5b bb
       0.03581747 0.03277746 0.01522027 -0.0033519724
000270 a7 10 13 bd 85 2c d6 bc 1a 71 c3 3c 28 09 56 bc
       -0.035904553 -0.026144275 0.023857642 -0.013063706
000280 17 ed 01 3b ab 0a ef 3c 16 4f 31 bb aa ec 29 3d
       0.0019825154 0.029179892 -0.0027055196 0.041485466
000290 67 15 0d 3d f6 1a 35 bd 7d d1 3f 3d c4 59 89 bc
       0.03444424 -0.044215165 0.046830643 -0.016766436
0002a0 b2 9e e8 bc 56 15 31 bd 4e f7 b0 bb 00 b2 8a 3c
       -0.028395984 -0.04323324 -0.0054005748 0.01693058
0002b0 b2 e1 c3 bb d6 7c 69 3b 3c e9 13 bc 68 dc 35 3c
       -0.0059778327 0.0035627387 -0.009027775 0.011099912
0002c0 a4 80 ba 38 bc be 8a bc 5d a5 3b bd 8d f7 11 3d
       8.893132e-05 -0.016936652 -0.045812 0.035636473
0002d0 33 01 c7 3c e6 56 eb bb a2 4e 9d bc 62 7e 45 3b
       0.024292564 -0.00718199 -0.019202534 0.0030135144
0002e0 8c 63 3d 3c ca 45 f5 3c 25 25 e0 bc 35 4b 20 bd
       0.011559378 0.029940505 -0.027361462 -0.039134223
0002f0 b9 18 c4 3c d1 92 c3 39 f9 5f 89 bc 84 76 38 bd
       0.02393757 0.00037302685 -0.016769396 -0.0450349
000300 84 5c 1f bd 18 01 27 3d eb f8 f7 bc 8a 61 21 3d
       -0.03890659 0.040772527 -0.03027006 0.03939966
000310 87 24 16 3d aa 7c d4 3c 62 00 bc bc 24 d8 38 bb
       0.03665593 0.02593835 -0.022949401 -0.0028205002
000320 79 95 29 3d 3f 14 d1 bb 2a 6a 91 bc a7 cd 04 bd
       0.041402314 -0.0063805874 -0.017750818 -0.032422688
000330 0a 51 0e 3d 81 1c 97 3c db 1e cc ba 62 61 11 bc
       0.034745254 0.018446209 -0.001557316 -0.0088733155
000340 81 bf 30 3d fa 29 c9 3c 56 22 ff 3c 6c db b6 3c
       0.043151382 0.024556149 0.031144302 0.022321425
000350 96 0c fa bc e2 8d ec bc f8 53 01 3c 9e fd ff 3c
       -0.03052358 -0.028876249 0.007893555 0.031248864
000360 8f ec f9 3c cb c2 0c 3d 82 80 01 bd 70 90 0f 3c
       0.030508308 0.034365457 -0.031616695 0.008762464
000370 60 e8 43 bd a8 40 04 3d 66 be c1 3c e8 4c 12 3a
       -0.047829032 0.032288224 0.02365036 0.0005580918
000380 fa 50 e7 39 80 42 9f bc 09 a0 2d 3d 62 c4 a8 3a
       0.00044120086 -0.01944089 0.04238895 0.001287591
000390 ab e8 2c bd ae bf 43 3d 6e aa 19 3c f2 4d f9 3c
       -0.042214077 0.047790222 0.0093790125 0.030432675
0003a0 b8 86 2d 3d c9 07 82 3b d5 53 27 3d bc 24 30 bd
       0.042364806 0.003968213 0.040851433 -0.043003783
0003b0 ba ce 15 3d cd ce bb 3c 0a bb dd bc 6a e0 e0 3c
       0.036574103 0.022925759 -0.027066726 0.027450759
0003c0 a4 3a bf bc 9f 71 96 bc 75 88 b7 3c 97 fe 90 bc
       -0.023343392 -0.018364726 0.022403935 -0.017699523
0003d0 55 58 21 bd 06 b1 43 bd e8 7f a0 bc 04 f4 d4 bc
       -0.03939088 -0.047776245 -0.01959224 -0.025995262
0003e0 03 4b b3 3c b8 54 6b 3c 3b ca 30 bd 98 89 7e bc
       0.021886354 0.01436346 -0.043161612 -0.015535735
0003f0 b3 13 0b bd 3a 33 6e 3c 4e 3f 3b 3d f3 30 91 bc
       -0.033954334 0.014538581 0.04571467 -0.017723536

root.right_child.gating.0.bias f4 [16]
000000 1d 64 9c bc ff c8 37 3d c3 a4 38 3d 92 38 d3 bc
       -0.019090706 0.04486942 0.045079004 -0.02578381
000010 44 4d 51 3b 71 a6 f2 3c 52 6b bd 3c 1c b3 86 3c
       0.0031936923 0.029620381 0.023122463 0.016442828
000020 90 cb 08 bb cf 2a 29 3d 66 8b 05 bd 5d f0 2e 3d
       -0.0020873286 0.04130059 -0.032603644 0.042709697
000030 97 be b5 3c 44 47 c0 bc bc ee 80 3c 08 95 d5 3c
       0.022185607 -0.023471482 0.015738837 0.02607204

root.right_child.gating.2.weight f4 [1, 16]
000000 3c 40 c4 3d 74 90 06 3e a8 0b 2f 3d c0 8f e4 3c
       0.09582564 0.13141042 0.042735726 0.027900577
000010 cc 98 33 3e 78 b2 2c be a4 46 5a 3e 88 f0 30 bd
       0.17538756 -0.16864955 0.2131601 -0.04319814
000020 d8 ad c1 bd 54 d7 b0 bd 80 07 6c 3d 70 0a bb bd
       -0.09456986 -0.086348206 0.05762434 -0.0913285
000030 18 16 cf 3d 80 ae 4d 3e 6a bc 5c be 70 83 89 bd
       0.10111636 0.20086098 -0.2155625 -0.06714523

root.right_child.feature_selector.logit_phi f4 [437]
000000 01 8a 0c bb 53 06 62 bb b7 c5 dc 3a f3 65 64 3b
       -0.0021444561 -0.0034488633 0.0016843592 0.0034850806
000010 b7 47 b1 ba 76 a4 aa 38 2b 93 90 3b 21 26 d7 bb
       -0.0013525401 8.136865e-05 0.004412075 -0.0065658246
000020 25 5b 7d 3a 9b fc 11 bb 45 e1 cc bb a5 05 dd ba
       0.00096647657 -0.0022275809 -0.00625244 -0.0016862644
000030 f4 3c 1a bb 25 e2 df 3a 45 06 bd 39 c3 33 c1 3b
       -0.0023534866 0.0017080946 0.0003605356 0.005896063
000040 4f 44 ef ba e5 70 4e bb e4 1e 9b b9 63 f9 0d ba
       -0.001825461 -0.0031500396 -0.0002958692 -0.00054158847
000050 b9 b6 7d 3b 61 f3 87 ba 1f a3 72 bb 07 c8 8b 3b
       0.0038713648 -0.0010372215 -0.0037023497 0.0042657885
000060 58 4d 57 bb 5c b4 3d 3a 04 72 03 bc 76 3b f8 37
       -0.0032852497 0.00072366535 -0.008022789 2.9591592e-05
000070 3f 05 15 3b 7e 6d bf 3a e8 dd 6a bb f0 62 5f bb
       0.0022738723 0.0014604775 -0.0035837833 -0.003408607
000080 5a 69 59 b9 55 6f 06 b9 fa f0 21 bb b2 d3 c8 3a
       -0.00020733979 -0.0001282071 -0.0024710284 0.0015321879
000090 20 e0 57 3b ee ca 8f 3b aa f0 43 3b 35 b7 06 bb
       0.0032939985 0.004388205 0.0029898086 -0.0020555977
0000a0 83 fb 09 3b 80 0a 82 bb d2 62 c5 3b 0f 40 b0 3b
       0.0021054454 -0.003968537 0.006023743 0.00537873
0000b0 dc 0c fc 3a ec d9 91 b9 55 d2 0c bc 78 4f 32 bb
       0.0019229907 -0.0002781892 -0.008595069 -0.0027208012
0000c0 20 0b f9 bb f7 0f 09 bb 20 d9 10 3b 5f 49 db 3a
       -0.007600203 -0.0020914057 0.0022102073 0.001673024
0000d0 35 8c ec ba 22 1b cd bb f8 66 0f 3b 74 ae ba ba
       -0.0018047156 -0.006259338 0.0021881443 -0.0014242665
0000e0 bf 02 06 3b 86 28 c8 3b c5 cf a9 ba 73 5c 03 bb
       0.0020448414 0.0061083464 -0.0012955597 -0.0020044118
0000f0 b5 a5 53 bb a2 8b ad 39 e4 fe 80 3a e6 9f 2f 3a
       -0.0032294814 0.00033101166 0.0009841588 0.0006699547
000100 e1 ed 66 bb 7e 3c 48 b7 e5 c9 23 3b 45 a4 16 3b
       -0.0035237002 -1.1935013e-05 0.0024992165 0.0022986096
000110 22 08 f0 bb 5d c2 4d 3b 22 52 ca b9 73 26 fa 39
       -0.0073251883 0.0031396367 -0.00038589636 0.00047712363
000120 f6 8d 06 bb c0 4d 46 39 ff f3 91 3b 25 f8 3f ba
       -0.0020531393 0.00018911716 0.0044541354 -0.0007323048
000130 85 f2 a1 38 b3 62 62 3a a3 a8 43 ba 03 2f f9 ba
       7.722251e-05 0.0008635923 -0.00074637885 -0.0019011203
000140 67 af 93 38 3d 8a 45 bb 8a c1 10 b9 ae 31 7c 3a
       7.0421775e-05 -0.003014221 -0.00013805009 0.000962044
000150 a0 27 09 3a 50 dd e2 ba 84 32 36 3b ab d9 6b 3a
       0.000523204 -0.0017308388 0.0027801106 0.00089969736
000160 0c ee 27 bb 10 a7 47 3b 68 f3 14 ba bc d2 16 bb
       -0.0025624065 0.0030464567 -0.00056820223 -0.002301379
000170 1f 27 66 bb e0 e0 cf bb df ac e9 ba 12 de db ba
       -0.0035118533 -0.006343946 -0.0017828009 -0.0016774556
000180 b6 d2 75 3b 72 b8 fe ba 5d 74 cf ba 23 a1 72 ba
       0.0037509627 -0.0019433631 -0.0015827526 -0.00092555786
000190 0a 7a 23 ba be 57 01 3a c2 5b 18 3b 5d 7b 4b 3b
       -0.0006236142 0.0004934034 0.0023248051 0.0031048872
0001a0 62 1f e2 bb 36 0b 95 3a a3 d7 79 3a dd c5 54 39
       -0.006900714 0.0011371139 0.00095307286 0.00020291605
0001b0 51 51 1d 3b 20 fb fa 39 54 e2 b5 b9 d6 cc 87 3b
       0.0024004767 0.00047870819 -0.00034691638 0.0041442914
0001c0 a2 78 e0 39 1c 93 34 bb af 31 bf bb 14 bc 87 b9
       0.00042814488 -0.0027553504 -0.00583478 -0.00025889336
0001d0 ed ab ff 39 ff 02 4f bb 75 b8 e4 39 49 56 ba b8
       0.00048765485 -0.003158748 0.0004362498 -8.885243e-05
0001e0 d1 4a e4 3b 7e 0e b8 b7 f9 23 5e 37 0e 44 69 bb
       0.0069669266 -2.1941258e-05 1.3240607e-05 -0.0035593542
0001f0 62 ab d3 3a a4 9f d9 ba 32 b2 a9 bb f2 a3 3d ba
       0.0016149099 -0.0016603363 -0.0051787132 -0.00072342076
000200 a8 80 98 38 fa 2b 13 3a 5b 6a 61 bb e2 7b b0 39
       7.271889e-05 0.0005614158 -0.0034395668 0.00033661636
000210 04 9a fb ba b1 b9 d6 3a 5d fb dc ba 92 d3 9a bb
       -0.001919568 0.0016382245 -0.001685958 -0.004724928
000220 96 ca 3f 3a 9b da 8e 38 a5 43 f8 3a 0a 0e be 3a
       0.00073162594 6.811806e-05 0.0018941058 0.0014500034
000230 84 fe 7f ba 96 bf d6 ba 15 98 c7 ba 1b 53 27 3b
       -0.0009765404 -0.0016384001 -0.0015227819 0.0025531712
000240 a5 22 0b bb 6e 8c a2 3a da 8e e2 ba 66 a9 32 bb
       -0.0021230367 0.001240147 -0.0017285005 -0.0027261614
000250 c8 61 df 3b e1 0b 19 bb 34 70 9d 3a 6e 1e 5f bb
       0.0068170764 -0.0023353028 0.0012011589 -0.0034045237
000260 8d 85 da bb 30 04 44 bb f7 32 0f bb af 06 0d ba
       -0.0066687525 -0.0029909723 -0.0021850446 -0.0005379719
000270 89 fb 79 ba 52 cf 64 b9 c0 3d c9 3a c5 25 ae 39
       -0.0009536078 -0.00021821007 0.0015353486 0.00033216007
000280 e3 7f 6f 38 37 f9 3e 3b 66 98 1e ba ed 47 63 3a
       5.7101144e-05 0.0029140243 -0.0006049931 0.00086700806
000290 68 47 fd 3a 76 a6 3b bb 57 f5 66 b9 d9 a3 5a bb
       0.0019323649 -0.0028633154 -0.00022025905 -0.003336182
0002a0 f6 d5 1c 3b 3b fa 8b bb 5a ec 41 ba 2a 43 85 bb
       0.0023931242 -0.004271773 -0.0007397585 -0.0040668445
0002b0 ea 72 cf 3a 72 80 95 3b 8b a0 2c bb 8a d3 32 ba
       0.0015827094 0.004562431 -0.0026340808 -0.0006821683
0002c0 dd c0 8d 39 82 bb 8d 39 a8 94 0c 3a e0 b3 00 39
       0.0002703731 0.0002703332 0.00053627277 0.0001227404
0002d0 d8 ba f7 3a 2b c2 89 3b 18 ad ba ba cd 5d 01 ba
       0.0018900288 0.004204055 -0.001424226 -0.0004934937
0002e0 29 b8 2a ba bf b9 1e 37 d0 ed b1 3b eb d4 79 bb
       -0.00065124274 9.460781e-06 0.005429961 -0.0038121294
0002f0 5f 0d 0d 3b 75 03 54 3b 50 a1 36 3b 1f f4 dd 38
       0.0021522862 0.0032350693 0.0027867146 0.00010583572
000300 6c 76 06 3b 54 bb be 38 95 2b 4f 3a d8 ec 39 3b
       0.0020517362 9.0947986e-05 0.00079029176 0.002836993
000310 99 4c 22 bb 7f 28 7a bb c7 75 25 3a de b1 39 3b
       -0.0024764894 -0.003817111 0.00063118007 0.0028334777
000320 0d a5 d6 ba 1c a6 22 bb 0a 21 c6 3a 55 ae 5a 39
       -0.0016376093 -0.0024818247 0.0015116048 0.00020855044
000330 35 70 39 ba 01 8b 93 3a c8 d0 85 3a 3f ef 01 bb
       -0.000707391 0.0011256636 0.0010209316 -0.001982644
000340 e9 3e 25 b9 25 5e 1e bb 8a f7 62 ba b7 6a 46 bb
       -0.00015759062 -0.0024165001 -0.0008658102 -0.003027601
000350 13 aa 68 39 51 5f 09 bb 2d 82 c3 3a 00 4d e8 3a
       0.00022188602 -0.0020961354 0.0014916115 0.0017723143
000360 1f 53 8f 3a 5d fe cf b9 73 9f f5 ba df c6 c6 ba
       0.0010934806 -0.00039671632 -0.0018739536 -0.0015165469
000370 bd ca 3f bb 60 16 51 ba 0f dc 07 ba 9e 2e 80 3a
       -0.0029265129 -0.00079760514 -0.00051826326 0.0009779518
000380 ee 14 5e 3a 82 9c a0 3b a3 76 cc ba de b4 c0 b9
       0.00084717467 0.0049014697 -0.0015599321 -0.0003675585
000390 c7 2b c0 bb 47 95 ff ba 7d f7 2e 3b 2a 6d eb bb
       -0.0058645937 -0.0019499444 0.0026697807 -0.007184644
0003a0 b5 1f 2a 39 7d b7 ba ba b0 37 8b b9 e4 f5 62 3a
       0.00016224275 -0.0014245358 -0.00026553636 0.00086578564
0003b0 ea 6d c4 bb 92 6f 64 3a 8c e8 31 3b a4 e2 a8 ba
       -0.005994548 0.0008714135 0.0027146665 -0.0012884927
0003c0 db e1 3d 3b d5 e4 00 bb ce 15 dd 39 ff d6 09 bb
       0.0028973732 -0.0019667645 0.0004216865 -0.0021032689
0003d0 99 51 48 bb bb bc ad bb 46 c8 77 ba 8c 0f 9b 3a
       -0.0030566214 -0.0053020394 -0.00094521453 0.0011830195
0003e0 24 3e 4f bb 68 a5 c1 39 36 5b 4e 3b 1a fe b9 bb
       -0.0031622732 0.00036935066 0.0031487471 -0.005676043
0003f0 eb 62 09 bb cb 61 33 3b b1 c6 a9 bb 71 a7 be 39
       -0.00209635 0.0027371522 -0.0051811566 0.00036364378
