checkpoints/trial_0_alpha0.136_beta0.102_init-1.0_depth1_mlpTrue_hdim64/checkpoint.pth (torch, 321378 bytes, 19 tensors)

root.gating.0.weight f4 [16, 437]
0	0xbcf049d5	-0.02933208
1	0xbcf88cce	-0.030340578
2	0x3c8d95ac	0.017283283
3	0x3c3b0010	0.011413589
4	0x3bd9b017	0.006643306
5	0xba774d8e	-0.0009433859
6	0x3ce04411	0.027376207
7	0x3ccd43b3	0.025056696
8	0x3a1ed593	0.0006059047
9	0x3b84d3cd	0.004053569
10	0xbc839a83	-0.016064888
11	0xbc4b40ea	-0.012405613
12	0x3cbfc8ae	0.023411121
13	0xbc8a5005	-0.01688386
14	0xbb7b6c29	-0.003836403
15	0x3c9cfcbf	0.019163487
16	0x3d46cb4b	0.04853372
17	0xba109c1d	-0.0005516427
18	0x3cd1a286	0.025590193
19	0x3a83a46f	0.0010043512
20	0xbb671786	-0.0035261824
21	0x3b61a89e	0.003443278
22	0x3cb8bc08	0.022550598
23	0x3d156eb0	0.036482513
24	0xbc5b05fe	-0.013368128
25	0xbc5a0344	-0.013306443
26	0xbc767909	-0.0150435055
27	0xbca7bbd3	-0.020475304
28	0x3bf402fb	0.0074466444
29	0xbc323a1e	-0.010878114
30	0xbc3c17e3	-0.011480304
31	0x3d3ca21d	0.04605304
32	0xbd1620c8	-0.036652356
33	0x3d194492	0.03741891
34	0xbcb5fc0d	-0.022214914
35	0xbbd7be70	-0.006583981
36	0x3cf0899f	0.029362498
37	0xbad9c3c8	-0.0016614133
38	0xbc6696a2	-0.014074
39	0x3ce283be	0.02765071
40	0x3b6f227d	0.0036489062
41	0x3cb2cfb0	0.021827549
42	0x3c034ae8	0.0080134645
43	0x3cc9fbf1	0.024656268
44	0xbb904891	-0.004403182
45	0x3c74b154	0.014934856
46	0xbc6b83c5	-0.014374678
47	0x3d0f2db7	0.034955706
48	0x3ba7ee81	0.0051248674
49	0x3bdc1087	0.0067158374
50	0x3d162677	0.036657777
51	0xbc5f16d5	-0.013616283
52	0xbc189a41	-0.009314121
53	0x3d156c0b	0.03647999
54	0x3ce1c9cc	0.027562045
55	0xbcf20f20	-0.029548228
56	0x3cb6d38b	0.022317668
57	0xbcf8534a	-0.030313153
58	0x3d4a78e0	0.04943168
59	0xbc4f7e0d	-0.01266433
60	0xbbc3d3e2	-0.005976186
61	0xbcba35fb	-0.022730818
62	0xbc9c2878	-0.019062266
63	0x3cd3b258	0.025841877
64	0x3b13fed1	0.0022582302
65	0x3cbffeda	0.023436952
66	0x3cca354c	0.024683617
67	0x3d19dacf	0.037562188
68	0x3d69e1db	0.05710016
69	0x3c44e4e7	0.012017465
70	0x3b37cfae	0.002804737
71	0x3c9ec8f2	0.019382928
72	0xbcd70090	-0.026245385
73	0xbc7196cb	-0.0147454245
74	0x3b857b68	0.004073549
75	0x3ce0d430	0.027444929
76	0x3affa4bd	0.0019504052
77	0x39c46055	0.00037455806
78	0xbbf83afa	-0.00757539
79	0xbc62b275	-0.013836493
80	0xbd18d5de	-0.037313335
81	0xbcd39b80	-0.025830984
82	0xbcb92c6c	-0.02260419
83	0x3c66f387	0.014096147
84	0xbd0bd162	-0.03413523
85	0x3cce25f6	0.025164586
86	0x3cd1440c	0.025545143
87	0xba3db12a	-0.00072361773
88	0xbca6dffc	-0.020370476
89	0xbba403d0	-0.0050053373
90	0x3ca8e9be	0.02061927
91	0x3d262b0a	0.04056839
92	0x3c21f6fb	0.009885545
93	0xbd13b19a	-0.036058046
94	0xbccc8003	-0.024963384
95	0xbd048410	-0.032352507
96	0xbcf9bdd5	-0.030486027
97	0x3b0932c5	0.0020934802
98	0x3cb9fc34	0.022703268
99	0x3bb7f44f	0.0056138407
100	0x3cf080ea	0.029358346
101	0x3c926f1a	0.017875243
102	0x3cd0948d	0.02546146
103	0x3b372001	0.002794266
104	0xbca5e913	-0.02025274
105	0x3cc46ed5	0.02397863
106	0xbd1117cd	-0.03542309
107	0xbd203784	-0.039115444
108	0xbce5e3d5	-0.02806274
109	0xbb5a3960	-0.0033298358
110	0x3c6ac2fd	0.014328715
111	0x3c561711	0.013067023
112	0xbcb577c2	-0.022151832
113	0xbcb27ad7	-0.02178709
114	0x3c88b86a	0.016689498
115	0xbce257cd	-0.027629757
116	0xbca9db2b	-0.02073439
117	0x3cc5bd11	0.024138005
118	0x3c041b55	0.008063157
119	0xbc1fe045	-0.00975806
120	0x3b89a815	0.004200945
121	0x3d00bf3f	0.031432386
122	0xbc87bb75	-0.016568879
123	0xbc1f8948	-0.00973732
124	0xbca9f07f	-0.02074456
125	0x3c9c25e2	0.019061033
126	0x3cce93c3	0.025216943
127	0xbcd464d1	-0.02592698
128	0x3d08c684	0.033392444
129	0xbc36fc9e	-0.011168627
130	0xbcc96f3a	-0.02458917
131	0xbd088c1a	-0.033336736
132	0xbcf95838	-0.030437574
133	0x3c8330ad	0.016014421
134	0x3b745e11	0.0037287513
135	0xbd33fbac	-0.043941185
136	0x3ca696d6	0.020335596
137	0xbd1dc4b5	-0.038517673
138	0xbca62669	-0.020281987
139	0x3c72b1d0	0.014812902
140	0xbd08e82d	-0.033424545
141	0x3c560967	0.013063765
142	0xbcca27ca	-0.024677176
143	0x3cf82874	0.030292727
144	0x3ced6748	0.028979912
145	0xbc02da42	-0.007986607
146	0x3bdfd01c	0.0068302285
147	0x3cee7480	0.029108286
148	0xbcf3b783	-0.029750591
149	0x3c4dc3eb	0.0125589175
150	0x3d165fe0	0.036712527
151	0x3c9637ed	0.018337214
152	0xbd056ad1	-0.03257257
153	0xbce84884	-0.02835489
154	0xbc6bcc50	-0.014391974
155	0x3c4072f9	0.011746162
156	0x3ce872fd	0.028375143
157	0x3ca225a3	0.019793337
158	0x3c51c097	0.012802265
159	0xbcff835b	-0.031190565
160	0xbc4b0faa	-0.012393871
161	0xbb270747	-0.0025486515
162	0xbc842059	-0.016128706
163	0xbd049ec9	-0.03237799
164	0x3ba3d262	0.004999445
165	0xbcc579ac	-0.02410587
166	0x3c86a95b	0.016438177
167	0x3bab3c18	0.0052256696
168	0x3b6b2108	0.0035877842
169	0x3caf080c	0.021366142
170	0x3b8d9318	0.0043205135
171	0x3cebf941	0.028805377
172	0xbc6871eb	-0.014187316
173	0x3d0a21d8	0.033723682
174	0x3d1e60ac	0.038666412
175	0x3cff851a	0.031191397
176	0x3c239106	0.009983307
177	0x3d120f1a	0.035658933
178	0x3d0e68fc	0.03476809
179	0xbc37b498	-0.0112124905
180	0xbce6b9de	-0.0281648
181	0x3cdad0cc	0.02671089
182	0xbcdd9b80	-0.027051687
183	0x3b88ef29	0.0041789007
184	0x3c7503ec	0.014954548
185	0x3cd59bd2	0.026075277
186	0xbc5f8eef	-0.013644918
187	0xbbce0b5f	-0.0062879766
188	0xbca9cdf9	-0.020728098
189	0x3cf77600	0.030207634
190	0xbc2ad09e	-0.010425715
191	0xbcddff49	-0.027099269
192	0x3ce4e281	0.027940037
193	0xbb88dbea	-0.0041766064
194	0x3cd5fdad	0.026121939
195	0xba3f3559	-0.0007294021
196	0x3d2404e8	0.04004374
197	0xbbcb4796	-0.006203602
198	0xbcc3df6a	-0.023910243
199	0xbc7df1ba	-0.015499527
200	0x3b9305ce	0.004486776
201	0xbc71a5cd	-0.014749003
202	0x3b8af61b	0.004240764
203	0xbaa071de	-0.0012240966
204	0x3b684e52	0.0035447073
205	0x3ca8c192	0.020600114
206	0xbc740def	-0.0148959
207	0xbc823658	-0.015895054
208	0x3ba4b912	0.005026945
209	0xb9b51610	-0.00034539448
210	0x3cdce7d3	0.026966011
211	0x3b043ad2	0.0020176661
212	0x3c98ec30	0.01866731
213	0x3c3b56ed	0.011434299
214	0xbcaf6c6c	-0.021414004
215	0xbc8589d5	-0.016301075
216	0x3d1c5af7	0.03817269
217	0xbcf34816	-0.02969746
218	0xba9eac6a	-0.0012105827
219	0x39f2675e	0.00046234851
220	0x3b594c71	0.0033157135
221	0x3c65b2c3	0.014019671
222	0xbcd50547	-0.026003493
223	0xbcaed8d6	-0.02134363
224	0x3d056bfc	0.032573685
225	0x3c64c26a	0.013962368
226	0x3ce55c6e	0.027998175
227	0x3ca5b6aa	0.020228703
228	0x3ce19fee	0.02754208
229	0x3c8b6cbc	0.017019622
230	0xbd0e6e3b	-0.034773093
231	0x399ea88a	0.0003026168
232	0x3bfe79e9	0.0077659977
233	0x3c9735a2	0.018458191
234	0x3ac93f94	0.0015354031
235	0x3c919d46	0.01777519
236	0xbd08ce96	-0.03340014
237	0xbd00a196	-0.0314041
238	0xbc978504	-0.018496044
239	0xbd0673c1	-0.032825235
240	0x3cad1c6d	0.021131719
241	0xbc354383	-0.011063459
242	0x3d062f43	0.032759916
243	0xbc935887	-0.017986549
244	0xbcd5ee54	-0.02611462
245	0xbd054eda	-0.0325459
246	0xbb642101	-0.003480971
247	0xbc0244e8	-0.007950999
248	0xbcce859f	-0.0252102
249	0x3d1adc5e	0.037807815
250	0x3a590169	0.0008278103
251	0xbd02fd14	-0.031979635
252	0x3ced0385	0.028932342
253	0xbd062853	-0.0327533
254	0xbca49b36	-0.020093542
255	0x3cedf5e3	0.029047912

root.gating.0.bias f4 [16]
0	0x3c82eb7d	0.01598143
1	0x3c0c0c23	0.0085478155
2	0x3b120739	0.0022282137
3	0xbd3457b9	-0.04402897
4	0x31a477a9	4.786632e-09
5	0x3a5eb3e8	0.0008495436
6	0xbaf4fc3e	-0.0018690897
7	0xbd677d80	-0.05651617
8	0xbca86a01	-0.02055836
9	0xbc89c82e	-0.016819086
10	0xbcc746b7	-0.024325712
11	0x3ceb015a	0.028687168
12	0x3c7b6560	0.015343994
13	0x3cfd8b99	0.030950354
14	0x3c22489c	0.009905007
15	0x3d0c90b0	0.034317672

root.gating.2.weight f4 [1, 16]
0	0x3e7a8a71	0.24466874
1	0x3e58b39d	0.21162267
2	0xbe73712f	-0.23773645
3	0x3e0a870a	0.13528076
4	0xb2163148	-8.742354e-09
5	0xbd8f3156	-0.06991832
6	0x3b839561	0.00401561
7	0x3e11da5a	0.14243451
8	0x3e48f788	0.19625676
9	0x3e0398b8	0.12851226
10	0x3dabf57e	0.08396433
11	0xbda61e09	-0.081111975
12	0xbd4a7c66	-0.04943504
13	0xbde67fa6	-0.11254816
14	0x3daa90d1	0.08328403
15	0xbdf53817	-0.11973589

root.left_child.gating.0.weight f4 [16, 437]
0	0x07b6d165	2.7507387e-34
1	0x8000f540	-8.7979e-41
2	0x8000cea0	-7.4123e-41
3	0x0000cd84	7.3725e-41
4	0x1d5501fc	2.8191341e-21
5	0x2847d4c5	1.1092856e-14
6	0x8000d095	-7.4825e-41
7	0x29d26966	9.344157e-14
8	0x8000be5a	-6.8285e-41
9	0x0000bd39	6.788e-41
10	0x8000cd88	-7.3731e-41
11	0x27a4be34	4.5725363e-15
12	0x0000bb21	6.7129e-41
13	0x8000babc	-6.6988e-41
14	0x8000bd2d	-6.7863e-41
15	0x0000e148	8.0816e-41
16	0x8000bc11	-6.7466e-41
17	0x8000cfdf	-7.457e-41
18	0x8000ce6c	-7.405e-41
19	0x0000cd40	7.363e-41
20	0x0000bb90	6.7285e-41
21	0x0000e263	8.1212e-41
22	0x9577acbb	-5.0017513e-26
23	0x8000bf13	-6.8545e-41
24	0x27e0f11d	6.2433905e-15
25	0xa9e173a9	-1.0012071e-13
26	0x8000e1b3	-8.0966e-41
27	0x8000c108	-6.9247e-41
28	0x8000d00c	-7.4633e-41
29	0x0000b9a2	6.6593e-41
30	0xa7ebd973	-6.546136e-15
31	0xa489523b	-5.955358e-17
32	0x28b4fa5c	2.009259e-14
33	0xa990b775	-6.4267093e-14
34	0xa400352c	-2.7800614e-17
35	0x8000ce75	-7.4063e-41
36	0x0000cec8	7.4179e-41
37	0x0000cf35	7.4332e-41
38	0x8000bf8a	-6.8711e-41
39	0xa8c035c3	-2.1339598e-14
40	0x8000ce60	-7.4033e-41
41	0x0000c029	6.8934e-41
42	0x1446ed58	1.0043253e-26
43	0x0000e10f	8.0736e-41
44	0x9b993681	-2.534695e-22
45	0x0000ce23	7.3948e-41
46	0x0000bae3	6.7042e-41
47	0x1b9d7b5a	2.6053185e-22
48	0x0000ce6e	7.4053e-41
49	0x226a5b09	3.1761107e-18
50	0xa01abe7f	-1.3107337e-19
51	0x8000cea0	-7.4123e-41
52	0x231dfcac	8.564492e-18
53	0x0000cf27	7.4312e-41
54	0x8000e652	-8.2623e-41
55	0x0000ceb0	7.4146e-41
56	0x0000cf36	7.4333e-41
57	0xa9019206	-2.877041e-14
58	0x299f3504	7.070215e-14
59	0x8000cda3	-7.3769e-41
60	0x8000bc7a	-6.7613e-41
61	0x001c66ac	2.608226e-39
62	0x1ffef834	1.079838e-19
63	0x8000b9a2	-6.6593e-41
64	0x2785e528	3.7163367e-15
65	0x0000bbd6	6.7383e-41
66	0xa6e0d8b4	-1.560186e-15
67	0x0000de39	7.9718e-41
68	0x0000b9f1	6.6703e-41
69	0x8000cfb8	-7.4515e-41
70	0x0000cf4b	7.4363e-41
71	0x8000cee5	-7.422e-41
72	0xa22daaa5	-2.353621e-18
73	0x07d0d5dd	3.142206e-34
74	0x0000cee7	7.4223e-41
75	0x0000ee70	8.5535e-41
76	0xaa055bfb	-1.1844685e-13
77	0x9f562b57	-4.5352113e-20
78	0x935d1cb7	-2.790828e-27
79	0x8d52c7a7	-6.495157e-31
80	0x907b186b	-4.9519833e-29
81	0x1f9e9eeb	6.717851e-20
82	0x0000bb1e	6.7125e-41
83	0x2b3e2092	6.754676e-13
84	0x0000d73c	7.7212e-41
85	0x838aa669	-8.149117e-37
86	0x8e8c073b	-3.4519627e-30
87	0x0000cdb7	7.3797e-41
88	0x0000bd78	6.7969e-41
89	0x0000cf1a	7.4294e-41
90	0x8000e092	-8.056e-41
91	0x0000ce0d	7.3917e-41
92	0xaae39082	-4.0423573e-13
93	0x1d64d452	3.0285316e-21
94	0x0000ce15	7.3928e-41
95	0x8000dc08	-7.8932e-41
96	0x0000c4d4	7.0609e-41
97	0x0000ce1a	7.3935e-41
98	0x1d115d63	1.923887e-21
99	0x8000cf46	-7.4356e-41
100	0x8000b9e5	-6.6686e-41
101	0x8000d016	-7.4647e-41
102	0x8000e1af	-8.096e-41
103	0x8000ef84	-8.5922e-41
104	0x8000bc45	-6.7538e-41
105	0x1fc3ba8c	8.289433e-20
106	0xaa1b1155	-1.3772779e-13
107	0x8000cd67	-7.3684e-41
108	0x0000ce67	7.4043e-41
109	0x96bf7776	-3.0933105e-25
110	0x8000b9c3	-6.6639e-41
111	0x0000e240	8.1163e-41
112	0x05d469b1	1.9975209e-35
113	0x8000d515	-7.644e-41
114	0x8000bc66	-6.7585e-41
115	0x8000c0ee	-6.921e-41
116	0x22dd2ebe	5.995166e-18
117	0x0000c661	7.1165e-41
118	0x9f92e282	-6.220813e-20
119	0x8000e305	-8.1439e-41
120	0x27ca230d	5.6104265e-15
121	0x8000ca41	-7.2555e-41
122	0x284360c4	1.0845657e-14
123	0x209c2b27	2.6455984e-19
124	0x8000ba80	-6.6904e-41
125	0x8000c15b	-6.9363e-41
126	0x1ca1beca	1.0703404e-21
127	0x8000bac7	-6.7003e-41
128	0x8000bff1	-6.8856e-41
129	0x8000d306	-7.5701e-41
130	0x8000cd86	-7.3728e-41
131	0x8000bb6e	-6.7237e-41
132	0x2528590c	1.4601847e-16
133	0xaad8ec1d	-3.8533144e-13
134	0x8000e2c8	-8.1354e-41
135	0x0000d28c	7.553e-41
136	0x9fc7c849	-8.461112e-20
137	0x1b27c4dc	1.3877525e-22
138	0x89c98815	-4.851696e-33
139	0x24998bf0	6.6590236e-17
140	0x8000bd85	-6.7987e-41
141	0x8000b9cc	-6.6651e-41
142	0x0000f594	8.8097e-41
143	0x114708c7	1.5701037e-28
144	0x2b5fdf1a	7.953513e-13
145	0xa097ec58	-2.5736794e-19
146	0xa8cf754c	-2.3032486e-14
147	0x003c75ad	5.552344e-39
148	0x187d2181	3.2716399e-24
149	0x0000cfb0	7.4504e-41
150	0x8000bd1f	-6.7844e-41
151	0x8000cdde	-7.3851e-41
152	0x0000ce04	7.3904e-41
153	0x840ab34b	-1.630415e-36
154	0x0000cecb	7.4183e-41
155	0x1280aed0	8.12103e-28
156	0x1fee57f0	1.009424e-19
157	0x8000bd17	-6.7833e-41
158	0xa8d7c037	-2.3953155e-14
159	0x8cff5c3c	-3.9344482e-31
160	0x8000cf36	-7.4333e-41
161	0x0000bb5d	6.7213e-41
162	0x261707c2	5.2399163e-16
163	0x8000bcf2	-6.7781e-41
164	0x87587a3a	-1.6285953e-34
165	0x800083fa	-4.7344e-41
166	0x8000cdd1	-7.3833e-41
167	0x8000cf56	-7.4378e-41
168	0x8000bd21	-6.7847e-41
169	0x8788dd54	-2.059309e-34
170	0x8000cd32	-7.361e-41
171	0x8000ea95	-8.4152e-41
172	0xaa98d1a4	-2.7146091e-13
173	0x9fdce460	-9.355144e-20
174	0x19cdb3eb	2.1269171e-23
175	0x8000bb51	-6.7196e-41
176	0xa20866c2	-1.8485836e-18
177	0x89a6ece7	-4.018583e-33
178	0x0000c1c8	6.9516e-41
179	0xa5bf68d3	-3.320425e-16
180	0x01345213	3.3119664e-38
181	0x9e6e5689	-1.261751e-20
182	0x27b66d0c	5.0633376e-15
183	0x99cd314c	-2.1216414e-23
184	0x0000c1c5	6.9511e-41
185	0x0000cdd9	7.3844e-41
186	0x0dbf6d40	1.1797585e-30
187	0x8000ceee	-7.4232e-41
188	0x1db25edd	4.7214294e-21
189	0x0000bdd1	6.8093e-41
190	0x8000ba8f	-6.6925e-41
191	0x0000cf12	7.4283e-41
192	0xab08933c	-4.8521235e-13
193	0x0edc9870	5.438098e-30
194	0xa2aeee2d	-4.7414973e-18
195	0x8000be38	-6.8238e-41
196	0x0000cd87	7.373e-41
197	0x29d2ffaf	9.3702274e-14
198	0x0000cdf2	7.3879e-41
199	0x0000ce54	7.4017e-41
200	0x82ba55b3	-2.7379433e-37
201	0xa5e5b3d8	-3.9847034e-16
202	0x045432e4	2.4943848e-36
203	0x0000cfbe	7.4524e-41
204	0x0000e102	8.0718e-41
205	0x0000be89	6.8351e-41
206	0xa1b72322	-1.2409862e-18
207	0x86c6ac96	-7.4732914e-35
208	0x0000be11	6.8183e-41
209	0x8000c332	-7.0023e-41
210	0x8000b9f3	-6.6706e-41
211	0x8000cd71	-7.3698e-41
212	0x2a03c20f	1.1702465e-13
213	0x0826e9ab	5.0228483e-34
214	0x0000ceb4	7.4151e-41
215	0x0000c5b7	7.0927e-41
216	0x2b406ba6	6.8361495e-13
217	0x8000bf7d	-6.8693e-41
218	0x9c4be450	-6.7462153e-22
219	0x0000b9b4	6.6618e-41
220	0x0000e207	8.1083e-41
221	0x1a305ab1	3.6469207e-23
222	0x8000cf3d	-7.4343e-41
223	0x0000cf2b	7.4318e-41
224	0x9f996674	-6.4967515e-20
225	0x81e03ece	-8.2374725e-38
226	0x80324d57	-4.619519e-39
227	0x232d40ba	9.392055e-18
228	0x29f7c213	1.100267e-13
229	0x0000de63	7.9777e-41
230	0xa147efb0	-6.7741046e-19
231	0x2a135dd9	1.3088783e-13
232	0x0000cf34	7.433e-41
233	0x0000c1af	6.948e-41
234	0x0000cef9	7.4248e-41
235	0x0000e8e6	8.3548e-41
236	0x1de2de79	6.0051733e-21
237	0x8009ae49	-8.89041e-40
238	0x8000bc18	-6.7475e-41
239	0x850de4d1	-6.671815e-36
240	0x8000cdc1	-7.381e-41
241	0x0000be12	6.8184e-41
242	0xaa5bb24b	-1.9512965e-13
243	0x8000ce49	-7.4001e-41
244	0x0000bbdd	6.7393e-41
245	0x0000c128	6.9291e-41
246	0xab7be0b1	-8.9484935e-13
247	0x80007f14	-4.5587e-41
248	0x8000cc88	-7.3372e-41
249	0x2494355d	6.427517e-17
250	0x2859989f	1.2079014e-14
251	0x8eba01d8	-4.5854316e-30
252	0xa7e4443c	-6.3356692e-15
253	0x8000bc75	-6.7606e-41
254	0x8000ce92	-7.4103e-41
255	0xaa0f5fe0	-1.2734215e-13

root.left_child.gating.0.bias f4 [16]
0	0x00015c1d	1.2488e-40
1	0x8000e113	-8.0741e-41
2	0x0000ba28	6.678e-41
3	0xa516d159	-1.3081356e-16
4	0x0000cfd8	7.456e-41
5	0x2712eac5	2.038884e-15
6	0x0000cd74	7.3703e-41
7	0x0000ce5b	7.4026e-41
8	0x0000cdc4	7.3815e-41
9	0x0000e0f5	8.07e-41
10	0x88c0b34c	-1.1597732e-33
11	0x24e1424f	9.7690527e-17
12	0x0000b9c9	6.6647e-41
13	0x0b8c69ab	5.408503e-32
14	0x0bde0087	8.5512083e-32
15	0x8000cd44	-7.3635e-41

root.left_child.gating.2.weight f4 [1, 16]
0	0xb5e5c777	-1.7119881e-06
1	0xb55f7172	-8.323906e-07
2	0x3cde21f5	0.027115801
3	0xb588acba	-1.018306e-06
4	0xb71d049c	-9.359002e-06
5	0x37be3540	2.2674561e-05
6	0xbc22206f	-0.009895428
7	0x9c159e62	-4.950467e-22
8	0xbacac99a	-0.0015471459
9	0xbce791ec	-0.028267823
10	0xb1c8c140	-5.842736e-09
11	0xbce544be	-0.02798688
12	0x3b572c63	0.0032832853
13	0x3300a59a	2.9952936e-08
14	0xbbbaa2fb	-0.0056956983
15	0xba7f6260	-0.0009742137

root.left_child.feature_selector.logit_phi f4 [437]
0	0x3f0a5c43	0.5404703
1	0x3f0a5c84	0.5404742
2	0x3f0a5c87	0.54047436
3	0x3f0a5c9f	0.5404758
4	0x3f0a5ccc	0.54047847
5	0x3f0a5d23	0.54048365
6	0x3f0a5cf5	0.5404809
7	0x3f0a5d4a	0.540486
8	0x3f0a5bfc	0.54046607
9	0x3f0a5c9b	0.54047555
10	0x3f0a5d8f	0.5404901
11	0x3f0a5cf7	0.54048103
12	0x3f0a5c93	0.5404751
13	0x3f0a5d2c	0.5404842
14	0x3f0a5c6e	0.54047287
15	0x3f0a5d11	0.5404826
16	0x3f0a5c15	0.54046756
17	0x3f0a5cb0	0.5404768
18	0x3f0a5cdf	0.5404796
19	0x3f0a5c50	0.5404711
20	0x3f0a5cda	0.5404793
21	0x3f0a5c43	0.5404703
22	0x3f0a5c8a	0.54047453
23	0x3f0a5cb7	0.5404772
24	0x3f0a5bda	0.54046404
25	0x3f0a5c53	0.54047126
26	0x3f0a5d91	0.5404902
27	0x3f0a5bbe	0.5404624
28	0x3f0a5d34	0.54048467
29	0x3f0a5c0f	0.5404672
30	0x3f0a5ca4	0.5404761
31	0x3f0a5bb3	0.5404617
32	0x3f0a5c3e	0.54047
33	0x3f0a5cb8	0.5404773
34	0x3f0a5d1a	0.5404831
35	0x3f0a5c08	0.5404668
36	0x3f0a5c9a	0.5404755
37	0x3f0a5be8	0.5404649
38	0x3f0a5d8c	0.5404899
39	0x3f0a5cea	0.54048026
40	0x3f0a5be1	0.54046446
41	0x3f0a5ddf	0.54049486
42	0x3f0a5c9d	0.54047567
43	0x3f0a5c9c	0.5404756
44	0x3f0a5ca1	0.5404759
45	0x3f0a5cd2	0.5404788
46	0x3f0a5ad2	0.5404483
47	0x3f0a5c61	0.5404721
48	0x3f0a5b98	0.5404601
49	0x3f0a5ccd	0.5404785
50	0x3f0a5d0a	0.54048216
51	0x3f0a5d44	0.5404856
52	0x3f0a5d09	0.5404821
53	0x3f0a5c8e	0.5404748
54	0x3f0a5c09	0.54046685
55	0x3f0a5c55	0.5404714
56	0x3f0a5cda	0.5404793
57	0x3f0a5c2b	0.5404689
58	0x3f0a5d34	0.54048467
59	0x3f0a5cc5	0.54047805
60	0x3f0a5c6d	0.5404728
61	0x3f0a5cd2	0.5404788
62	0x3f0a5cab	0.5404765
63	0x3f0a5cc6	0.5404781
64	0x3f0a5bd4	0.5404637
65	0x3f0a5ce0	0.54047966
66	0x3f0a5c93	0.5404751
67	0x3f0a5c76	0.54047334
68	0x3f0a5d89	0.54048973
69	0x3f0a5c24	0.54046845
70	0x3f0a5d62	0.5404874
71	0x3f0a5d6b	0.54048795
72	0x3f0a5cf6	0.540481
73	0x3f0a5cfb	0.54048127
74	0x3f0a5ce2	0.5404798
75	0x3f0a5c98	0.54047537
76	0x3f0a5cb3	0.540477
77	0x3f0a5c72	0.5404731
78	0x3f0a5d0a	0.54048216
79	0x3f0a5f8b	0.54052037
80	0x3f0a5db9	0.5404926
81	0x3f0a5c9b	0.54047555
82	0x3f0a5cd7	0.5404791
83	0x3f0a5ce2	0.5404798
84	0x3f0a5caa	0.54047644
85	0x3f0a5d8e	0.54049003
86	0x3f0a5d0f	0.54048246
87	0x3f0a5d80	0.5404892
88	0x3f0a5cb0	0.5404768
89	0x3f0a5c51	0.54047114
90	0x3f0a5d49	0.5404859
91	0x3f0a5cc6	0.5404781
92	0x3f0a5c94	0.54047513
93	0x3f0a5d70	0.54048824
94	0x3f0a5cf2	0.54048073
95	0x3f0a5d0a	0.54048216
96	0x3f0a5d7c	0.54048896
97	0x3f0a5c21	0.5404683
98	0x3f0a5d3f	0.5404853
99	0x3f0a5be3	0.5404646
100	0x3f0a5d67	0.5404877
101	0x3f0a5de1	0.540495
102	0x3f0a5c53	0.54047126
103	0x3f0a5d55	0.54048663
104	0x3f0a5b90	0.54045963
105	0x3f0a5be4	0.54046464
106	0x3f0a5d1a	0.5404831
107	0x3f0a5d20	0.5404835
108	0x3f0a5caa	0.54047644
109	0x3f0a5c78	0.54047346
110	0x3f0a5ca8	0.5404763
111	0x3f0a5bc0	0.5404625
112	0x3f0a5cca	0.54047835
113	0x3f0a5d13	0.5404827
114	0x3f0a5d67	0.5404877
115	0x3f0a5c02	0.5404664
116	0x3f0a5d45	0.5404857
117	0x3f0a5c66	0.5404724
118	0x3f0a5cae	0.5404767
119	0x3f0a5cb5	0.5404771
120	0x3f0a5cbd	0.5404776
121	0x3f0a5d0d	0.54048234
122	0x3f0a5dd1	0.540494
123	0x3f0a5cb3	0.540477
124	0x3f0a5dac	0.5404918
125	0x3f0a5d95	0.54049045
126	0x3f0a5cdc	0.5404794
127	0x3f0a5c7a	0.5404736
128	0x3f0a5d2e	0.5404843
129	0x3f0a5cbd	0.5404776
130	0x3f0a5caf	0.54047674
131	0x3f0a5c59	0.5404716
132	0x3f0a5df0	0.5404959
133	0x3f0a5c98	0.54047537
134	0x3f0a5b98	0.5404601
135	0x3f0a5d2d	0.54048425
136	0x3f0a5c93	0.5404751
137	0x3f0a5d66	0.54048765
138	0x3f0a5cad	0.5404766
139	0x3f0a5c7d	0.54047376
140	0x3f0a5db1	0.5404921
141	0x3f0a5c46	0.5404705
142	0x3f0a5d8b	0.54048985
143	0x3f0a5d2a	0.5404841
144	0x3f0a5c72	0.5404731
145	0x3f0a5cfc	0.5404813
146	0x3f0a5cef	0.54048055
147	0x3f0a5ce8	0.54048014
148	0x3f0a5cee	0.5404805
149	0x3f0a5ccf	0.54047865
150	0x3f0a5d64	0.5404875
151	0x3f0a5d72	0.54048836
152	0x3f0a5c70	0.540473
153	0x3f0a5bda	0.54046404
154	0x3f0a5d00	0.54048157
155	0x3f0a5d0c	0.5404823
156	0x3f0a5c7c	0.5404737
157	0x3f0a5cf7	0.54048103
158	0x3f0a5d0e	0.5404824
159	0x3f0a5c42	0.54047024
160	0x3f0a5cc2	0.5404779
161	0x3f0a5cc6	0.5404781
162	0x3f0a5cfe	0.54048145
163	0x3f0a5cbc	0.5404775
164	0x3f0a5d45	0.5404857
165	0x3f0a5c4c	0.54047084
166	0x3f0a5cc2	0.5404779
167	0x3f0a5d0d	0.54048234
168	0x3f0a5ca5	0.54047614
169	0x3f0a5cea	0.54048026
170	0x3f0a5cf3	0.5404808
171	0x3f0a5ce9	0.5404802
172	0x3f0a5c9b	0.54047555
173	0x3f0a5cf0	0.5404806
174	0x3f0a5cb9	0.54047734
175	0x3f0a5cc8	0.5404782
176	0x3f0a5c6a	0.5404726
177	0x3f0a5cad	0.5404766
178	0x3f0a5bea	0.540465
179	0x3f0a5cf6	0.540481
180	0x3f0a5c37	0.5404696
181	0x3f0a5ccb	0.5404784
182	0x3f0a5ceb	0.5404803
183	0x3f0a5bf0	0.54046535
184	0x3f0a5c8d	0.5404747
185	0x3f0a5c7e	0.5404738
186	0x3f0a5e07	0.54049724
187	0x3f0a5c8f	0.54047483
188	0x3f0a5b86	0.54045904
189	0x3f0a5c28	0.5404687
190	0x3f0a5b7d	0.5404585
191	0x3f0a5b8e	0.5404595
192	0x3f0a5d47	0.5404858
193	0x3f0a5bb5	0.54046184
194	0x3f0a5cc0	0.54047775
195	0x3f0a5c63	0.5404722
196	0x3f0a5bf0	0.54046535
197	0x3f0a5cff	0.5404815
198	0x3f0a5c75	0.5404733
199	0x3f0a5c1f	0.54046816
200	0x3f0a5cfc	0.5404813
201	0x3f0a5c73	0.54047316
202	0x3f0a5c82	0.54047406
203	0x3f0a5ce0	0.54047966
204	0x3f0a5cbc	0.5404775
205	0x3f0a5c66	0.5404724
206	0x3f0a5ce0	0.54047966
207	0x3f0a5cd0	0.5404787
208	0x3f0a5ca9	0.5404764
209	0x3f0a5d4a	0.540486
210	0x3f0a5cc2	0.5404779
211	0x3f0a5c82	0.54047406
212	0x3f0a5b9e	0.54046047
213	0x3f0a5cd6	0.54047906
214	0x3f0a5cc4	0.540478
215	0x3f0a5cf3	0.5404808
216	0x3f0a5cbc	0.5404775
217	0x3f0a5c5a	0.5404717
218	0x3f0a5ca0	0.54047585
219	0x3f0a5d81	0.54048926
220	0x3f0a5d53	0.5404865
221	0x3f0a5c1a	0.54046786
222	0x3f0a5bb4	0.5404618
223	0x3f0a5b95	0.54045993
224	0x3f0a5cc4	0.540478
225	0x3f0a5d40	0.5404854
226	0x3f0a5cd0	0.5404787
227	0x3f0a5ca1	0.5404759
228	0x3f0a5d63	0.54048747
229	0x3f0a5c66	0.5404724
230	0x3f0a5bb9	0.5404621
231	0x3f0a5ca5	0.54047614
232	0x3f0a5bef	0.5404653
233	0x3f0a5c4a	0.5404707
234	0x3f0a5cd8	0.5404792
235	0x3f0a5c11	0.5404673
236	0x3f0a5ca8	0.5404763
237	0x3f0a5d12	0.54048264
238	0x3f0a5ca2	0.54047596
239	0x3f0a5c63	0.5404722
240	0x3f0a5c9f	0.5404758
241	0x3f0a5d21	0.54048353
242	0x3f0a5cf3	0.5404808
243	0x3f0a5c9a	0.5404755
244	0x3f0a5c8e	0.5404748
245	0x3f0a5c26	0.5404686
246	0x3f0a5d93	0.5404903
247	0x3f0a5c9a	0.5404755
248	0x3f0a5c95	0.5404752
249	0x3f0a5d27	0.5404839
250	0x3f0a5c7d	0.54047376
251	0x3f0a5d7c	0.54048896
252	0x3f0a5c6f	0.5404729
253	0x3f0a5c6d	0.5404728
254	0x3f0a5cc5	0.54047805
255	0x3f0a5c26	0.5404686

root.left_child.local_expert.fc1.weight f4 [64, 437]
0	0xbcb40592	-0.021975312
1	0x3cb9c56a	0.022677142
2	0x39dbde35	0.00041936492
3	0x3d50f4b8	0.051014632
4	0xbc7df812	-0.015501039
5	0xbcc8d860	-0.024517238
6	0x3ca17977	0.01971124
7	0xbd096a87	-0.033548858
8	0xbd15c3e6	-0.036563776
9	0xbca19b4c	-0.019727372
10	0x3d373625	0.04472937
11	0xbc7d91e4	-0.015476678
12	0x3ce8225a	0.028336693
13	0xbb288506	-0.0025714054
14	0xbc95c00f	-0.018280057
15	0x3ccf994d	0.025341654
16	0xbcb5e6db	-0.022204807
17	0xbd179467	-0.037006762
18	0xbcc94f9c	-0.024574094
19	0x3cf8c719	0.030368375
20	0x3bdc9e5f	0.0067327465
21	0xbaebcbd2	-0.001798982
22	0x3ba66988	0.0050784983
23	0x3d10403d	0.035217512
24	0xbcaa2b28	-0.020772532
25	0x3c9bf8e8	0.019039586
26	0xbcbdb010	-0.023155242
27	0x3cbac0de	0.022797044
28	0x3d19daea	0.03756229
29	0xbd344af2	-0.044016786
30	0x3c25afd8	0.010112725
31	0xbd00a0c5	-0.03140332
32	0x3b5e8411	0.003395323
33	0xbc56db6b	-0.013113837
34	0xbc25f71a	-0.010129714
35	0x3c115ee8	0.008872725
36	0x3cc16267	0.023606492
37	0x3cf69689	0.030101078
38	0xbba3c441	-0.0049977605
39	0xbcdcfc84	-0.026975878
40	0x3c73cc9e	0.0148803275
41	0x3c705e19	0.014670872
42	0xbd456c35	-0.048198897
43	0x3d4505f6	0.048101388
44	0xbd2879df	-0.04113185
45	0xbd143f53	-0.036193203
46	0xbca97059	-0.020683454
47	0xbc4e5878	-0.012594335
48	0x3bd8d384	0.0066170115
49	0xbcd2016a	-0.02563544
50	0x3d28d588	0.041219264
51	0x3d0508b1	0.032478992
52	0x3b6df92b	0.0036311846
53	0x3d219363	0.0394472
54	0x3c45511d	0.012043265
55	0xbcd0134e	-0.02539983
56	0x3bd1deb0	0.0064047202
57	0xbd13f83b	-0.036125403
58	0x3d44e7af	0.048072513
59	0xba44b871	-0.00075042906
60	0x3b9fe63e	0.004879742
61	0x3b1280f2	0.002235469
62	0xbce9db8d	-0.028547073
63	0xbd233509	-0.0398455
64	0xbc5fa684	-0.01365054
65	0xbc3b0ae8	-0.0114161745
66	0x3c76af42	0.015056433
67	0x3d1a1eda	0.03762708
68	0x3c5e87e1	0.013582201
69	0xbd238bf9	-0.03992841
70	0xbd4dfca0	-0.05028975
71	0xbba2fe41	-0.004974157
72	0xbb1fe4ed	-0.0024397925
73	0xbcf899b9	-0.030346738
74	0x3d374e66	0.0447525
75	0xbc41d141	-0.011829675
76	0x3b2a5d4d	0.0025995553
77	0xbd1ec2d9	-0.03876004
78	0x3d377bcd	0.0447958
79	0xbd2b5d75	-0.041837174
80	0x3cf574a1	0.02996284
81	0xbcde5bad	-0.027143324
82	0x3d1b31c3	0.037889253
83	0x3d03badb	0.03216062
84	0x3d268357	0.0406526
85	0xbd1ced38	-0.038312167
86	0x3c6a00f6	0.014282456
87	0x3d3beef4	0.04588218
88	0x3cbc8972	0.023014758
89	0x3d1e984d	0.038719464
90	0x3d119c7c	0.035549626
91	0xbc15c333	-0.009140777
92	0x3ba32190	0.004978366
93	0xbc9909a7	-0.01868136
94	0xb9800c58	-0.0002442326
95	0x3ca5a7f5	0.02022169
96	0x3c10a8f4	0.008829344
97	0xbd264d3f	-0.04060101
98	0x3d469f1b	0.04849158
99	0xbd1dee8b	-0.03855757
100	0xbcd02a3b	-0.025410762
101	0xbd043fd3	-0.03228743
102	0xba900e7a	-0.0010990642
103	0x3c3cfd42	0.011534991
104	0xbc0c1c69	-0.008551695
105	0xbced9cf2	-0.029005501
106	0xbd2b26ed	-0.04178517
107	0x3c911c74	0.017713763
108	0x3c8e63dd	0.017381603
109	0x3cd7c169	0.026337342
110	0xbcb3cecb	-0.021949193
111	0x3d0f837b	0.0350375
112	0xbd0bb0fd	-0.034104336
113	0x3cfc8949	0.030827181
114	0xbd15925e	-0.03651654
115	0x3c3578f6	0.011076203
116	0xbbb203b1	-0.005432569
117	0x3d461da1	0.0483681
118	0x3d2c6ea9	0.04209772
119	0xbc04a60f	-0.008096232
120	0xbc5e4012	-0.01356508
121	0xbc9e79ef	-0.019345252
122	0xbd2a82fb	-0.04162882
123	0x3bae712b	0.0053235493
124	0x3c705c66	0.014670467
125	0xbc85a1d1	-0.016312512
126	0xbc19297a	-0.009348268
127	0x3bf96319	0.0076106903
128	0xbb92d66e	-0.0044811284
129	0xbbb00ebc	-0.00537285
130	0xbd00a5bf	-0.031408068
131	0x3c00a487	0.007851726
132	0xbcb6a038	-0.022293195
133	0xbcaf5936	-0.021404844
134	0x3ca09938	0.01960431
135	0xbc80b4a9	-0.015711145
136	0xbb1dfe4e	-0.0024107876
137	0xbd60cef4	-0.054884866
138	0xbcc2984e	-0.023754265
139	0x3cc4def1	0.024032088
140	0xbd2a0ddd	-0.041517127
141	0xbca4e3f1	-0.020128222
142	0xbc6efca7	-0.014586604
143	0x3d373301	0.044726375
144	0x3c483314	0.012219209
145	0xbb3bec2e	-0.002867471
146	0xbcc8a979	-0.024494873
147	0xbcc572f7	-0.024102671
148	0x3c396387	0.011315233
149	0xbc9e3e7c	-0.019316904
150	0xbc4ef8dc	-0.012632575
151	0xbc6c5b0f	-0.014426007
152	0x3cfe4d23	0.031042641
153	0x3d42c8b9	0.047554705
154	0x3d330e91	0.043715063
155	0xbcff8a93	-0.031194007
156	0xbc36ce86	-0.011157637
157	0x3d0d9dcf	0.034574326
158	0x3cb66c20	0.022268355
159	0xbbcabfcd	-0.006187415
160	0xbd378286	-0.04480221
161	0x3cb0efe6	0.021598767
162	0xbd46c23f	-0.04852509
163	0x3cca39ed	0.024685824
164	0x3d4bb6fe	0.04973506
165	0x3c0cc91c	0.00859287
166	0xbc933af0	-0.01797244
167	0xbcaa6848	-0.020801678
168	0x3ca81c14	0.020521201
169	0x3c9fd6d2	0.019511614
170	0x3d09fe28	0.033689648
171	0x3d0f84fc	0.035038933
172	0xba90b020	-0.0011038817
173	0x3d2ef6ce	0.04271584
174	0xbc2fa945	-0.010721509
175	0x3d58320e	0.05278211
176	0xbcbc12bb	-0.02295815
177	0xb965b811	-0.00021907712
178	0xbd307a0b	-0.04308514
179	0x3cde7e42	0.027159814
180	0xbbac76b2	-0.005263173
181	0x3d31e547	0.043431547
182	0x3cc92529	0.024553852
183	0x3c21b0f1	0.009868846
184	0x3c1acf7c	0.009448882
185	0xbc22b680	-0.009931207
186	0x3aa45834	0.0012538494
187	0xbcf9be9a	-0.030486394
188	0x3d276742	0.04086996
189	0xbc4188d7	-0.01181241
190	0xbcbab221	-0.022790017
191	0x3bb5b345	0.0055450522
192	0xbd026f74	-0.03184457
193	0x3d10ccec	0.03535168
194	0xbc8d9b30	-0.017285913
195	0xbd3438e6	-0.043999575
196	0x3be3c2b1	0.0069506993
197	0x3d2bff4e	0.041991524
198	0x3d315200	0.043291092
199	0xbd0aa80d	-0.033851672
200	0x3d0a6134	0.033784106
201	0x3c49a8cc	0.012308311
202	0x37dd034b	2.6346786e-05
203	0x3ca01631	0.019541832
204	0x3c9ebe63	0.019377893
205	0x3cbe5058	0.02323167
206	0x3bb09c12	0.005389699
207	0xbd18dc94	-0.037319735
208	0x3d202f41	0.039107565
209	0xbd0369a1	-0.032083157
210	0x3bfaedd2	0.007657745
211	0x3cf5630b	0.029954454
212	0x3ce07b70	0.02740261
213	0xbd250515	-0.04028805
214	0xbb799def	-0.003808852
215	0xbc60b6b5	-0.013715436
216	0x3cd75f3b	0.026290527
217	0x3b50ee0a	0.0031880164
218	0xbca2478c	-0.019809507
219	0x3ce848a9	0.02835496
220	0x3c1ffc2a	0.00976471
221	0x3c0f5e07	0.008750445
222	0x3c289292	0.010288851
223	0x3cd748d2	0.02627984
224	0xbc266429	-0.010155716
225	0xbd21d0cb	-0.03950576
226	0xbce8a0f2	-0.028397057
227	0xbc28b71c	-0.010297563
228	0x3ca387db	0.019962242
229	0x3d1a1dde	0.03762614
230	0x3cf5b72b	0.029994568
231	0x3c57546c	0.013142686
232	0xbca6f56a	-0.020380694
233	0xbd2fece3	-0.042950522
234	0x3d190d88	0.03736642
235	0x3ce40766	0.02783556
236	0xbbc1766e	-0.0059040105
237	0x3d37e964	0.044900313
238	0xbcf9fc51	-0.030515822
239	0x3d404b37	0.04694673
240	0x3b8f6e3a	0.0043771537
241	0x3d38e01b	0.0451356
242	0x3b802688	0.0039108433
243	0x3bdcdaf7	0.00673997
244	0xbc51167c	-0.012761708
245	0xbcbda971	-0.023152085
246	0xbb92557a	-0.004465756
247	0x3b299e2c	0.0025881631
248	0xbd0778f5	-0.033074338
249	0xbbe6a180	-0.0070382953
250	0xbb7c5a6c	-0.0038506044
251	0x3c91c929	0.017796116
252	0xbc9a57b0	-0.01884064
253	0xbcc98f8e	-0.024604585
254	0x3ca11360	0.019662559
255	0x3d2de9ef	0.042459425

root.left_child.local_expert.fc1.bias f4 [64]
0	0xbd9258c8	-0.0714584
1	0xbd23e472	-0.040012784
2	0xbcb2fc5e	-0.021848854
3	0xbd606e25	-0.054792542
4	0x3c00faaa	0.007872263
5	0xbcd4ce44	-0.025977261
6	0x3ce4159b	0.027842334
7	0xbcb340da	-0.02188151
8	0xbd445cf4	-0.04794021
9	0x3d818848	0.06324822
10	0x3b343ad7	0.0027500892
11	0x3cd94fb6	0.026527267
12	0x3d6ce9b6	0.05784007
13	0x3c95b1b7	0.018273218
14	0x3c770233	0.015076208
15	0x3d787e19	0.06066713
16	0x3c1e9bae	0.009680672
17	0xbcc67942	-0.024227742
18	0x3d3dea43	0.046365988
19	0xbc0103b0	-0.007874414
20	0xbc06afa3	-0.008220586
21	0x3d640af3	0.055674504
22	0xbc8c8a22	-0.01715571
23	0xbc384489	-0.011246809
24	0xbaa8373c	-0.0012833844
25	0xbc137654	-0.00900038
26	0x3d8d7f85	0.06909088
27	0x3d333b67	0.043757822
28	0xbcb0ca0e	-0.021580722
29	0x3cedf96c	0.029049598
30	0xbcffbd30	-0.031218141
31	0xbc1146a6	-0.008866942
32	0x3bb3662d	0.005474827
33	0xbc9cd009	-0.019142168
34	0x3d7511c0	0.05983138
35	0x3c074c44	0.008257929
36	0x3c8d4dde	0.017249044
37	0x3cd55a65	0.02604408
38	0xbcdff052	-0.027336273
39	0x3d5576e4	0.052115336
40	0x3d356642	0.044286974
41	0x3ce365b2	0.027758453
42	0x3ce92cfe	0.028463837
43	0xbba266bb	-0.004956094
44	0x3bd653ef	0.0065407674
45	0xbceb2e61	-0.028708639
46	0xbd55a80f	-0.052162226
47	0x3c9f9733	0.019481277
48	0xbc306da9	-0.0107683325
49	0xbc322d33	-0.010875034
50	0xbc495631	-0.012288616
51	0x3d810cd7	0.06301277
52	0xbd84f8af	-0.06492745
53	0x3b10f0d4	0.00221162
54	0x3c872da0	0.016501248
55	0x3bd0f874	0.006377274
56	0x3d1159c0	0.035485983
57	0xbcfd6f81	-0.030936958
58	0x3d463326	0.048388623
59	0xbbe15c14	-0.0068774316
60	0x3d4b55e5	0.049642462
61	0x3d45f7b3	0.048331928
62	0xbd4e4f67	-0.050368693
63	0xbd790913	-0.06079967

root.left_child.local_expert.fc2.weight f4 [2, 64]
0	0x3dbe3a8e	0.09288512
1	0x3db8f22c	0.090305656
2	0x3bf97e7b	0.0076139546
3	0x3dd87d64	0.10570791
4	0xbdc20f16	-0.09475534
5	0xbcc697eb	-0.024242362
6	0xbd95fef0	-0.07324016
7	0xbdd87515	-0.105692066
8	0x3dd52a1a	0.10408421
9	0xbdc80f4b	-0.09768542
10	0x3db24532	0.08704604
11	0xbd901388	-0.07034975
12	0xbdc04cad	-0.09389625
13	0xbdc09bfb	-0.09404751
14	0xbd6f49c5	-0.05841996
15	0xbd4e40da	-0.050354816
16	0x3db9a6b5	0.09065
17	0x3da28480	0.079354286
18	0xbdc5d959	-0.096605964
19	0xbd2b41ab	-0.041810673
20	0x3dc2c6b8	0.09510559
21	0xbce4b41a	-0.02791791
22	0xbd94d1ac	-0.07266554
23	0xbd9ee178	-0.077578485
24	0xbdb08441	-0.086189754
25	0xbd9448c1	-0.07240439
26	0xbd3c64c4	-0.045994535
27	0xbdd9ff3a	-0.10644384
28	0x3dc26837	0.09492534
29	0xbdc58517	-0.096445255
30	0x3cae9fd9	0.021316456
31	0x3db9a073	0.090638064
32	0x3cf42b98	0.029805943
33	0x3d7a4666	0.061102293
34	0x3c22071f	0.009889393
35	0x3d52e5f8	0.051488847
36	0xbd5c9204	-0.05385019
37	0x3be4bcee	0.00698053
38	0x3d1e5dfb	0.038663846
39	0xbdce14bf	-0.10062551
40	0x3d93c354	0.0721499
41	0xbbb4d16a	-0.005518128
42	0xbd824b9b	-0.06362077
43	0x3dc6af4c	0.09701404
44	0xbcc1007e	-0.023559805
45	0x3d717820	0.05895245
46	0x3d7bf2f0	0.06151098
47	0x3d5e23cb	0.054233354
48	0x3d6db016	0.058029257
49	0x3a8a2f83	0.0010542724
50	0x3a7184dc	0.0009213218
51	0xbdceda8d	-0.10100279
52	0xbb87c288	-0.004143063
53	0xbd513e45	-0.051084775
54	0x3cc94fbf	0.024574159
55	0xbc0d80f5	-0.008636703
56	0xbd96d8d6	-0.07365577
57	0xbcb28bd8	-0.021795198
58	0xbdb51355	-0.08841578
59	0x3da74a4d	0.081684686
60	0xbd705fa6	-0.058684967
61	0xbd0e8e8d	-0.034803916
62	0xbd15476a	-0.03644506
63	0x3cdcd437	0.02695666
64	0x3b9a1f5c	0.0047034454
65	0x3da17ec0	0.07885504
66	0x3dc00747	0.09376388
67	0xbd0587de	-0.032600276
68	0x3d7f8bdc	0.06238924
69	0x3d4a733b	0.0494263
70	0xbd069677	-0.03285834
71	0xbd946cdd	-0.072473265
72	0xbd9b4dd9	-0.07583208
73	0xbd32ae5d	-0.043623317
74	0xbd51b95f	-0.051202174
75	0x3d7eb012	0.062179632
76	0xbd72fe63	-0.059324633
77	0x3c95dd3b	0.018293967
78	0xbe05c326	-0.13062724
79	0xbc0244ff	-0.00795102
80	0xbdc262cb	-0.094914995
81	0xbd263f2b	-0.040587585
82	0x3d987e37	0.074459486
83	0x3d8c1b79	0.068411775
84	0xbbacbaf7	-0.0052713114
85	0xbb9eba9f	-0.0048440243
86	0xbd51cd73	-0.051221322
87	0xbe05cefa	-0.13067237
88	0x3ad3601a	0.0016126663
89	0x3cb580dc	0.022156172
90	0xbcdc2b05	-0.026875982
91	0x3d8df428	0.06931335
92	0xbcf305bc	-0.02966582
93	0x3c600dfe	0.013675211
94	0x3d8de0bd	0.06927631
95	0x3de6f008	0.11276251
96	0xbdc1eff3	-0.09469595
97	0xbcc48304	-0.023988254
98	0x3d1eb003	0.038742077
99	0xbd6c776e	-0.057731085
100	0x3da128e8	0.078691304
101	0x3d9a02ea	0.07520087
102	0xbd889a5c	-0.06670067
103	0x3c9f94cc	0.019480132
104	0x3df995b9	0.121867605
105	0x3dafa9f1	0.085773356
106	0xbd0452b2	-0.032305427
107	0xbcd99bfc	-0.026563637
108	0xbcaed532	-0.021341894
109	0xbc9e21c1	-0.019303204
110	0x3c9c584a	0.019085068
111	0xbda5edb6	-0.081019804
112	0xbca62a8b	-0.020283958
113	0xbd98b53b	-0.07456442
114	0x3d37d4e1	0.04488075
115	0xbd75c3ce	-0.060001187
116	0xbd70f37d	-0.05882596
117	0x39b01eb4	0.00033592212
118	0x3d8d852e	0.06910168
119	0xbdc796f9	-0.097455926
120	0x3da83c04	0.08214572
121	0xbcafb285	-0.02144743
122	0xbc16fbad	-0.009215278
123	0x3ddc7dbf	0.10766172
124	0x3a4f63ae	0.0007911277
125	0x3bad0ba2	0.0052809278
126	0xbdb4d8db	-0.088304244
127	0xbccc981d	-0.024974877

root.left_child.local_expert.fc2.bias f4 [2]
0	0x3dba63be	0.091010556
1	0xbd09c73c	-0.03363727

root.right_child.gating.0.weight f4 [16, 437]
0	0x0000f4d8	8.7833e-41
1	0x0000bf5a	6.8644e-41
2	0xaa4ca716	-1.817681e-13
3	0x1780d4f4	8.325563e-25
4	0x218a88e4	9.387478e-19
5	0x8000babc	-6.6988e-41
6	0xa31bd841	-8.44836e-18
7	0x97a239dc	-1.048361e-24
8	0x80001690	-8.094e-42
9	0x24ab34ac	7.424866e-17
10	0x298b2687	6.1795234e-14
11	0xa8c6b23b	-2.2059711e-14
12	0x0000c06d	6.903e-41
13	0x9dc3d970	-5.1840895e-21
14	0x0000ce57	7.4021e-41
15	0x0000c18b	6.943e-41
16	0x8000d570	-7.6567e-41
17	0xaa224df2	-1.4415533e-13
18	0x8000cf42	-7.435e-41
19	0x8000beff	-6.8516e-41
20	0x0000d7cb	7.7412e-41
21	0x0000bd7d	6.7976e-41
22	0x0000ceef	7.4234e-41
23	0x1f5f8da5	4.7339252e-20
24	0x8000cdb3	-7.3791e-41
25	0xab9d68e9	-1.1184639e-12
26	0x0000c599	7.0885e-41
27	0x8000c705	-7.1395e-41
28	0x8000d433	-7.6123e-41
29	0x9d28a1a9	-2.2318191e-21
30	0x0000cd5d	7.367e-41
31	0x0000cdb8	7.3798e-41
32	0x1b0ecc4a	1.1811974e-22
33	0xa5058e93	-1.1584217e-16
34	0x0000e29b	8.1291e-41
35	0x8000d02a	-7.4675e-41
36	0x089dd705	9.499645e-34
37	0x0000bc95	6.765e-41
38	0x0000bcea	6.777e-41
39	0x28210127	8.937545e-15
40	0x8000cdbb	-7.3802e-41
41	0x8000cd4d	-7.3648e-41
42	0x1bf82dda	4.105779e-22
43	0x0000ce14	7.3927e-41
44	0xa90c942d	-3.1214767e-14
45	0x0000c382	7.0135e-41
46	0xa2b4411f	-4.8858047e-18
47	0x8000ceca	-7.4182e-41
48	0xaa3cfd3c	-1.6785613e-13
49	0x9e2b24a2	-9.06024e-21
50	0x8000bac1	-6.6995e-41
51	0x0000bf28	6.8574e-41
52	0x0000cd6f	7.3696e-41
53	0x82301fc1	-1.2939551e-37
54	0x0000bec8	6.844e-41
55	0x0000cd91	7.3743e-41
56	0x0000bd15	6.783e-41
57	0x0000cedc	7.4207e-41
58	0x8d5fd0db	-6.896858e-31
59	0x8000b9f3	-6.6706e-41
60	0x1f03a220	2.7874436e-20
61	0x2b1694a3	5.349698e-13
62	0x0000ce9b	7.4116e-41
63	0x8000cd16	-7.3571e-41
64	0x8000ceb3	-7.415e-41
65	0x8000ce29	-7.3956e-41
66	0x8000bff4	-6.886e-41
67	0xa92f58a2	-3.8934683e-14
68	0x075e1995	1.6708942e-34
69	0x8000bc39	-6.7522e-41
70	0x1aff667d	1.0563111e-22
71	0x28344b73	1.0008368e-14
72	0xaac1fe80	-3.4460282e-13
73	0xa5c11253	-3.349258e-16
74	0x9ea637f1	-1.759907e-20
75	0x0000ea78	8.4112e-41
76	0x0806c97f	4.0561016e-34
77	0x1889104a	3.5430118e-24
78	0xababcb69	-1.2206738e-12
79	0x8000cd6f	-7.3696e-41
80	0x0000cfcd	7.4545e-41
81	0x0000be49	6.8261e-41
82	0x8000ce17	-7.3931e-41
83	0x8000f446	-8.7629e-41
84	0x9ad2af82	-8.713751e-23
85	0x123ae6e4	5.8975846e-28
86	0x0e596a1b	2.6798403e-30
87	0x1b9bc8a5	2.5772262e-22
88	0x8000cc1e	-7.3223e-41
89	0x1918dff4	7.903443e-24
90	0x10eb882a	9.290095e-29
91	0x0000ba05	6.6731e-41
92	0x0000cdf9	7.3889e-41
93	0x8b28656b	-3.243192e-32
94	0x99b3fdcf	-1.8610679e-23
95	0x8000f5a4	-8.8119e-41
96	0x0000d6bd	7.7034e-41
97	0x20066c4e	1.1386077e-19
98	0x9d37b9cd	-2.4315905e-21
99	0x2290c81b	3.924315e-18
100	0x8000d2af	-7.5579e-41
101	0x2adf5024	3.9668366e-13
102	0x8000bf40	-6.8608e-41
103	0x8000ba64	-6.6864e-41
104	0x8000bcdf	-6.7754e-41
105	0x8000c441	-7.0403e-41
106	0x0000cdfc	7.3893e-41
107	0x9a5cdbb2	-4.5672402e-23
108	0xa55b6560	-1.9029569e-16
109	0x8000be1c	-6.8198e-41
110	0x0000cdc8	7.382e-41
111	0x8000cf35	-7.4332e-41
112	0x8000bd6b	-6.795e-41
113	0x1f83ac09	5.5765266e-20
114	0x8000c2b8	-6.9852e-41
115	0x8000ce10	-7.3921e-41
116	0x1f644804	4.8340448e-20
117	0x0000cd82	7.3722e-41
118	0x0000cdbc	7.3804e-41
119	0x1b3e43e7	1.5738372e-22
120	0xa4b5f5a4	-7.891237e-17
121	0x1e899034	1.456508e-20
122	0xa456015b	-4.6405e-17
123	0x8000cb70	-7.298e-41
124	0x1cf15dd4	1.5972296e-21
125	0xa3c68655	-2.1524095e-17
126	0xa61c632d	-5.425778e-16
127	0xaa29d46e	-1.5083917e-13
128	0x8600c723	-2.4220427e-35
129	0x0000bba2	6.731e-41
130	0xa8e9d409	-2.5960152e-14
131	0x0000cd41	7.3631e-41
132	0xa3c8d2b0	-2.1773273e-17
133	0x220103a4	1.7484687e-18
134	0x8000ce45	-7.3996e-41
135	0x8000bbcd	-6.737e-41
136	0x9e4db104	-1.0889216e-20
137	0x2a7bb67f	2.2356594e-13
138	0x242d7744	3.7614417e-17
139	0x0144c0f8	3.6137963e-38
140	0x93d920c1	-5.48108e-27
141	0x227dfa1e	3.4420305e-18
142	0x8000bad1	-6.7017e-41
143	0x29aa3717	7.559073e-14
144	0x0000b9e0	6.668e-41
145	0xa8833946	-1.456876e-14
146	0x8000e0bf	-8.0624e-41
147	0x179255db	9.456702e-25
148	0x0000cdad	7.3783e-41
149	0x84d143ed	-4.9198044e-36
150	0x254230c5	1.6843341e-16
151	0x8000cd31	-7.3609e-41
152	0x0000ba81	6.6905e-41
153	0xa057f42a	-1.8291995e-19
154	0x0000cf61	7.4394e-41
155	0x22c9881b	5.4625266e-18
156	0x9fd57f55	-9.041966e-20
157	0x29725c05	5.381461e-14
158	0x8000bc54	-6.756e-41
159	0x8000e0ed	-8.0688e-41
160	0x0000d46e	7.6205e-41
161	0x0000bda1	6.8026e-41
162	0x8000cef0	-7.4235e-41
163	0x0000cde9	7.3867e-41
164	0x8000ce66	-7.4042e-41
165	0x0000e068	8.0502e-41
166	0x0000ce9d	7.4119e-41
167	0x8576d3ad	-1.1605743e-35
168	0x0dd7ead5	1.3306932e-30
169	0x0000ce48	7.4e-41
170	0x8000cdf3	-7.388e-41
171	0xa91bdad4	-3.4606717e-14
172	0x01834fe9	4.8236465e-38
173	0x0000ce7f	7.4077e-41
174	0x2a90cb73	2.572071e-13
175	0x8000cd3b	-7.3623e-41
176	0x8000cf32	-7.4328e-41
177	0x0000b990	6.6567e-41
178	0x0000e0d3	8.0652e-41
179	0x0000f559	8.8014e-41
180	0x0000cda4	7.377e-41
181	0x8000bb13	-6.711e-41
182	0x0000e0c3	8.063e-41
183	0x0000ce4e	7.4008e-41
184	0xa9461a9d	-4.3987915e-14
185	0x241430eb	3.213382e-17
186	0x0000e851	8.334e-41
187	0x0000f13e	8.6541e-41
188	0x8000e199	-8.0929e-41
189	0x0000c7a8	7.1623e-41
190	0x0000cdb5	7.3794e-41
191	0x0000ca0c	7.2481e-41
192	0x272aa531	2.368179e-15
193	0x8000cec4	-7.4174e-41
194	0x0000ce63	7.4038e-41
195	0x9d18516a	-2.0159123e-21
196	0x0000ce26	7.3952e-41
197	0x2b657ab2	8.1527417e-13
198	0x81224faa	-2.9811857e-38
199	0xa57ae959	-2.1763105e-16
200	0x81ad5ad6	-6.3680507e-38
201	0x9445ff8a	-9.9963545e-27
202	0x1dddfce9	5.8759716e-21
203	0x1e4df85f	1.09039716e-20
204	0xa78e59a8	-3.9510123e-15
205	0x92684c27	-7.3300157e-28
206	0x9bd21609	-3.4755826e-22
207	0xa506ef1d	-1.1703662e-16
208	0x8000bb47	-6.7182e-41
209	0x8000cef3	-7.424e-41
210	0x8000ba94	-6.6932e-41
211	0xa6222c6a	-5.6265233e-16
212	0x0000cdbb	7.3802e-41
213	0x94ff39a4	-2.5771155e-26
214	0x8000c3fb	-7.0305e-41
215	0x1c6138bd	7.451959e-22
216	0x222625d7	2.2517227e-18
217	0x0000d248	7.5435e-41
218	0x8000c12e	-6.93e-41
219	0x8000ce8d	-7.4096e-41
220	0x8000bcf6	-6.7786e-41
221	0x228e3824	3.854862e-18
222	0x8000c2ff	-6.9951e-41
223	0x0000e194	8.0922e-41
224	0x96a18cde	-2.6099853e-25
225	0xa171288e	-8.170765e-19
226	0x0000cd3a	7.3621e-41
227	0x16c94d9a	3.2522275e-25
228	0x8000be5e	-6.8291e-41
229	0xa20dbd4d	-1.9209278e-18
230	0x8000ceea	-7.4227e-41
231	0x8000bb1e	-6.7125e-41
232	0x297518df	5.44225e-14
233	0x8000cd5d	-7.367e-41
234	0x18879503	3.5047145e-24
235	0x0000e1bd	8.098e-41
236	0xa9d2ecc6	-9.366947e-14
237	0x8000bc62	-6.7579e-41
238	0x8000cd25	-7.3592e-41
239	0x983714e9	-2.3662753e-24
240	0x9956cca6	-1.1104869e-23
241	0x0000bbb2	6.7332e-41
242	0x24026c97	2.8281236e-17
243	0x988c44c4	-3.6258587e-24
244	0xaa7a6804	-2.2240548e-13
245	0x1fbc6a61	7.9797086e-20
246	0x8000bca4	-6.7672e-41
247	0x0000bdc3	6.8074e-41
248	0x0000e258	8.1197e-41
249	0x8000c2d4	-6.9891e-41
250	0x0000ce82	7.4081e-41
251	0xa6848327	-9.194889e-16
252	0x0000cd5a	7.3666e-41
253	0x8000e109	-8.0727e-41
254	0x8000ce5e	-7.403e-41
255	0x0000cebc	7.4162e-41

root.right_child.gating.0.bias f4 [16]
0	0x8000cd75	-7.3704e-41
1	0xa8f16d9c	-2.680391e-14
2	0xa54f166e	-1.7961987e-16
3	0x9c40bf0d	-6.37744e-22
4	0x1ed7faca	2.2867734e-20
5	0x97f070c9	-1.5538107e-24
6	0xa2b44216	-4.885907e-18
7	0xa8210c66	-8.939984e-15
8	0xaa9b5b8b	-2.7597052e-13
9	0x8000bf38	-6.8596e-41
10	0x8000e235	-8.1148e-41
11	0x8000cf57	-7.438e-41
12	0x8000ce26	-7.3952e-41
13	0x8000ced8	-7.4202e-41
14	0x23e15829	2.4431886e-17
15	0x0000bdb1	6.8048e-41

root.right_child.gating.2.weight f4 [1, 16]
0	0xb787c2d1	-1.6183973e-05
1	0x3b88bdfd	0.004173039
2	0x3b97e776	0.0046357466
3	0x25295aae	1.4689137e-16
4	0xb85f8589	-5.3291707e-05
5	0x367f409b	3.8035566e-06
6	0xb889be55	-6.568121e-05
7	0xbc4e9b2f	-0.012610241
8	0x3af276a9	0.0018498498
9	0x8000bbd2	-6.7377e-41
10	0x158974f6	5.551839e-26
11	0xbc1c1693	-0.0095268665
12	0x38dc01b5	0.000104907354
13	0x27127547	2.0325146e-15
14	0xbafe3bde	-0.0019396504
15	0xbabe2ce4	-0.0014509228

root.right_child.feature_selector.logit_phi f4 [437]
0	0x3f0a5d70	0.54048824
1	0x3f0a5d15	0.5404828
2	0x3f0a5bfa	0.54046595
3	0x3f0a5cc3	0.54047793
4	0x3f0a5c27	0.54046863
5	0x3f0a5c8e	0.5404748
6	0x3f0a5bdc	0.54046416
7	0x3f0a5c2f	0.5404691
8	0x3f0a5d02	0.5404817
9	0x3f0a5c7e	0.5404738
10	0x3f0a5cc6	0.5404781
11	0x3f0a5bbc	0.54046226
12	0x3f0a5c43	0.5404703
13	0x3f0a5d91	0.5404902
14	0x3f0a5d47	0.5404858
15	0x3f0a5d28	0.54048395
16	0x3f0a5c7e	0.5404738
17	0x3f0a5c86	0.5404743
18	0x3f0a5c94	0.54047513
19	0x3f0a5d1a	0.5404831
20	0x3f0a5c0b	0.54046696
21	0x3f0a5cb9	0.54047734
22	0x3f0a5d43	0.54048556
23	0x3f0a5c44	0.54047036
24	0x3f0a5cf0	0.5404806
25	0x3f0a5ceb	0.5404803
26	0x3f0a5c8e	0.5404748
27	0x3f0a5d6d	0.54048806
28	0x3f0a5d1a	0.5404831
29	0x3f0a5d26	0.54048383
30	0x3f0a5cb9	0.54047734
31	0x3f0a5dad	0.5404919
32	0x3f0a5cd3	0.5404789
33	0x3f0a5cc0	0.54047775
34	0x3f0a5d0b	0.5404822
35	0x3f0a5bd1	0.5404635
36	0x3f0a5c28	0.5404687
37	0x3f0a5c09	0.54046685
38	0x3f0a5cba	0.5404774
39	0x3f0a5c91	0.54047495
40	0x3f0a5c9d	0.54047567
41	0x3f0a5c91	0.54047495
42	0x3f0a5d3f	0.5404853
43	0x3f0a5d09	0.5404821
44	0x3f0a5ca0	0.54047585
45	0x3f0a5ce9	0.5404802
46	0x3f0a5d45	0.5404857
47	0x3f0a5cfd	0.5404814
48	0x3f0a5cca	0.54047835
49	0x3f0a5ceb	0.5404803
50	0x3f0a5ca6	0.5404762
51	0x3f0a5d04	0.5404818
52	0x3f0a5d50	0.54048634
53	0x3f0a5c14	0.5404675
54	0x3f0a5c23	0.5404684
55	0x3f0a5cf6	0.540481
56	0x3f0a5cc7	0.54047817
57	0x3f0a5d4c	0.5404861
58	0x3f0a5db8	0.54049253
59	0x3f0a5c0a	0.5404669
60	0x3f0a5c9a	0.5404755
61	0x3f0a5cfe	0.54048145
62	0x3f0a5cbb	0.54047745
63	0x3f0a5cdb	0.54047936
64	0x3f0a5cd1	0.54047877
65	0x3f0a5c3c	0.5404699
66	0x3f0a5c7b	0.54047364
67	0x3f0a5c03	0.5404665
68	0x3f0a5c8f	0.54047483
69	0x3f0a5c6a	0.5404726
70	0x3f0a5cef	0.54048055
71	0x3f0a5bed	0.5404652
72	0x3f0a5ce6	0.54048
73	0x3f0a5cfb	0.54048127
74	0x3f0a5c10	0.54046726
75	0x3f0a5cc7	0.54047817
76	0x3f0a5d34	0.54048467
77	0x3f0a5d52	0.54048645
78	0x3f0a5cfc	0.5404813
79	0x3f0a5c36	0.5404695
80	0x3f0a5f17	0.54051346
81	0x3f0a5d42	0.5404855
82	0x3f0a5be1	0.54046446
83	0x3f0a5cba	0.5404774
84	0x3f0a5ccc	0.54047847
85	0x3f0a5c4f	0.540471
86	0x3f0a5c77	0.5404734
87	0x3f0a5d07	0.540482
88	0x3f0a5cc9	0.5404783
89	0x3f0a5c8a	0.54047453
90	0x3f0a5ba6	0.54046094
91	0x3f0a5cd5	0.540479
92	0x3f0a5bca	0.5404631
93	0x3f0a5c68	0.5404725
94	0x3f0a5cb4	0.54047704
95	0x3f0a5cac	0.54047656
96	0x3f0a5c8f	0.54047483
97	0x3f0a5c85	0.54047424
98	0x3f0a5c64	0.54047227
99	0x3f0a5bd8	0.5404639
100	0x3f0a5cb2	0.5404769
101	0x3f0a5c5a	0.5404717
102	0x3f0a5cd7	0.5404791
103	0x3f0a5cd2	0.5404788
104	0x3f0a5c4b	0.5404708
105	0x3f0a5cb2	0.5404769
106	0x3f0a5d4c	0.5404861
107	0x3f0a5c78	0.54047346
108	0x3f0a5c2b	0.5404689
109	0x3f0a5c9a	0.5404755
110	0x3f0a5be3	0.5404646
111	0x3f0a5d3f	0.5404853
112	0x3f0a5bba	0.54046214
113	0x3f0a5c7f	0.5404739
114	0x3f0a5c31	0.5404692
115	0x3f0a5ba0	0.5404606
116	0x3f0a5c15	0.54046756
117	0x3f0a5c9a	0.5404755
118	0x3f0a5cb3	0.540477
119	0x3f0a5d47	0.5404858
120	0x3f0a5cb0	0.5404768
121	0x3f0a5c0c	0.540467
122	0x3f0a5d0d	0.54048234
123	0x3f0a5cd3	0.5404789
124	0x3f0a5bbc	0.54046226
125	0x3f0a5ccd	0.5404785
126	0x3f0a5cb4	0.54047704
127	0x3f0a5d41	0.54048544
128	0x3f0a5cac	0.54047656
129	0x3f0a5c7e	0.5404738
130	0x3f0a5cac	0.54047656
131	0x3f0a5ce8	0.54048014
132	0x3f0a5cc7	0.54047817
133	0x3f0a5c21	0.5404683
134	0x3f0a5d43	0.54048556
135	0x3f0a5db3	0.54049224
136	0x3f0a5d90	0.54049015
137	0x3f0a5ca0	0.54047585
138	0x3f0a5c83	0.5404741
139	0x3f0a5cb4	0.54047704
140	0x3f0a5cb4	0.54047704
141	0x3f0a5d67	0.5404877
142	0x3f0a5d56	0.5404867
143	0x3f0a5ca7	0.54047626
144	0x3f0a5ce0	0.54047966
145	0x3f0a5d33	0.5404846
146	0x3f0a5cb5	0.5404771
147	0x3f0a5d0e	0.5404824
148	0x3f0a5d48	0.54048586
149	0x3f0a5c8d	0.5404747
150	0x3f0a5d1b	0.5404832
151	0x3f0a5c8e	0.5404748
152	0x3f0a5cd8	0.5404792
153	0x3f0a5cc9	0.5404783
154	0x3f0a5c96	0.54047525
155	0x3f0a5d2d	0.54048425
156	0x3f0a5c2a	0.5404688
157	0x3f0a5d4e	0.5404862
158	0x3f0a5d1c	0.54048324
159	0x3f0a5d02	0.5404817
160	0x3f0a5cf0	0.5404806
161	0x3f0a5c6e	0.54047287
162	0x3f0a5d05	0.54048187
163	0x3f0a5d43	0.54048556
164	0x3f0a5cfc	0.5404813
165	0x3f0a5bd2	0.54046357
166	0x3f0a5c1b	0.5404679
167	0x3f0a5d5c	0.54048705
168	0x3f0a5d14	0.54048276
169	0x3f0a5d6b	0.54048795
170	0x3f0a5cd2	0.5404788
171	0x3f0a5bb7	0.54046196
172	0x3f0a5d30	0.5404844
173	0x3f0a5d2c	0.5404842
174	0x3f0a5cf3	0.5404808
175	0x3f0a5ce1	0.5404797
176	0x3f0a5cec	0.5404804
177	0x3f0a5c9c	0.5404756
178	0x3f0a5d12	0.54048264
179	0x3f0a5d38	0.5404849
180	0x3f0a5ce9	0.5404802
181	0x3f0a5cb3	0.540477
182	0x3f0a5d50	0.54048634
183	0x3f0a5cb4	0.54047704
184	0x3f0a5cec	0.5404804
185	0x3f0a5ccc	0.54047847
186	0x3f0a5c9a	0.5404755
187	0x3f0a5cb0	0.5404768
188	0x3f0a5d6a	0.5404879
189	0x3f0a5d60	0.5404873
190	0x3f0a5caf	0.54047674
191	0x3f0a5dd8	0.54049444
192	0x3f0a5c25	0.5404685
193	0x3f0a5d4d	0.54048616
194	0x3f0a5d24	0.5404837
195	0x3f0a5cfb	0.54048127
196	0x3f0a5c0c	0.540467
197	0x3f0a5cc0	0.54047775
198	0x3f0a5c37	0.5404696
199	0x3f0a5c18	0.54046774
200	0x3f0a5cf7	0.54048103
201	0x3f0a5d6d	0.54048806
202	0x3f0a5c7c	0.5404737
203	0x3f0a5cfe	0.54048145
204	0x3f0a5c8a	0.54047453
205	0x3f0a5cbe	0.54047763
206	0x3f0a5d2b	0.54048413
207	0x3f0a5c79	0.5404735
208	0x3f0a5c77	0.5404734
209	0x3f0a5c39	0.5404697
210	0x3f0a5c15	0.54046756
211	0x3f0a5d2e	0.5404843
212	0x3f0a5c49	0.54047066
213	0x3f0a5ca9	0.5404764
214	0x3f0a5c78	0.54047346
215	0x3f0a5c56	0.54047143
216	0x3f0a5cf0	0.5404806
217	0x3f0a5d30	0.5404844
218	0x3f0a5cb4	0.54047704
219	0x3f0a5caa	0.54047644
220	0x3f0a5c87	0.54047436
221	0x3f0a5d13	0.5404827
222	0x3f0a5ca8	0.5404763
223	0x3f0a5c1c	0.540468
224	0x3f0a5c7d	0.54047376
225	0x3f0a5e15	0.5404981
226	0x3f0a5e3b	0.54050034
227	0x3f0a5c67	0.54047245
228	0x3f0a5db3	0.54049224
229	0x3f0a5d05	0.54048187
230	0x3f0a5d7c	0.54048896
231	0x3f0a5c99	0.5404754
232	0x3f0a5d36	0.5404848
233	0x3f0a5cc2	0.5404779
234	0x3f0a5c31	0.5404692
235	0x3f0a5d92	0.54049027
236	0x3f0a5d09	0.5404821
237	0x3f0a5d1d	0.5404833
238	0x3f0a5ca0	0.54047585
239	0x3f0a5d65	0.5404876
240	0x3f0a5bfe	0.5404662
241	0x3f0a5d01	0.5404816
242	0x3f0a5cfa	0.5404812
243	0x3f0a5c2a	0.5404688
244	0x3f0a5ca9	0.5404764
245	0x3f0a5c2a	0.5404688
246	0x3f0a5c2d	0.540469
247	0x3f0a5d05	0.54048187
248	0x3f0a5cb3	0.540477
249	0x3f0a5cf0	0.5404806
250	0x3f0a5caa	0.54047644
251	0x3f0a5cd8	0.5404792
252	0x3f0a5c60	0.54047203
253	0x3f0a5cc9	0.5404783
254	0x3f0a5cc9	0.5404783
255	0x3f0a5d36	0.5404848
