checkpoints/trial_0_alpha1.246_beta1.818_lr0.003depth2_mlpTrue_hdim16/checkpoint.pth (torch, 335266 bytes, 41 tensors)

root.gating.0.weight f4 [16, 437]
-0.035294674 -0.035662975 0.004105162 -0.010971652 -0.02202575 -0.007254667 0.03541073 0.03193391
0.0042780964 -0.025347102 -0.034698308 -0.013420366 0.030450584 -0.024774756 -0.0111465175 -0.0054777944
0.033651114 0.0012593857 0.032300163 0.0045191394 -0.03745404 0.0012757647 0.029665438 0.04695459
-0.013994923 -0.02641801 -0.032665636 -0.02116582 0.011574638 -0.012864452 -0.010894196 0.04418631
-0.045214258 0.04763796 -0.025524842 -0.0029359087 0.044606958 -0.0020242021 -0.005749607 0.035913095
0.0048616123 0.030625906 0.009718861 0.031119931 -0.003402214 0.020471077 -0.041259535 0.018848613
0.0069342344 0.026316384 0.04767565 -0.016445655 -0.007291366 0.04452577 0.027493447 -0.034810383
0.029444512 -0.051345132 0.046748806 -0.018417276 0.004451793 -0.025774121 -0.023611162 0.03720808
0.0018311602 0.020167815 0.03323986 0.048901197 0.038069222 -0.0010423643 -0.0029288353 0.036121923
-0.03073465 -0.017759211 0.009141468 0.028820507 -0.010781772 0.0026434904 -0.007727172 -0.015773082
-0.038448576 -0.044501908 -0.016800888 0.019868586 -0.041450433 0.036322262 0.020020746 -0.010120937
-0.022815928 -0.004949805 -0.0011563185 0.045873366 -0.0028893685 -0.033350363 -0.02818027 -0.039829962
-0.032919854 -0.012229683 0.023678223 0.009504187 0.038733285 0.022937115 0.033698194 -0.008374896
-0.0087720435 0.032415893 -0.043333385 -0.044463214 -0.04568806 -0.0075318962 0.020421825 0.018703325
-0.03162008 -0.022813875 0.017348723 -0.026201207 -0.02371895 0.030808581 0.0145267295 -0.01627781
0.006906895 0.041111175 -0.019398961 -0.016300652 -0.016751502 0.018247778 0.033798773 -0.029953236
0.04229151 -0.009664999 -0.036994126 -0.04018981 -0.035994492 0.022011261 0.027679179 -0.0354552
0.024703072 -0.043454077 -0.023153147 0.018836081 -0.03736228 0.0150586665 -0.029275648 0.039481245
0.038244534 -0.0112122735 0.02174689 0.034243982 -0.033114612 0.018012678 0.046117444 0.028699992
-0.04415969 -0.034063682 -0.01665841 0.016411092 0.037194666 0.038965095 0.013389932 -0.03389157
-0.013965076 -0.0038898569 -0.014213403 -0.04370582 0.0055526365 -0.028301954 0.02232166 0.002359902
0.010702496 0.021881219 0.0075002993 0.0376372 -0.01844005 0.048477873 0.043558136 0.034425452
0.014523263 0.04638546 0.038557466 -0.0085271895 -0.04271578 0.031996112 -0.031930655 0.0038024632
0.024645066 0.025078895 -0.026021283 -0.0062016267 -0.024586972 0.030164596 -0.020103112 -0.041959215
0.034175053 -0.0035852238 0.031813007 0.006260438 0.042304207 -0.01749171 -0.027761087 -0.017820459
-0.009758604 -0.020148912 -0.004661055 -0.0025067688 0.006173138 0.024152223 -0.011044064 -0.029503567
0.0021204527 0.001084643 0.034765568 0.01924112 0.032516107 0.0058627413 -0.02636367 -0.018554023
0.04595626 -0.02946625 -0.010635195 -0.0008041937 0.005587398 0.018702844 -0.03167285 -0.0143849915
0.036967866 0.020500734 0.03635087 0.023854591 0.041631725 0.017823922 -0.04118019 0.0014044245
0.01112383 0.03675346 0.019393826 0.022692846 -0.038401563 -0.037433397 -0.024440313 -0.034062963
0.027288642 -0.010131666 0.04265448 -0.021654658 -0.026290534 -0.036920473 -0.0024843672 -0.007690834
-0.030146033 0.0455213 0.00829838 -0.038538042 0.04166393 -0.03881899 -0.02421077 0.010789777
00000000: 2691 10bd 5713 12bd 9884 863b 72c2 33bc
00000010: 586f b4bc 8fb8 edbb d70a 113d 22cd 023d
00000020: 462f 8c3b baa4 cfbc d01f 0ebd 18e1 5bbc
00000030: 8173 f93c 6ef4 cabc e29f 36bc 127f b3bb
00000040: c0d5 093d f911 a53a 2d4d 043d 4a15 943b
00000050: 6869 19bd 8f37 a73a ef04 f33c 7553 403d
00000060: f64a 65bc 956a d8bc 67cc 05bd f163 adbc
00000070: 8da3 3d3c 6cc5 52bc 927d 32bc b4fc 343d
00000080: 9632 39bd 0620 433d 7919 d1bc 6068 40bb
00000090: c9b5 363d 7aa8 04bb 3367 bcbb 9c19 133d
000000a0: 294e 9f3b 2ee3 fa3c dc3b 1f3c 3aef fe3c
000000b0: aef7 5ebb f6b2 a73c c2ff 28bd 6868 9a3c
000000c0: 9338 e33b 7595 d73c 8b47 433d 0ab9 86bc
000000d0: 69ec eebb a760 363d f039 e13c 5595 0ebd
000000e0: 9e35 f13c 464f 52bd ad7b 3f3d d4df 96bc
000000f0: 59e0 913b 4024 d3bc 326c c1bc 8067 183d
00000100: 8a03 f03a f936 a53c 8526 083d 9f4c 483d
00000110: 79ee 1b3d f19f 88ba b4f1 3fbb 95f4 133d
00000120: 3cc7 fbbc c47b 91bc 19c6 153c fc18 ec3c
00000130: 08a6 30bc 693e 2d3b 3834 fdbb 8d36 81bc
00000140: 417c 1dbd a247 36bd 04a2 89bc 72c3 a23c
00000150: eec7 29bd a7c6 143d 8c02 a43c 49d2 25bc
00000160: 78e8 babc f931 a2bb 9c8f 97ba b6e5 3b3d
00000170: 8f5b 3dbb 649a 08bd 4fda e6bc be24 23bd
00000180: f8d6 06bd 025f 48bc d5f8 c13c 73b7 1b3c
00000190: cba6 1e3d 9ee6 bb3c 1e07 0a3d dc36 09bc
000001a0: 9eb8 0fbc 87c6 043d 597e 31bd 0f1f 36bd
000001b0: 6723 3bbd 20ce f6bb ac4b a73c b737 993c
000001c0: 0f84 01bd 2ae4 babc e91e 8e3c eaa3 d6bc
000001d0: 3e4e c2bc 4762 fc3c 8501 6e3c 0b59 85bc
000001e0: 3c53 e23b 3164 283d 92ea 9ebc f288 85bc
000001f0: 723a 89bc 5d7c 953c 9570 0a3d 7d60 f5bc
00000200: dd39 2d3d f259 1ebc 2787 17bd 129e 24bd
00000210: f66e 13bd f650 b43c 72bf e23c 7939 11bd
00000220: 195e ca3c e7fc 31bd abab bdbc 204e 9a3c
00000230: 3109 19bd a0b8 763c 7cd3 efbc 16b7 213d
00000240: 4da6 1c3d afb3 37bc 8926 b23c 6b43 0c3d
00000250: 30a3 07bd 538f 933c a5e5 3c3d 3f1c eb3c
00000260: cbe0 34bd 5c86 0bbd 3877 88bc 8e70 863c
00000270: 6f59 183d dd99 1f3d 7261 5b3c e3d1 0abd
00000280: c6cd 64bc f8ec 7ebb 55df 68bc e004 33bd
00000290: e4f2 b53b 80d9 e7bc eadb b63c 96a8 1a3b
000002a0: 8659 2f3c 3e40 b33c 12c5 f53b 7729 1a3d
000002b0: 960f 97bc bc90 463d 046a 323d b401 0d3d
000002c0: fbf2 6d3c aefe 3d3d 6fee 1d3d a0b5 0bbc
000002d0: bef6 2ebd 5b0e 033d b8c9 02bd bf32 793b
000002e0: 73e4 c93c 4172 cd3c 962a d5bc 0437 cbbb
000002f0: 9e6a c9bc be1b f73c 48af a4bc 6ddd 2bbd
00000300: 24fb 0b3d 13f6 6abb 5b4e 023d 5c24 cd3b
00000310: 2d47 2d3d c64a 8fbc 386b e3bc 36fc 91bc
00000320: 8de2 1fbc 550f a5bc c3bb 98bb 9a48 24bb
00000330: 0948 ca3b e2da c53c 29f2 34bc 77b1 f1bc
00000340: 4bf7 0a3b 942a 8e3a 5766 0e3d 8e9f 9d3c
00000350: 9c2f 053d 3d1c c03b a0f8 d7bc 9bfe 97bc
00000360: a23c 3c3d 3563 f1bc 3e3f 2ebc 87d0 52ba
00000370: 7e16 b73b b536 993c 64bb 01bd 07af 6bbc
00000380: 9e6b 173d 28f1 a73c a6e4 143d b46a c33c
00000390: 0786 2a3d 7903 923c 8fac 28bd ab14 b83a
000003a0: ba40 363c cc8a 163d cddf 9e3c 59e6 b93c
000003b0: f54a 1dbd c353 19bd 0d37 c8bc 9b85 0bbd
000003c0: 6e8c df3c 4aff 25bc 77b6 2e3d 1c65 b1bc
000003d0: 3f5f d7bc ec39 17bd c4d0 22bb 6403 fcbb
000003e0: d0f4 f6bc 8b74 3a3d eef5 073c 11da 1dbd
000003f0: cca7 2a3d a900 1fbd aa55 c6bc 9bc7 303c

root.gating.0.bias f4 [16]
0.05212961 0.05039993 -0.03280822 -0.03336889 0.017605245 -0.046667498 -0.0023411408 -0.036684886
0.005308452 0.011914374 0.0006392591 -0.0019861162 0.00889999 0.020789905 0.050320037 0.0050410037
00000000: dc85 553d 2870 4e3d e961 06bd d1ad 08bd
00000010: e038 903c 6b26 3fbd d36d 19bb e442 16bd
00000020: 86f2 ad3b 8234 433c f493 273a 8029 02bb
00000030: 43d1 113c 974f aa3c 621c 4e3d 012f a53b

root.gating.2.weight f4 [1, 16]
0.24663268 0.21369293 -0.23333026 0.13900772 0.0014967838 -0.074664034 0.007424061 0.14958559
0.20692454 0.12536196 0.09311565 -0.0870747 -0.04012791 -0.10422674 0.08015876 -0.11962728
00000000: 478d 7c3e 52d2 5a3e 21ee 6ebe 0a58 0e3e
00000010: bb2f c43a 75e9 98bd 8a45 f33b f72c 193e
00000020: 07e4 533e e35e 003e 6bb3 be3d 3854 b2bd
00000030: 2a5d 24bd d474 d5bd 472a a43d 26ff f4bd

root.left_child.gating.0.weight f4 [16, 437]
0.026522953 0.02422117 -0.013751526 0.017862748 0.033352535 0.041436765 -0.012170889 0.043479178
-0.0016477534 0.011316879 0.01584579 0.04090591 0.01150442 0.009428216 -0.005050555 -0.022580082
0.004476706 -0.014164703 0.015059698 -0.013280038 -0.00636419 -0.02099485 -0.02877125 0.006463714
0.04066752 -0.042091817 0.022558514 -0.006720183 0.014889794 0.0014977877 -0.04005615 -0.037602846
0.03923812 -0.04188027 -0.036548197 -0.013108217 0.019824922 -0.016152255 0.020783529 -0.041146167
-0.019067096 -0.0014188061 0.027233956 -0.024943562 -0.03146546 0.014450811 -0.0010792287 0.029166052
-0.021482663 0.032405656 -0.03380003 -0.016489988 0.03680333 0.014864266 -0.0012519006 0.018398827
-0.017103435 -0.042643655 0.038334265 0.017207012 -0.01426915 0.025173588 0.0347894 -0.0068226825
0.0380889 0.008707388 -0.039197817 0.0013856597 -0.012255624 0.010773056 -0.018022617 -0.0014061615
-0.035193853 0.02642586 -0.017522093 -0.0030622657 -0.045743123 -0.033190366 -0.02805972 -0.03216234
-0.03403749 0.031535592 -0.013104821 0.045283645 0.0007244519 -0.024715811 -0.029396133 0.011898589
0.0066537643 0.015295659 -0.019631406 -0.023320558 -0.04598149 0.027610326 -0.020265209 -0.021518487
-0.00037048853 0.012839386 0.02741207 -0.01331233 -0.009983323 -0.01618815 0.017807364 -0.0055618077
-0.011605724 0.034690797 -0.042512253 0.016208988 0.018132368 -0.034267962 0.010091743 1.5071954e-05
0.021919874 -0.002194751 -0.013102032 -0.012021121 0.036775537 0.0048103244 -0.03347456 -0.0021062198
0.035027973 0.0040394287 0.04176772 0.030317472 0.0057300543 -0.007617193 0.027670514 -0.007099589
0.007983411 0.002718366 -0.0018704492 0.004492883 0.0386329 -0.04359787 -0.004086461 -0.0062976
-0.037734035 0.026446527 -0.025682364 0.03813799 -0.009161384 -0.014740987 -0.028794145 0.028689105
0.04537651 -0.03563064 -0.04537333 0.020424383 0.025295364 0.013863261 -0.011979843 0.021932563
-0.025054442 -0.02971709 0.016146958 0.0289709 0.029672137 -0.016687637 -0.044989087 -0.031579904
-0.017165639 -0.0099313315 0.03931605 0.00653679 -0.029998338 -0.02366845 0.014248506 0.016161378
0.0031636197 -0.029361686 0.015648587 0.01864018 -0.043250516 -0.03361326 0.026895797 0.006583439
-0.035009902 -0.025759716 0.004201545 -0.039698575 0.020942453 -0.037460368 0.041058224 -0.0303789
-0.004037998 0.014692884 0.022017777 0.021339001 0.033531103 0.009876522 -0.004720913 0.013267164
-0.048124816 0.027991174 -0.03555055 0.009313996 0.012831007 0.03730198 0.016779132 0.022371948
-0.02511894 -0.040663138 0.020727122 -0.01800327 -0.022203678 0.009309529 -0.03492323 -0.029426182
-0.013577081 0.006070626 -0.009777034 -0.01802253 0.03713373 0.021296887 -0.020868436 0.005224902
0.045464743 -0.0064240643 -0.035884634 0.004705139 -0.022437064 0.03189248 -0.017765885 0.01060785
-0.037647422 -0.029316915 -0.024029126 0.0369821 0.043443944 -0.012689039 -0.0390574 0.04372654
-0.015445105 0.0034743825 -0.023407184 -0.005716967 0.027423576 -0.023986708 -0.0070251054 -0.024770156
-0.023871887 0.0035043424 -0.042915713 -0.019583575 0.006018591 -0.006072504 -0.04854958 -0.028709382
0.0028298714 0.03816082 0.04170283 -0.031372234 -0.044141248 0.012192928 -0.015509393 -0.040811755
00000000: aa46 d93c 7a6b c63c 154e 61bc e654 923c
00000010: ab9c 083d 99b9 293d 6968 47bc 3917 323d
00000020: 6ef9 d7ba 6e6a 393c 08cf 813c f58c 273d
00000030: 097d 3c3c ce78 1a3c 207f a5bb ddf9 b8bc
00000040: 55b1 923b 1213 68bc f4bc 763c 8494 59bc
00000050: b28a d0bb 64fd abbc afb1 ebbc 90cd d33b
00000060: fc92 263d 7868 2cbd a2cc b83c fb34 dcbb
00000070: 53f4 733c 6a51 c43a eb11 24bd 7105 1abd
00000080: 27b8 203d a58a 2bbd 90b3 15bd d9c3 56bc
00000090: e067 a23c bc51 84bc 3842 aa3c e288 28bd
000000a0: 9932 9cbc 3cf7 b9ba bf19 df3c 7156 ccbc
000000b0: ede1 00bd 18c3 6c3c e874 8dba a5ed ee3c
000000c0: 69fc afbc cbbb 043d e671 0abd 0316 87bc
000000d0: 17bf 163d 4089 733c d016 a4ba 23b9 963c
000000e0: 811c 8cbc 1dab 2ebd 6404 1d3d b8f5 8c3c
000000f0: 27c9 69bc d738 ce3c 547f 0e3d cf90 dfbb
00000100: 1b03 1c3d 6fa9 0e3c e48d 20bd 069f b53a
00000110: d0cb 48bc 7981 303c 2ba4 93bc f34e b8ba
00000120: 6e27 10bd 0c7b d83c 7e8a 8fbc 4bb0 48bb
00000130: 245d 3bbd 9ff2 07bd 7fdd e5bc a8bc 03bd
00000140: e56a 0bbd 772b 013d 9ab5 56bc 587b 393d
00000150: 25e9 3d3a d078 cabc 29d0 f0bc 4df2 423c
00000160: d207 da3b a59a 7a3c 0bd2 a0bc c10a bfbc
00000170: 1657 3cbd 0d2f e23c 3903 a6bc 8a47 b0bc
00000180: 213e c2b9 4a5c 523c 478f e03c f51b 5abc
00000190: 1791 23bc 039d 84bc c0e0 913c d33f b6bb
000001a0: ef25 3ebc f017 0e3d 5421 2ebd b6c8 843c
000001b0: 558a 943c 905c 0cbd d757 253c 8ddd 7c37
000001c0: 4f91 b33c d0d5 0fbb e8a9 56bc 3cf4 44bc
000001d0: f2a1 163d ed9f 9d3b 9f1c 09bd 8108 0abb
000001e0: 7e79 0f3d 2f5d 843b a114 2b3d 595c f83c
000001f0: 2ec3 bb3b a599 f9bb 46ad e23c aba3 e8bb
00000200: dacc 023c 9d26 323b dc29 f5ba 0939 933b
00000210: 883d 1e3d ae93 32bd b8e7 85bb 195c cebb
00000220: 018f 1abd 63a6 d83c d263 d2bc 9536 1c3d
00000230: a119 16bc 2e84 71bc b3e1 ebbc 6a05 eb3c
00000240: b8dc 393d 6ff1 11bd 63d9 39bd 0951 a73c
00000250: 3938 cf3c bb22 633c 1a47 44bc ebab b33c
00000260: f93e cdbc 4171 f3bc a046 843c 6254 ed3c
00000270: fb12 f33c 83b4 88bc 7a46 38bd ee59 01bd
00000280: f49e 8cbc 06b7 22bc de09 213d 9232 d63b
00000290: 13bf f5bc 56e4 c1bc 9172 693c de64 843c
000002a0: bb54 4f3b eb87 f0bc 7731 803c 4ab3 983c
000002b0: 7427 31bd 0fae 09bd 9354 dc3c e4b9 d73b
000002c0: 8b66 0fbd 0a06 d3bc 1dad 893b f99a 22bd
000002d0: 828f ab3c 0b70 19bd ab2c 283d 2cdd f8bc
000002e0: 2f51 84bb 6cba 703c a05e b43c 21cf ae3c
000002f0: e957 093d 23d1 213c e3b1 9abb 855e 593c
00000300: 871e 45bd bf4d e53c 749d 11bd bb99 183c
00000310: 2539 523c f6c9 183d 6474 893c 6045 b73c
00000320: 3cc6 cdbc 648e 26bd edcb a93c 987b 93bc
00000330: 7de4 b5bc ff86 183c a90b 0fbd 2d0f f1bc
00000340: 6872 5ebc 1aec c63b da2f 20bc fca3 93bc
00000350: 8a19 183d cf76 ae3c 48f4 aabc a835 ab3b
00000360: 3d39 3a3d f580 d2bb c4fb 12bd 912d 9a3b
00000370: efcd b7bc b0a1 023d c389 91bc 8ccc 2d3c
00000380: 2f34 1abd 072a f0bc bbd8 c4bc 8b7a 173d
00000390: 47f2 313d b0e5 4fbc a7fa 1fbd 9a1a 333d
000003a0: 770d 7dbc 77b2 633b 6cc0 bfbc 6555 bbbb
000003b0: 68a7 e03c c67f c4bc db32 e6bb c8ea cabc
000003c0: fa8e c3bc 1ca9 653b 63c8 2fbd bc6d a0bc
000003d0: 9a37 c53b dbfb c6bb eddb 46bd f02f ebbc
000003e0: 5d75 393b 854e 1c3d 96d0 2a3d 2c80 00bd
000003f0: 74cd 34bd d9c4 473c 1c1b 7ebc 3a2a 27bd

root.left_child.gating.0.bias f4 [16]
0.016844422 0.016215581 -0.0022233732 -0.046560947 0.0069040614 0.049491953 -0.029544756 0.010113383
-0.0318558 -0.03316512 -0.033853773 0.029911064 0.0043959594 0.034570333 0.019537892 -0.027657405
00000000: 50fd 893c 8ad6 843c 03b6 11bb b1b6 3ebd
00000010: 773b e23b 13b8 4a3d d807 f2bc 9ab2 253c
00000020: 3a7b 02bd 26d8 07bd 41aa 0abd 0c08 f53c
00000030: fb0b 903b 9f99 0d3d ee0d a03c c891 e2bc

root.left_child.gating.2.weight f4 [1, 16]
-0.07906493 -0.07353119 0.22623621 -0.0751584 -0.087236814 0.090912975 -0.18188019 -0.028937947
-0.13715813 -0.232521 -0.062440105 -0.23041855 0.15322383 0.06553797 -0.1705075 -0.12826927
00000000: cbec a1bd 8597 96bd 77aa 673e a6ec 99bd
00000010: 37a9 b2bd 9530 ba3d cd3e 3abe 460f edbc
00000020: 2e73 0cbe fc19 6ebe 32c1 7fbd d7f2 6bbe
00000030: b5e6 1c3e c538 863d 8599 2ebe 0559 03be

root.left_child.left_child.gating.0.weight f4 [16, 437]
-0.010480538 0.0075077643 4.472903e-05 0.018084703 -0.0028908823 -0.0012228457 0.0014790002 -0.016676174
-0.016139263 -0.0006920431 -4.617043e-05 -0.0060863043 0.0069243545 4.4808585e-05 -0.009487539 0.0056116357
-0.011730117 -0.015127857 -0.007035482 0.008493876 -3.543444e-07 -0.0035156417 -9.930364e-06 0.010822101
-0.0150052635 -8.100383e-06 -0.0010724582 0.0074459864 0.022207558 -0.023103368 0.0002966666 -0.007804771
4.1097217e-05 -0.004260819 -1.2825103e-05 8.3839103e-07 0.0035758703 0.017127858 -5.979186e-08 -0.010289762
-3.28543e-05 0.0046696765 -0.020860778 0.01629247 -0.017035298 -0.010459216 -0.009842243 -0.0055267154
0.00077448704 -0.00463723 0.016608331 0.015214055 -4.0260734e-06 0.023331642 -3.422501e-07 -0.009534173
-5.268899e-07 -0.013184791 0.02063855 1.5792916e-06 3.1698303e-06 -1.1215004e-06 -0.0054725003 -0.01968642
4.040708e-05 -0.0025115588 -3.428576e-06 0.011531531 0.0004958619 -0.023035392 -0.022310104 2.5235759e-05
9.964638e-06 -0.012582549 0.022949066 -1.233714e-05 5.3892854e-06 -0.021503784 0.024244113 -0.008678104
0.022340458 -0.008819732 0.022189118 0.010864769 0.021460006 -0.01848319 0.00017279823 0.024652299
0.0063241376 0.0128307445 0.017336281 1.2470095e-07 -2.9524554e-05 1.71933e-05 -4.5035495e-06 0.005053713
-2.4630538e-07 -0.024341328 0.023691632 -0.016347302 -0.008145832 -0.00077430304 0.0005427045 0.0015208051
2.23005e-06 -0.006478917 -0.017793676 0.0007682596 0.0021691925 0.002851337 -0.0048724203 0.011997017
-0.012133188 0.0078929635 -0.015097605 0.0013882315 4.5217017e-05 0.025761709 0.020146387 2.9042734e-05
-0.0013260152 -0.003115385 -0.024437103 -2.3750983e-06 0.0014948612 -0.0009936858 9.096537e-07 -4.5647063e-05
-3.847078e-06 3.1471456e-05 -0.0051033692 5.9229938e-06 -0.0066180057 -0.0023328725 0.0055577597 -0.0003143773
2.4584806e-06 -0.023362558 -0.004499674 0.007507668 -0.020827185 -0.0022911283 -0.010915455 0.021320323
0.0002481074 -6.5365555e-07 -0.0055589145 -0.00724838 0.0007929032 -0.0024848687 -4.576332e-05 -0.00194804
0.008519064 0.021111915 0.025165875 -0.015971532 6.9672325e-07 0.021181721 5.4319356e-05 1.8401611e-06
-0.019463211 0.00042685296 -0.02418194 0.0025791237 0.020233305 -8.223153e-07 -0.0020575507 -0.00927761
0.0011442257 0.0014178352 0.017248714 0.016949482 1.0930588e-06 0.016674794 -7.4187294e-05 0.017197378
-0.006508254 1.5303847e-06 -0.025779905 0.004712591 -1.3014655e-05 0.022941941 0.006392325 5.036559e-06
1.6198213e-05 -0.0014279417 -3.0490455e-06 -0.010855816 0.015247251 -0.00022898051 -0.00827001 -2.2286051e-06
-0.013186008 0.009896571 -0.0011520725 -0.022345774 1.7756832e-06 0.010371682 0.022466589 -0.016914638
0.022779208 0.005972699 3.6252388e-06 0.0017521842 0.0034956636 0.0046865563 -2.5318357e-05 -0.013771035
0.017729562 -0.012747804 -1.1102903e-06 0.021666825 0.011283392 -0.015891282 2.0213015e-07 -0.0039189616
0.0061432016 -2.7173207e-06 -0.0030243583 0.002878661 -4.478228e-05 -1.7472628e-06 0.0028612344 0.013063916
4.6208355e-05 -0.01216867 -0.011186537 -0.0011230875 0.0037183908 0.013235365 0.003206831 -2.610508e-06
-0.0029528453 -0.01637115 0.023415785 0.009811449 3.4872954e-07 0.024011703 -0.010146521 0.022294711
6.8611344e-06 0.019863047 -3.9299716e-06 -5.038451e-07 -5.6007834e-06 -1.0625746e-05 3.736984e-07 0.00016018204
-0.012816081 -3.952226e-06 -2.6512896e-06 0.003037106 -0.006311219 -0.005847004 0.004701799 0.024945758
00000000: 90b6 2bbc b103 f63b 6e9b 3b38 5f26 943c
00000010: f574 3dbb e547 a0ba 03db c13a 799c 88bc
00000020: 7d36 84bc 3a6a 35ba 1fa7 41b8 9f6f c7bb
00000030: b2e5 e23b daf0 3b38 9f71 1bbc d0e1 b73b
00000040: ad2f 40bc d5da 77bc e789 e6bb e629 0b3c
00000050: b93c beb4 ae66 66bb 979a 26b7 2e4f 313c
00000060: a3d8 75bc e1e6 07b7 ba91 8cba 76fd f33b
00000070: a0ec b53c 4643 bdbc eb89 9b39 2abf ffbb
00000080: cd5f 2c38 579e 8bbb 662b 57b7 cb0d 6135
00000090: 2659 6a3b b94f 8c3c ec66 80b3 6496 28bc
000000a0: 09cd 09b8 1604 993b 39e4 aabc c977 853c
000000b0: 9c8d 8bbc 225d 2bbc 5c41 21bc 7319 b5bb
000000c0: f206 4b3a e8f3 97bb 320e 883c 5f44 793c
000000d0: b517 87b6 0022 bf3c 7fbe b7b4 3835 1cbc
000000e0: 996f 0db5 0605 58bc 2d12 a93c 0cf8 d335
000000f0: 45b9 5436 7686 96b5 a952 b3bb 6a45 a1bc
00000100: c67a 2938 f798 24bb 7d16 66b6 bfee 3c3c
00000110: bbfc 013a b8b4 bcbc aec3 b6bc 61b1 d337
00000120: cb2d 2737 0927 4ebc aeff bb3c 9dfb 4eb7
00000130: 9cd5 b436 b428 b0bc 979b c63c 9b2e 0ebc
00000140: 5603 b73c a380 10bc f4c5 b53c 2502 323c
00000150: e5cc af3c 0f6a 97bc 2c31 3539 9ef3 c93c
00000160: b63a cf3b 0b38 523c d104 8e3c 89e5 0534
00000170: 7fab f7b7 553a 9037 321d 97b6 9e99 a53b
00000180: f43b 84b4 7767 c7bc f414 c23c c7ea 85bc
00000190: 1976 05bc 99fa 4aba 4844 0e3a c055 c73a
000001a0: f8a7 1536 184d d4bb 0bc4 91bc 0765 493a
000001b0: 0329 0e3b 7fdd 3a3b d3a8 9fbb 238f 443c
000001c0: 47ca 46bc 7d51 013c f25b 77bc 52f5 b53a
000001d0: 67a7 3d38 380a d33c 090a a53c cca0 f337
000001e0: b0cd adba 7d2b 4cbb 5230 c8bc e163 1fb6
000001f0: 38ef c33a 903e 82ba ed2e 7435 2975 3fb8
00000200: 2616 81b6 3800 0438 2a3a a7bb 21be c636
00000210: dbdb d8bb 1be3 18bb de1d b63b 02d3 a4b9
00000220: 60fc 2436 d662 bfbc 0072 93bb e202 f63b
00000230: c69d aabc c126 16bb bdd6 32bc f5a7 ae3c
00000240: 6914 8239 de76 2fb5 8e27 b6bb d283 edbb
00000250: d5da 4f3a 2ed9 22bb fef1 3fb8 6055 ffba
00000260: 8b93 0b3c e5f2 ac3c aa28 ce3c bbd6 82bc
00000270: 7506 3b35 4a85 ad3c f7d4 6338 74fb f635
00000280: 5071 9fbc 3ccb df39 3419 c6bc 8406 293b
00000290: 51c0 a53c 14bd 5cb5 f9d7 06bb 1e01 18bc
000002a0: d8f9 953a a8d6 b93a 2d4d 8d3c a4d9 8a3c
000002b0: 37b5 9235 9499 883c 0095 9bb8 84e1 8c3c
000002c0: 3143 d5bb 9e67 cd35 6130 d3bc 146c 9a3b
000002d0: 8559 5ab7 bdf0 bb3c b576 d13b b6ff a836
000002e0: 66e1 8737 c629 bbba 349e 4cb6 98dc 31bc
000002f0: 9bcf 793c 7d1a 70b9 f07e 07bc 258f 15b6
00000300: 200a 58bc 3a25 223c 2301 97ba 7c0e b7bc
00000310: 0354 ee35 fded 293c da0b b83c 9190 8abc
00000320: 769b ba3c a1b6 c33b 2149 7336 8ca9 e53a
00000330: 8117 653b af91 993b c262 d4b7 e89f 61bc
00000340: 963d 913c 2adc 50bc 4905 95b5 a07e b13c
00000350: fadd 383c 6f2e 82bc 1d09 5934 a26a 80bb
00000360: e94c c93b 375b 36b6 5034 46bb eba7 3c3b
00000370: 9bd4 3bb8 7e83 eab5 8c83 3b3b 090a 563c
00000380: d8cf 4138 1a5f 47bc bd47 37bc 9034 93ba
00000390: 3fb0 733b 25d9 583c b229 523b 3030 2fb6
000003a0: 8684 41bb ca1c 86bc 76d2 bf3c 33c0 203c
000003b0: 0639 bb34 31b4 c43c 983d 26bc 66a3 b63c
000003c0: b238 e636 d4b7 a23c 33de 83b6 f93f 07b5
000003d0: 5dee bbb6 3b45 32b7 b8a0 c834 8af6 2739
000003e0: 8afa 51bc 5d9d 84b6 cfec 31b6 2f0a 473b
000003f0: 58ce cebb 3998 bfbb 8c11 9a3b 0c5b cc3c

root.left_child.left_child.gating.0.bias f4 [16]
-0.023444869 0.010416249 -0.022115188 6.8379572e-06 -0.02408204 2.1740523e-06 -3.8581267e-05 -1.5733915e-05
-0.00875819 -0.010607927 -0.024164883 1.8928437e-06 -5.443808e-06 0.00070834975 -8.771931e-06 3.1047843e-05
00000000: 740f c0bc eaa8 2a3c e92a b5bc 9b71 e536
00000010: b347 c5bc efe5 1136 52d2 21b8 53fc 83b7
00000020: 837e 0fbc dfcc 2dbc 6ff5 c5bc 9d0d fe35
00000030: f4a9 b6b6 8cb0 393a 282b 13b7 5e39 0238

root.left_child.left_child.gating.2.weight f4 [1, 16]
-0.12734082 0.13631162 0.003861949 0.092055775 -0.14127533 -0.21212117 -0.133176 0.04268011
-3.6357824e-06 0.016212318 0.055995442 0.0027424924 0.20184651 -0.19952232 0.0023594748 0.0731965
00000000: a265 02be 4695 0b3e c118 7d3b bd87 bc3d
00000010: 7baa 10be 4b36 59be 4a5f 08be 57d1 2e3d
00000020: 44fe 73b6 b2cf 843c 7a5b 653d 63bb 333b
00000030: dab0 4e3e 944f 4cbe 6ba1 1a3b 0ce8 953d

root.left_child.left_child.feature_selector.logit_phi f4 [437]
-0.024600241 -0.024600167 -0.02460011 -0.024600144 -0.02459997 -0.024600144 -0.024600122 -0.024600053
-0.024600005 -0.024600133 -0.02460025 -0.024600264 -0.024599886 -0.024600137 -0.024600131 -0.024600096
-0.0246002 -0.024600225 -0.024599904 -0.024600059 -0.024599878 -0.024600385 -0.024600271 -0.024600135
-0.024599895 -0.024599964 -0.02459991 -0.024600329 -0.024600297 -0.02460003 -0.024600098 -0.024599604
-0.024600016 -0.024600202 -0.024600038 -0.0246001 -0.02460001 -0.024600323 -0.02460013 -0.024600193
-0.02460016 -0.024600042 -0.024600105 -0.024600308 -0.024600089 -0.02460015 -0.024599982 -0.024600295
-0.024600308 -0.0246001 -0.024600152 -0.024600238 -0.024600133 -0.024599927 -0.0246001 -0.024599932
-0.024600187 -0.024599897 -0.024600392 -0.024600051 -0.024600275 -0.02460018 -0.024600059 -0.024599906
-0.0246 -0.02459982 -0.024599902 -0.02459998 -0.024600163 -0.024600258 -0.024600081 -0.024600012
-0.024599966 -0.024600133 -0.024599982 -0.024600014 -0.024600174 -0.02460007 -0.024600232 -0.024599938
-0.024600122 -0.024600156 -0.024600182 -0.024600098 -0.024600113 -0.024599876 -0.02460016 -0.024600115
-0.02460007 -0.024600102 -0.024600027 -0.024599912 -0.02460003 -0.024600105 -0.02460005 -0.024600074
-0.024599966 -0.02460004 -0.024600102 -0.024600245 -0.024600178 -0.024600027 -0.02460009 -0.024600025
-0.024600327 -0.024600167 -0.024600053 -0.024600359 -0.024600057 -0.024600198 -0.02460011 -0.024600035
-0.024600018 -0.024599994 -0.024599906 -0.02460002 -0.024600167 -0.024600139 -0.024600193 -0.024600096
-0.02460016 -0.02460001 -0.024599895 -0.02460016 -0.024600185 -0.024600267 -0.024600001 -0.024599971
-0.024599997 -0.024600131 -0.024600068 -0.024600167 -0.024600107 -0.024600102 -0.024600204 -0.024600254
-0.024599807 -0.024599962 -0.024599968 -0.024600048 -0.024600083 -0.024600206 -0.024599873 -0.02460018
-0.024600256 -0.024599997 -0.024600068 -0.02460012 -0.024600416 -0.024600139 -0.024600184 -0.024599975
-0.024600059 -0.024600178 -0.024600107 -0.024600107 -0.024600053 -0.024600089 -0.024600042 -0.024600146
-0.02460008 -0.024600057 -0.024600225 -0.024600165 -0.024600284 -0.02460007 -0.02460023 -0.024600124
-0.024600113 -0.024600113 -0.024600517 -0.02459993 -0.024599997 -0.024600092 -0.024600085 -0.02460015
-0.02459996 -0.024600001 -0.024599994 -0.024600025 -0.024600212 -0.024600286 -0.02460014 -0.024599966
-0.024600182 -0.024600228 -0.024600036 -0.024600213 -0.024600144 -0.024600113 -0.024600163 -0.024599941
-0.024600118 -0.024599938 -0.024600044 -0.02460009 -0.02460018 -0.02460014 -0.024600117 -0.024600156
-0.024600055 -0.024600126 -0.02460025 -0.0246002 -0.024600131 -0.024600081 -0.0246 -0.02460024
-0.024600087 -0.0246001 -0.024600072 -0.024599986 -0.02460013 -0.024600282 -0.02460005 -0.02460014
-0.02460021 -0.024600212 -0.024599949 -0.024600018 -0.024600059 -0.024599966 -0.024600059 -0.024600143
-0.024599865 -0.024599932 -0.024600195 -0.024600206 -0.02460022 -0.024600329 -0.024600288 -0.024600111
-0.024599874 -0.024600092 -0.024600247 -0.024600105 -0.024600327 -0.02460021 -0.024600185 -0.024600085
-0.024600368 -0.0245999 -0.024600266 -0.024600282 -0.024600128 -0.024599975 -0.024599936 -0.02460007
-0.024600009 -0.024599753 -0.024600225 -0.024599964 -0.02460012 -0.024600137 -0.02460017 -0.024600033
00000000: 7286 c9bc 4a86 c9bc 2b86 c9bc 3e86 c9bc
00000010: e085 c9bc 3e86 c9bc 3286 c9bc 0d86 c9bc
00000020: f385 c9bc 3886 c9bc 7786 c9bc 7e86 c9bc
00000030: b385 c9bc 3a86 c9bc 3786 c9bc 2486 c9bc
00000040: 5c86 c9bc 6986 c9bc bd85 c9bc 1086 c9bc
00000050: af85 c9bc bf86 c9bc 8286 c9bc 3986 c9bc
00000060: b885 c9bc dd85 c9bc c085 c9bc a186 c9bc
00000070: 9086 c9bc 0186 c9bc 2586 c9bc 1c85 c9bc
00000080: f985 c9bc 5d86 c9bc 0586 c9bc 2686 c9bc
00000090: f685 c9bc 9e86 c9bc 3686 c9bc 5886 c9bc
000000a0: 4686 c9bc 0786 c9bc 2986 c9bc 9686 c9bc
000000b0: 2086 c9bc 4186 c9bc e785 c9bc 8f86 c9bc
000000c0: 9686 c9bc 2686 c9bc 4286 c9bc 7086 c9bc
000000d0: 3886 c9bc c985 c9bc 2686 c9bc cc85 c9bc
000000e0: 5586 c9bc b985 c9bc c386 c9bc 0c86 c9bc
000000f0: 8486 c9bc 5186 c9bc 1086 c9bc be85 c9bc
00000100: f085 c9bc 9085 c9bc bc85 c9bc e685 c9bc
00000110: 4886 c9bc 7b86 c9bc 1c86 c9bc f785 c9bc
00000120: de85 c9bc 3886 c9bc e785 c9bc f885 c9bc
00000130: 4e86 c9bc 1686 c9bc 6d86 c9bc cf85 c9bc
00000140: 3286 c9bc 4486 c9bc 5286 c9bc 2586 c9bc
00000150: 2d86 c9bc ae85 c9bc 4686 c9bc 2e86 c9bc
00000160: 1686 c9bc 2786 c9bc ff85 c9bc c185 c9bc
00000170: 0186 c9bc 2986 c9bc 0b86 c9bc 1886 c9bc
00000180: de85 c9bc 0686 c9bc 2786 c9bc 7486 c9bc
00000190: 5086 c9bc ff85 c9bc 2186 c9bc fe85 c9bc
000001a0: a086 c9bc 4a86 c9bc 0d86 c9bc b186 c9bc
000001b0: 0f86 c9bc 5b86 c9bc 2b86 c9bc 0386 c9bc
000001c0: fa85 c9bc ed85 c9bc be85 c9bc fb85 c9bc
000001d0: 4a86 c9bc 3b86 c9bc 5886 c9bc 2486 c9bc
000001e0: 4686 c9bc f685 c9bc b885 c9bc 4686 c9bc
000001f0: 5486 c9bc 8086 c9bc f185 c9bc e185 c9bc
00000200: ef85 c9bc 3786 c9bc 1586 c9bc 4a86 c9bc
00000210: 2a86 c9bc 2786 c9bc 5e86 c9bc 7986 c9bc
00000220: 8985 c9bc dc85 c9bc df85 c9bc 0a86 c9bc
00000230: 1d86 c9bc 5f86 c9bc ac85 c9bc 5186 c9bc
00000240: 7a86 c9bc ef85 c9bc 1586 c9bc 3186 c9bc
00000250: d086 c9bc 3b86 c9bc 5386 c9bc e385 c9bc
00000260: 1086 c9bc 5086 c9bc 2a86 c9bc 2a86 c9bc
00000270: 0d86 c9bc 2086 c9bc 0786 c9bc 3f86 c9bc
00000280: 1b86 c9bc 0f86 c9bc 6986 c9bc 4986 c9bc
00000290: 8986 c9bc 1686 c9bc 6c86 c9bc 3386 c9bc
000002a0: 2d86 c9bc 2d86 c9bc 0687 c9bc cb85 c9bc
000002b0: ef85 c9bc 2286 c9bc 1e86 c9bc 4186 c9bc
000002c0: db85 c9bc f185 c9bc ed85 c9bc fe85 c9bc
000002d0: 6286 c9bc 8a86 c9bc 3c86 c9bc de85 c9bc
000002e0: 5286 c9bc 6b86 c9bc 0486 c9bc 6386 c9bc
000002f0: 3e86 c9bc 2d86 c9bc 4886 c9bc d185 c9bc
00000300: 3086 c9bc cf85 c9bc 0886 c9bc 2186 c9bc
00000310: 5186 c9bc 3c86 c9bc 2f86 c9bc 4486 c9bc
00000320: 0e86 c9bc 3486 c9bc 7786 c9bc 5c86 c9bc
00000330: 3786 c9bc 1c86 c9bc f085 c9bc 7186 c9bc
00000340: 1f86 c9bc 2686 c9bc 1786 c9bc e985 c9bc
00000350: 3686 c9bc 8886 c9bc 0b86 c9bc 3c86 c9bc
00000360: 6186 c9bc 6286 c9bc d585 c9bc fa85 c9bc
00000370: 1086 c9bc de85 c9bc 1086 c9bc 3d86 c9bc
00000380: a885 c9bc cc85 c9bc 5986 c9bc 5f86 c9bc
00000390: 6786 c9bc a186 c9bc 8b86 c9bc 2c86 c9bc
000003a0: ad85 c9bc 2286 c9bc 7586 c9bc 2986 c9bc
000003b0: a086 c9bc 6186 c9bc 5486 c9bc 1e86 c9bc
000003c0: b686 c9bc bb85 c9bc 7f86 c9bc 8886 c9bc
000003d0: 3586 c9bc e385 c9bc ce85 c9bc 1686 c9bc
000003e0: f585 c9bc 6c85 c9bc 6986 c9bc dd85 c9bc
000003f0: 3186 c9bc 3a86 c9bc 4c86 c9bc 0286 c9bc

root.left_child.left_child.local_expert.fc1.weight f4 [16, 437]
-0.044445895 -0.0007828636 -0.03368555 0.023473298 0.046306346 0.013349133 0.04422041 -0.05000185
0.012456946 0.01749853 0.033507112 -0.034100156 0.033988945 0.036884334 0.015289527 -0.022223575
0.04266899 -0.008445858 0.029087288 -0.030465422 -0.03418533 0.044616245 -0.027817165 -0.0032745495
0.037902445 0.012835832 -0.013816644 -0.02734929 0.0026815285 0.039366584 0.024532 0.010114231
0.037748225 0.00435818 -0.031692512 0.030443987 -0.007354135 -0.030405989 0.025253952 0.0050058276
0.0065173847 0.03284981 0.012811837 -0.012320713 -0.034115862 0.010866145 0.03159583 -0.018201672
0.0017277034 0.039854944 -0.021827124 0.030796964 0.027023347 0.0021434808 -0.017165046 0.008651151
-0.014219264 -0.00651424 0.0253881 -0.003830288 0.025351156 0.041803803 0.039527666 -0.03273572
-0.018683784 0.04692213 -0.027662065 0.03333866 0.0092923315 0.0014584478 0.014613695 0.04100822
0.029126883 0.04253052 -0.004184048 0.032379396 0.015280597 0.002290016 0.033725724 0.040333766
-0.034692746 -0.04028737 -0.025054555 -0.014044962 -0.04354322 -0.026349904 -0.04157689 0.0015302652
0.009950807 -0.03478475 0.032503862 -0.021897124 -0.039208204 0.0109988805 0.015630856 -0.04430503
-0.0077158147 0.012148008 0.02211792 -0.036971495 0.031477626 0.04526836 0.017900972 0.022222636
0.044421904 0.00717313 -0.028758194 0.018080885 -0.036474027 -0.015000276 0.027214462 0.045029223
-0.005568073 0.030568847 0.04499176 0.013274153 -0.012004271 0.021998268 -0.03738233 -0.012425835
0.010486033 0.032756194 -0.01933714 -0.041719016 0.037820008 -0.03999089 -0.034444656 0.045292776
-0.006091051 -0.018739028 0.0074668378 -0.026401805 0.0342751 0.034594614 -0.03993262 -0.008588384
-0.02672572 0.027108569 0.018097585 0.037682645 -0.008263586 0.0313188 -0.045856718 0.023115834
-0.019641835 -0.04306897 -0.011820545 -0.03369068 -0.0061342404 -0.0018784748 -0.03139246 -0.021310056
0.021091813 0.0029248744 0.00071397354 0.022304347 -0.017489761 -0.0072953356 -0.042654466 -0.016309911
-0.020966979 0.0156189175 0.022782132 0.00049920735 0.010042529 0.03143216 -0.024726689 -0.043304466
0.035092242 0.003858349 -0.03482143 -0.0130274175 0.02471996 0.013637482 0.04152319 0.034158014
-0.008832864 0.013986726 -0.04634111 -0.025486296 0.029178178 0.023901124 -0.029123405 -0.012756066
0.010095907 -0.03183617 -0.016962312 0.0052239825 -0.038842976 0.020822592 -0.023940716 0.025086068
0.030081838 0.0331941 0.0030869097 0.028746687 0.0468046 0.006279974 0.016940199 0.0145212
-0.033815794 0.0114121195 0.026186228 0.0056320946 0.0071918196 -0.038306795 -0.018905127 -0.044831514
-0.003479973 0.031266633 0.030360846 0.011944556 -0.039471783 -0.0013703797 0.0052477126 0.029054264
0.0032459053 0.04457839 -0.04556827 0.028421205 0.00020278386 -0.026408587 -0.011788404 -0.022801476
-0.010676098 0.03779632 -0.0299101 -0.04493894 -0.034108497 -0.034320958 0.042332936 -0.04741316
0.0264506 -0.0070675546 -0.003018654 0.016887734 0.0048128897 0.005704999 0.035534307 0.0070862584
0.043260407 -0.019343847 0.0030620582 -0.00197691 0.012802321 -0.025926633 -0.025506439 -0.006410379
0.0114431335 -0.04423981 0.0037962424 0.04899865 0.045556035 0.039211176 0.026360497 -0.0049750875
00000000: e60c 36bd 1639 4dba dcf9 09bd 134b c03c
00000010: b9ab 3d3d 52b6 5a3c 7620 353d bdce 4cbd
00000020: 3818 4c3c 1459 8f3c c13e 093d 9bac 0bbd
00000030: fe37 0b3d 0714 173d ed80 7a3c 370e b6bc
00000040: aec5 2e3d 7f60 0abc 7748 ee3c 9f92 f9bc
00000050: eb05 0cbd 86bf 363d d3e0 e3bc d399 56bb
00000060: 983f 1b3d 624d 523c 355f 62bc 9e0b e0bc
00000070: 95bc 2f3b db3e 213d 55f7 c83c 29b6 253c
00000080: e29d 1a3d 10cf 8e3b 02d0 01bd ab65 f93c
00000090: f5fa f0bb fb15 f9bc 60e1 ce3c ed07 a43b
000000a0: c98f d53b 868d 063d bde8 513c d1dc 49bc
000000b0: 13bd 0bbd ea07 323c a16a 013d ac1b 95bc
000000c0: 1b74 e23a f03e 233d ccce b2bc ea49 fc3c
000000d0: 1160 dd3c a479 0c3b b69d 8cbc 8fbd 0d3c
000000e0: eaf7 68bc 6875 d5bb b4fa cf3c 9205 7bbb
000000f0: 3aad cf3c 773a 2b3d c3e7 213d e415 06bd
00000100: bc0e 99bc 6b31 403d 8e9b e2bc 1e8e 083d
00000110: dd3e 183c 6329 bf3a 486e 6f3c 3cf8 273d
00000120: 809b ee3c 7c34 2e3d 571a 89bb 42a0 043d
00000130: 785b 7a3c 1814 163b fc23 0a3d 0535 253d
00000140: fb19 0ebd 5f04 25bd 363f cdbc d71c 66bc
00000150: 605a 32bd c1db d7bc 874c 2abd 2e93 c83a
00000160: b608 233c 747a 0ebd c522 053d 9961 b3bc
00000170: c898 20bd a634 343c 480c 803c 3179 35bd
00000180: f2d4 fcbb 7008 473c a430 b53c 6c6f 17bd
00000190: afee 003d 516b 393d 0fa5 923c 3f0c b63c
000001a0: bef3 353d 930c eb3b 4e96 ebbc 5d1e 943c
000001b0: ca65 15bd b8c3 75bc ddf0 de3c 9070 383d
000001c0: 6274 b6bb 856b fa3c 4849 383d d57b 593c
000001d0: 90ad 44bc b635 b43c 371e 19bd bb95 4bbc
000001e0: 9ccd 2b3c 5c2b 063d ec68 9ebc 8fe1 2abd
000001f0: 27e9 1a3d 7dcd 23bd d715 0dbd eb84 393d
00000200: 7097 c7bb 9782 99bc 60ac f43b 9948 d8bc
00000210: 0c64 0c3d 15b3 0d3d 6390 23bd 4bb6 0cbc
00000220: e6ef dabc ca12 de3c 6341 943c 1e59 1a3d
00000230: fe63 07bc 2448 003d 41d4 3bbd 6b5d bd3c
00000240: eae7 a0bc 1769 30bd f6aa 41bc 3dff 09bd
00000250: bd01 c9bb 2837 f6ba 6195 00bd 6d92 aebc
00000260: bdc8 ac3c 40af 3f3b f429 3b3a 9bb7 b63c
00000270: b046 8fbc b60d efbb 73b6 2ebd 5d9c 85bc
00000280: f1c2 abbc 7de6 7f3c 98a1 ba3c 3ddd 023a
00000290: 6b89 243c 02bf 003d a08f cabc 0660 31bd
000002a0: e2bc 0f3d 5bdc 7c3b eaa0 0ebd f370 55bc
000002b0: 8381 ca3c bf6f 5f3c 3814 2a3d 46e9 0b3d
000002c0: b8b7 10bc 9528 653c 2dd0 3dbd a3c8 d0bc
000002d0: 1307 ef3c 4acc c33c 3594 eebc d2fe 50bc
000002e0: 4e69 253c a566 02bd 8cf4 8abc f12d ab3b
000002f0: d019 1fbd 2494 aa3c 521f c4bc 4c81 cd3c
00000300: 306e f63c 89f6 073d c04d 4a3b 2c7e eb3c
00000310: 2eb6 3f3d 3dc8 cd3b 2cc6 8a3c 54ea 6d3c
00000320: 6e82 0abd e6f9 3a3c 8084 d63c 6f8d b83b
00000330: 5ba9 eb3b 96e7 1cbd edde 9abc 40a1 37bd
00000340: 4210 64bb 7111 003d 4fb7 f83c 19b3 433c
00000350: 2aad 21bd 509e b3ba 01f5 ab3b 3503 ee3c
00000360: 41b9 543b d497 363d cba5 3abd 96d3 e83c
00000370: 61a2 5439 d256 d8bc 2624 41bc 29ca babc
00000380: cdea 2ebc 50d0 1a3d 0706 f5bc e511 38bd
00000390: 5ab5 0bbd 2294 0cbd 4d65 2d3d 4d34 42bd
000003a0: eeae d83c f296 e7bb 9cd4 45bb 2558 8a3c
000003b0: 72b5 9d3b 00f1 ba3b 6c8c 113d d833 e83b
000003c0: d331 313d fd76 9ebc d0ac 483b 0c8f 01bb
000003d0: d4c0 513c 1764 d4bc e1f2 d0bc 280e d2bb
000003e0: fb7b 3b3c ce34 35bd 61ca 783b cfb2 483d
000003f0: f798 3a3d e69b 203d f8f1 d73c 0f06 a3bb

root.left_child.left_child.local_expert.fc1.bias f4 [16]
-0.032806657 0.032570407 0.037307806 0.009725664 0.036708415 -0.042267498 -0.020341946 0.0016985276
-0.016656421 -0.028725257 0.041971106 0.032630302 -0.0111274235 -0.031513207 -0.026913209 -0.008935415
00000000: 4660 06bd 8c68 053d 12d0 183d 6458 1f3c
00000010: 905b 163d af20 2dbd 27a4 a6bc 21a1 de3a
00000020: 0c73 88bc 3b51 ebbc e5e9 2b3d 5aa7 053d
00000030: cc4f 36bc fe13 01bd 1779 dcbc d965 12bc

root.left_child.left_child.local_expert.fc2.weight f4 [2, 16]
-0.03995116 0.17313662 -0.10135552 -0.0838696 -0.06473203 -0.14702946 -0.248765 -0.1143805
0.030126588 -0.19249481 -0.02000489 0.07532284 0.02385248 0.16986473 0.031514663 0.031388324
-0.043399148 -0.10424207 -0.0522407 0.22560321 0.027605612 0.2224423 -0.20398532 -0.030684805
-0.23388064 0.0525338 -0.061339404 -0.10996095 0.15426622 0.12952851 0.22837584 0.05589267
00000000: d4a3 23bd ba4a 313e 7c93 cfbd d3c3 abbd
00000010: 3a92 84bd e48e 16be 41bc 7ebe 5340 eabd
00000020: 09cc f63c 5c1d 45be 4ce1 a3bc dc42 9a3d
00000030: 4766 c33c 05f1 2d3e 8515 013d 0b91 003d
00000040: 4ec3 31bd de7c d5bd 58fa 55bd 8704 673e
00000050: 2a25 e23c eac7 633e 87e1 50be b35e fbbc
00000060: 687e 6fbe af2d 573d 073f 7bbd 3533 e1bd
00000070: f7f7 1d3e 1fa3 043e 5bdb 693e b6ef 643d

root.left_child.left_child.local_expert.fc2.bias f4 [2]
-0.24487767 0.17931637
00000000: 36c1 7abe b69e 373e

root.left_child.right_child.gating.0.weight f4 [16, 437]
0.01642885 -0.017810699 -0.015492381 -0.00022567058 0.003923497 0.012448501 9.7194525e-06 0.019288668
1.2437131e-05 0.0001383467 2.4648639e-06 -0.018773062 -0.020397002 -6.519085e-06 0.01727786 0.004744885
0.022878645 0.0016610208 -0.0011630597 0.010183112 1.5760359e-05 0.012945665 -0.021962509 0.019594919
-0.00904002 -0.009133989 0.0056343717 1.12985335e-05 0.0021141688 0.0049335435 0.004570952 0.013500708
0.00071915216 0.0009760968 -2.2198278e-06 -0.00238789 -0.0065315166 -0.018730512 0.005290002 5.517391e-06
-5.7614975e-06 8.454702e-06 0.01709082 -0.025385749 -0.006713581 -0.01304989 0.00026835856 -0.00017344432
3.2046144e-05 3.4893076e-06 -0.0077241617 -4.235974e-05 -3.254031e-05 0.00041234604 3.9257093e-06 6.4673936e-06
0.016929658 0.01968776 -1.8912873e-06 -0.016108654 0.0035508054 3.301074e-06 0.013364767 -1.041248e-06
-0.014007949 -4.105407e-05 0.0065414323 0.014297415 0.001018993 -0.02474611 8.068219e-06 -4.2782824e-05
-0.017718444 -4.0573104e-05 -0.007502673 0.0109115355 -0.007917812 0.0010079197 0.011681032 2.4825283e-07
5.674151e-06 0.00026004316 0.02482958 -0.0073290034 -0.0035131727 -0.022425963 -0.0007571831 -0.017154992
7.0942064e-05 9.53964e-06 -3.4320817e-06 4.567232e-06 0.025458563 -0.02128243 -1.3130807e-06 0.023311963
-4.3702285e-06 -0.017220218 0.022168556 0.0070978086 0.016992941 0.0034422628 -4.545827e-06 -4.011958e-05
0.014402415 -0.0190293 -0.007988624 -0.012115568 0.022021284 0.0066384478 3.099626e-06 0.018911738
-0.005079565 -0.011776391 0.021330953 -0.0051890407 -0.006876346 0.007224217 -0.010022689 0.004010376
0.0012609593 0.024539467 -1.0496007e-06 0.012520177 -0.014068308 0.0032637494 -0.012246777 -0.023048926
0.003922112 3.5692979e-06 -0.0024807728 -0.004413039 0.014692294 4.38798e-05 -5.6616254e-06 -0.018894842
0.012185609 -1.8646185e-06 -1.6237917e-06 -0.0016618082 -0.011633158 0.023432681 2.4445453e-05 -0.016067842
0.01182909 0.0011546769 -0.003236784 -0.017999897 0.0096617155 -0.001634215 -0.023285553 -0.010389957
-3.1309798e-06 5.189794e-06 0.013866124 0.01307103 0.012971021 -0.019544374 0.0075876927 8.017927e-06
0.00030164424 0.008355618 0.011751276 -0.023907531 0.019863999 0.011128154 -0.0056911223 3.0930312e-07
0.0040262034 0.021112215 6.9398634e-06 0.00039813365 9.505721e-06 0.00040610213 8.632902e-06 -0.007476114
-0.012763204 0.01749298 -1.2161215e-07 3.2276953e-06 -0.017458308 -0.025229596 -2.95163e-06 0.0150616085
3.071991e-05 -0.008421055 3.2139958e-06 -0.024880748 -2.9268751e-06 -0.0148475645 1.010786e-06 -0.022480432
-0.011665878 2.7362032e-05 -4.3714972e-05 -0.017745946 0.00063698145 -1.9190575e-06 0.0034173348 -0.0030903518
0.011986632 -0.011838683 0.005313635 -0.014923464 -1.3939299e-06 -0.0074395966 -0.02317681 -0.001172071
-4.2418182e-07 -0.0068386877 0.0014104018 0.002756781 -0.0017560261 -0.016307576 -0.00063568 4.488807e-05
0.008980155 0.02428643 0.021258332 -0.018611303 0.012836155 3.3341603e-06 0.00067503884 0.021824613
0.0057825497 -7.4929885e-06 1.5936066e-06 -0.022257514 -0.0052314545 -0.0026319218 0.02410281 -0.021569943
0.00134888 -9.67216e-07 -0.025478493 0.0011420802 -0.00010619071 3.8874105e-06 -5.5725914e-06 8.901582e-06
9.9169065e-06 0.00016989697 0.013781322 0.021806294 -0.021514593 0.0019119579 2.820968e-06 0.0077607445
0.016260736 0.0005608618 0.024991296 -0.0056501534 0.025184996 -0.018476803 -0.0004090087 5.4769623e-07
00000000: cc95 863c bee7 91bc c1d3 7dbc fca1 6cb9
00000010: ae90 803b ccf4 4b3c bb10 2337 4503 9e3c
00000020: 12a9 5037 2911 1139 0a6a 2536 f7c9 99bc
00000030: 9d17 a7bc 84be dab6 4c8a 8d3c fb7a 9b3b
00000040: ff6b bb3c 9cb6 d93a cf71 98ba 11d7 263c
00000050: 1d35 8437 0e1a 543c b8ea b3bc 8685 a03c
00000060: 981c 14bc baa6 15bc 89a0 b83b d58e 3d37
00000070: de8d 0a3b 90a9 a13b edc7 953b 1332 5d3c
00000080: 7c85 3c3a bfe0 7f3a 5af8 14b6 257e 1cbb
00000090: 5506 d6bb bb70 99bc c157 ad3b 0722 b936
000000a0: e352 c1b6 abd8 0d37 0c02 8c3c c6f5 cfbc
000000b0: 99fd dbbb 35cf 55bc 7ab2 8c39 9bde 35b9
000000c0: 4969 0638 d929 6a36 f71a fdbb 6dab 31b8
000000d0: e47b 08b8 2630 d839 96b9 8336 7d02 d936
000000e0: 11b0 8a3c 3a48 a13c 23d8 fdb5 4cf6 83bc
000000f0: a1b4 683b 0588 5d36 e5f7 5a3c 02c1 8bb5
00000100: 9981 65bc 7931 2cb8 8359 d63b b43f 6a3c
00000110: bb8f 853a 5bb8 cabc bd5c 0737 b571 33b8
00000120: 4526 91bc 0a2d 2ab8 fcd8 f5bb 4cc6 323c
00000130: b6b9 01bc 2c1c 843a cd61 3f3c 9c47 8534
00000140: 9664 be36 6756 8839 6767 cb3c 2328 f0bb
00000150: 423d 66bb a7b6 b7bc b37d 46ba a088 8cbc
00000160: bbc6 9438 710c 2037 b752 66b6 3940 9936
00000170: 7a8e d03c 7e58 aebc 1c3d b0b5 bbf8 be3c
00000180: faa3 92b6 6a11 8dbc d59a b53c bc94 e83b
00000190: c834 8b3c 9697 613b 5b88 98b6 1246 28b8
000001a0: 1bf8 6b3c 56e3 9bbc b8e2 02bc 6080 46bc
000001b0: fb65 b43c 5687 d93b 2b03 5036 caec 9a3c
000001c0: 7b72 a6bb c4f1 40bc 40be ae3c d408 aabb
000001d0: f952 e1bb 20b9 ec3b 3436 24bc 7969 833b
000001e0: c646 a53a fe06 c93c 01e0 8cb5 6e21 4d3c
000001f0: c37e 66bc a1e4 553b b5a6 48bc 1ad1 bcbc
00000200: 0f85 803b 1288 6f36 7694 22bb 419b 90bb
00000210: f3b7 703c 940b 3838 fef8 bdb6 5bc9 9abc
00000220: 26a6 473c ce43 fab5 0ff1 d9b5 08d1 d9ba
00000230: 0099 3ebc e5f5 bf3c 3610 cd37 b5a0 83bc
00000240: cdce 413c 8758 973a 3920 54bb 8574 93bc
00000250: 2c4c 1e3c 2833 d6ba 58c1 bebc a33a 2abc
00000260: d31d 52b6 fe23 ae36 bd2e 633c e027 563c
00000270: 6884 543c 861b a0bc 2ea2 f83b bc84 0637
00000280: 0126 9e39 01e6 083c 6d88 403c bad9 c3bc
00000290: d3b9 a23c dc52 363c 987c babb 4c0e a634
000002a0: 3eee 833b 86f3 ac3c f9dc e836 98bc d039
000002b0: c37a 1f37 1bea d439 08d6 1037 31fa f4bb
000002c0: c21c 51bc 704d 8f3c 7e94 02b4 629b 5836
000002d0: ba04 8fbc 4cae cebc 9e14 46b6 f7c4 763c
000002e0: 41d9 0038 77f8 09bc 07b0 5736 b6d2 cbbc
000002f0: 556b 44b6 3343 73bc 58aa 8735 e228 b8bc
00000300: 3d22 3fbc 8487 e537 985a 37b8 f25f 91bc
00000310: 1afb 263a 28c9 00b6 5df5 5f3b 8087 4abb
00000320: 9463 443c 09f7 41bc 001e ae3b 8b81 74bc
00000330: 1117 bbb5 dcc7 f3bb 4bdd bdbc 2da0 99ba
00000340: 1bbb e3b4 1217 e0bb 3bdd b83a 1cab 343b
00000350: 752a e6ba 7797 85bc c3a3 26ba 3346 3c38
00000360: 8021 133c 56f4 c63c f425 ae3c bb76 98bc
00000370: bc4e 523c 70c0 5f36 17f5 303a 88c9 b23c
00000380: 8b7b bd3b 486c fbb6 e8e3 d535 6455 b6bc
00000390: 9f6c abbb 527c 2cbb 4273 c53c 73b3 b0bc
000003a0: e7cc b03a 4ad1 81b5 46b8 d0bc dab1 953a
000003b0: b4b2 deb8 9a70 8236 32fc bab6 0158 1537
000003c0: ca60 2637 5f26 3239 0ecb 613c 1da3 b23c
000003d0: 5f3f b0bc a99a fa3a dc4f 3d36 d84d fe3b
000003e0: 3c35 853c cc06 133a 8cba cc3c ec24 b9bb
000003f0: c450 ce3c aa5c 97bc 3870 d6b9 6605 1335

root.left_child.right_child.gating.0.bias f4 [16]
-0.0064459844 -0.0021503777 -0.0229777 0.008226791 -4.5939698e-05 0.0015826435 -7.7190625e-06 -0.004906838
-0.010358117 -0.0027145373 0.011340115 0.005502634 0.022995692 -0.005288 0.016004533 0.0009588161
00000000: d638 d3bb 5aed 0cbb bb3b bcbc aac9 063c
00000010: 60af 40b8 b470 cf3a 1f81 01b7 8ac9 a0bb
00000020: 17b5 29bc 61e6 31bb e4cb 393c 714f b43b
00000030: 7661 bc3c f646 adbb f01b 833c 0f59 7b3a

root.left_child.right_child.gating.2.weight f4 [1, 16]
-0.12725271 0.12921034 -0.21582612 -0.04149882 0.12448867 0.15037324 0.19152036 -0.19910726
0.014410548 0.15350024 -0.07122884 0.10284521 0.17298463 -0.06882691 -0.18372339 0.16705413
00000000: 894e 02be b74f 043e 8601 5dbe abfa 29bd
00000010: eaf3 fe3d 71fb 193e ea1d 443e c6e2 4bbe
00000020: 381a 6c3c 2b2f 1d3e 6de0 91bd 82a0 d23d
00000030: e222 313e 1ff5 8cbd fc21 3cbe 3d10 2b3e

root.left_child.right_child.feature_selector.logit_phi f4 [437]
-0.024599934 -0.02460013 -0.024600126 -0.0246001 -0.024599858 -0.02460012 -0.02460017 -0.02460024
-0.024600027 -0.024599997 -0.024600329 -0.02460013 -0.02460039 -0.024600128 -0.024600018 -0.024600128
-0.02460023 -0.024600076 -0.024600018 -0.024600262 -0.024599994 -0.024599994 -0.024600035 -0.024600154
-0.024600087 -0.024600111 -0.024600178 -0.024600059 -0.02460001 -0.024600064 -0.024600212 -0.024600018
-0.02460012 -0.02460003 -0.024600303 -0.024599986 -0.02460022 -0.024600076 -0.024600059 -0.024600197
-0.024599971 -0.02460012 -0.024600139 -0.024600048 -0.024600271 -0.0246002 -0.024600213 -0.024600124
-0.02460016 -0.024600241 -0.024600167 -0.024600133 -0.024600308 -0.024600085 -0.024599839 -0.024600128
-0.024600191 -0.024600046 -0.024600185 -0.024599932 -0.024599986 -0.024599986 -0.024600059 -0.024599984
-0.024599984 -0.024600038 -0.02459997 -0.024600288 -0.024599975 -0.024599917 -0.024600323 -0.024600126
-0.02460012 -0.024600219 -0.024600206 -0.024600139 -0.024600077 -0.024600167 -0.024600068 -0.024600174
-0.024600158 -0.024599865 -0.024600271 -0.024600122 -0.024600433 -0.024600103 -0.024600323 -0.024599971
-0.024599923 -0.02460006 -0.024600094 -0.024599984 -0.024600156 -0.024600253 -0.024600273 -0.024600139
-0.024600096 -0.024600051 -0.024600241 -0.02459994 -0.02459991 -0.024600161 -0.02460011 -0.024600012
-0.024600212 -0.024600117 -0.024600314 -0.024600068 -0.024599986 -0.024600185 -0.024599947 -0.024600092
-0.02460018 -0.024600226 -0.024600133 -0.02460013 -0.024599837 -0.02460008 -0.024600033 -0.024599934
-0.024600206 -0.024600131 -0.024600172 -0.024599776 -0.024600118 -0.02460022 -0.024599994 -0.024600107
-0.02460009 -0.024600273 -0.024600025 -0.02459993 -0.024599953 -0.024600016 -0.024600387 -0.024600033
-0.024600103 -0.024599968 -0.02460023 -0.024600172 -0.024600076 -0.024600128 -0.024600178 -0.02460015
-0.024600316 -0.02460009 -0.024600279 -0.024599874 -0.024600245 -0.024600081 -0.024600076 -0.02460008
-0.024600001 -0.024600158 -0.024600076 -0.024600022 -0.024600279 -0.024600143 -0.024599992 -0.024600115
-0.024600219 -0.02460013 -0.02460009 -0.024600148 -0.024600348 -0.024600087 -0.024600139 -0.024600089
-0.02460023 -0.024600053 -0.024600396 -0.024600487 -0.024600161 -0.024600124 -0.0246001 -0.024600258
-0.024600064 -0.024599912 -0.024599968 -0.024600169 -0.024600059 -0.02459996 -0.024600105 -0.024600236
-0.024600124 -0.024600009 -0.024600122 -0.02459991 -0.02460004 -0.024600223 -0.024600165 -0.024600007
-0.024600077 -0.024599977 -0.024600161 -0.024600156 -0.02459992 -0.024599941 -0.024600128 -0.024600333
-0.024600184 -0.024600131 -0.024600063 -0.024600178 -0.024600208 -0.024600087 -0.024599984 -0.02460008
-0.024600204 -0.024600009 -0.024600375 -0.024600234 -0.024600172 -0.02460019 -0.024599854 -0.024600074
-0.024600118 -0.024600005 -0.024600197 -0.024599712 -0.024600152 -0.024600085 -0.02460025 -0.0246
-0.024600165 -0.024600128 -0.024600178 -0.02459997 -0.024600046 -0.024600105 -0.024599908 -0.024599928
-0.024600424 -0.024599941 -0.024600225 -0.02460032 -0.024600066 -0.024600005 -0.024600059 -0.02460006
-0.02460021 -0.02460035 -0.024600096 -0.024600001 -0.024600077 -0.024600094 -0.024600245 -0.02460018
-0.024600178 -0.024599973 -0.024600044 -0.024599861 -0.02459998 -0.02460001 -0.024600472 -0.02460013
00000000: cd85 c9bc 3686 c9bc 3486 c9bc 2686 c9bc
00000010: a485 c9bc 3186 c9bc 4c86 c9bc 7186 c9bc
00000020: ff85 c9bc ef85 c9bc a186 c9bc 3686 c9bc
00000030: c286 c9bc 3586 c9bc fa85 c9bc 3586 c9bc
00000040: 6c86 c9bc 1986 c9bc fa85 c9bc 7d86 c9bc
00000050: ed85 c9bc ed85 c9bc 0386 c9bc 4386 c9bc
00000060: 1f86 c9bc 2c86 c9bc 5086 c9bc 1086 c9bc
00000070: f685 c9bc 1386 c9bc 6286 c9bc fa85 c9bc
00000080: 3186 c9bc 0186 c9bc 9386 c9bc e985 c9bc
00000090: 6786 c9bc 1986 c9bc 1086 c9bc 5a86 c9bc
000000a0: e185 c9bc 3186 c9bc 3b86 c9bc 0a86 c9bc
000000b0: 8286 c9bc 5c86 c9bc 6386 c9bc 3386 c9bc
000000c0: 4686 c9bc 7286 c9bc 4a86 c9bc 3886 c9bc
000000d0: 9686 c9bc 1e86 c9bc 9a85 c9bc 3586 c9bc
000000e0: 5786 c9bc 0986 c9bc 5486 c9bc cc85 c9bc
000000f0: e985 c9bc e985 c9bc 1086 c9bc e885 c9bc
00000100: e885 c9bc 0586 c9bc e085 c9bc 8b86 c9bc
00000110: e385 c9bc c485 c9bc 9e86 c9bc 3486 c9bc
00000120: 3186 c9bc 6686 c9bc 5f86 c9bc 3b86 c9bc
00000130: 1a86 c9bc 4a86 c9bc 1586 c9bc 4e86 c9bc
00000140: 4586 c9bc a885 c9bc 8286 c9bc 3286 c9bc
00000150: d986 c9bc 2886 c9bc 9e86 c9bc e185 c9bc
00000160: c785 c9bc 1186 c9bc 2386 c9bc e885 c9bc
00000170: 4486 c9bc 7886 c9bc 8386 c9bc 3b86 c9bc
00000180: 2486 c9bc 0c86 c9bc 7286 c9bc d085 c9bc
00000190: c085 c9bc 4786 c9bc 2b86 c9bc f785 c9bc
000001a0: 6286 c9bc 2f86 c9bc 9986 c9bc 1586 c9bc
000001b0: e985 c9bc 5486 c9bc d485 c9bc 2286 c9bc
000001c0: 5186 c9bc 6a86 c9bc 3886 c9bc 3686 c9bc
000001d0: 9985 c9bc 1b86 c9bc 0286 c9bc cd85 c9bc
000001e0: 5f86 c9bc 3786 c9bc 4d86 c9bc 7885 c9bc
000001f0: 3086 c9bc 6786 c9bc ed85 c9bc 2a86 c9bc
00000200: 2186 c9bc 8386 c9bc fe85 c9bc cb85 c9bc
00000210: d785 c9bc f985 c9bc c086 c9bc 0286 c9bc
00000220: 2886 c9bc df85 c9bc 6c86 c9bc 4d86 c9bc
00000230: 1986 c9bc 3586 c9bc 5086 c9bc 4186 c9bc
00000240: 9a86 c9bc 2186 c9bc 8686 c9bc ad85 c9bc
00000250: 7486 c9bc 1c86 c9bc 1986 c9bc 1b86 c9bc
00000260: f185 c9bc 4586 c9bc 1986 c9bc fc85 c9bc
00000270: 8686 c9bc 3d86 c9bc ec85 c9bc 2e86 c9bc
00000280: 6686 c9bc 3686 c9bc 2186 c9bc 4086 c9bc
00000290: ab86 c9bc 1f86 c9bc 3b86 c9bc 2086 c9bc
000002a0: 6c86 c9bc 0d86 c9bc c586 c9bc f686 c9bc
000002b0: 4786 c9bc 3386 c9bc 2686 c9bc 7b86 c9bc
000002c0: 1386 c9bc c185 c9bc df85 c9bc 4b86 c9bc
000002d0: 1086 c9bc db85 c9bc 2986 c9bc 6f86 c9bc
000002e0: 3386 c9bc f585 c9bc 3286 c9bc c085 c9bc
000002f0: 0686 c9bc 6886 c9bc 4986 c9bc f485 c9bc
00000300: 1a86 c9bc e485 c9bc 4786 c9bc 4486 c9bc
00000310: c585 c9bc d185 c9bc 3586 c9bc a386 c9bc
00000320: 5386 c9bc 3786 c9bc 1286 c9bc 5086 c9bc
00000330: 6086 c9bc 1f86 c9bc e885 c9bc 1b86 c9bc
00000340: 5e86 c9bc f585 c9bc ba86 c9bc 6e86 c9bc
00000350: 4d86 c9bc 5686 c9bc a285 c9bc 1886 c9bc
00000360: 3086 c9bc f385 c9bc 5a86 c9bc 5685 c9bc
00000370: 4286 c9bc 1e86 c9bc 7786 c9bc f085 c9bc
00000380: 4986 c9bc 3586 c9bc 5086 c9bc e085 c9bc
00000390: 0986 c9bc 2986 c9bc bf85 c9bc ca85 c9bc
000003a0: d486 c9bc d185 c9bc 6986 c9bc 9c86 c9bc
000003b0: 1486 c9bc f385 c9bc 1086 c9bc 1186 c9bc
000003c0: 6186 c9bc ac86 c9bc 2486 c9bc f185 c9bc
000003d0: 1a86 c9bc 2386 c9bc 7486 c9bc 5186 c9bc
000003e0: 5086 c9bc e285 c9bc 0886 c9bc a685 c9bc
000003f0: e685 c9bc f685 c9bc ee86 c9bc 3686 c9bc
