checkpoints/trial_1_alpha1.273_beta0.135_lr0.003depth1_mlpTrue_hdim16/checkpoint.pth (torch, 182434 bytes, 15 tensors)

root.gating.0.weight f4 [64, 437]
000000 04 76 8f 3b 29 a1 67 3b d6 16 b0 3b 19 e6 58 3c
       0.004378082 0.0035343862 0.005373816 0.013238453
000010 51 1d 5c bc e1 e8 a5 3b 03 cd 3e 3a e6 62 80 3b
       -0.013434724 0.0050631617 0.0007278474 0.0039180396
000020 15 5e 42 3a 42 24 79 bc 63 d5 e6 bb 0c 3f fb 3a
       0.0007414532 -0.015206398 -0.0070444806 0.001916857
000030 6d 87 b0 39 b1 bb 20 bc 9b d3 fc ba e8 c6 93 bb
       0.00033670236 -0.009810374 -0.0019289138 -0.0045097955
000040 68 89 68 3c 1d de 32 3b 6e cc 59 3b 49 57 3e ba
       0.014192916 0.0027293034 0.0033233422 -0.00072609313
000050 c6 3c c4 b9 7d 5d 4b bb 1d bc 5f 3b 38 47 aa ba
       -0.00037429313 -0.0031031065 0.0034139224 -0.0012991196
000060 7c 94 ab bc f2 7e 30 bc 50 c7 4e bc 78 dc 17 3b
       -0.020944826 -0.010772454 -0.012620762 0.002317218
000070 87 d8 34 3b 4b 91 8c b9 80 9b 47 3b ba 97 55 bc
       0.002759488 -0.00026811133 0.0030457675 -0.013036663
000080 40 28 81 ba 61 b5 be 3b 9b b2 8b ba 7b ef a5 bc
       -0.0009853914 0.005819962 -0.0010658087 -0.020255795
000090 9f be b7 38 6b 09 8f bc 66 57 a4 bb 75 4b 89 3b
       8.761626e-05 -0.017460546 -0.0050153015 0.0041899034
0000a0 1a b0 9b 3b ee 6b b8 3b 35 9f c1 bc a3 90 7e b9
       0.0047512176 0.0056281006 -0.023635486 -0.00024277209
0000b0 b7 ed 9f 3a e6 8d a2 ba 96 a3 db bb 61 a1 a6 3b
       0.0012201582 -0.0012401908 -0.0067028506 0.005085156
0000c0 5c 13 1a bc 16 5c a3 bb bf 4f 33 3b f5 c7 b7 39
       -0.00940403 -0.0049853427 0.0027360765 0.0003505346
0000d0 9b de c9 ba cd d6 2a bb 60 9a 0b 3c 24 fb 7f ba
       -0.0015401425 -0.0026067973 0.008520693 -0.0009764901
0000e0 17 22 bc 3a 75 c3 7e bb 4e c9 20 3c 63 9a cf bb
       0.0014353421 -0.0038873826 0.00981362 -0.006335543
0000f0 33 bf 51 bc 5d ec 97 3a 1e cf 73 3b 69 23 97 3b
       -0.012801933 0.0011590827 0.003720231 0.0046123755
000100 3b 55 8b 3b e4 60 eb 3b 42 ce 34 3b f9 c4 98 3b
       0.0042521036 0.007183181 0.002758876 0.004662153
000110 dd a4 f1 3b a9 9f 80 3b 6c b4 7c 3b c9 2c db bb
       0.0073743896 0.003925283 0.0038559688 -0.0066886884
000120 00 80 1d 3b 8b 6a 13 3b 27 02 d1 3a a0 0b 73 bb
       0.0024032593 0.0022493924 0.0015946076 -0.0037085786
000130 88 dc 09 b7 d3 75 07 3b 0c 74 b3 3b cf ea 6f 3b
       -8.217183e-06 0.0020669594 0.0054764803 0.0036608463
000140 ba ec dd 3b 48 15 28 bb 60 7b 56 bc 7a e5 0f ba
       0.006772605 -0.002564745 -0.013090938 -0.0005489212
000150 d7 ac 0b b9 00 a7 9c 3b 1e c2 0d bb 03 04 5a 3c
       -0.00013320461 0.00478065 -0.0021630595 0.0133066205
000160 d3 88 13 3b cb 18 9b 3b f3 d5 3f bc 16 bc d5 ba
       0.0022511974 0.00473318 -0.011708724 -0.0016306664
000170 b6 2c 89 bb 0e c0 bc bb 93 e6 b8 3b 32 80 c0 3b
       -0.004186238 -0.0057601994 0.005642721 0.005874657
000180 f8 61 95 3b eb b5 0c 3b e9 73 02 3b 13 27 24 3b
       0.004558798 0.0021470736 0.0019905514 0.0025047704
000190 a1 0a 27 3b 5d 21 e6 ba 9d 0e a5 bb e5 d5 57 3b
       0.0025488513 -0.001755755 -0.0050371424 0.0032933888
0001a0 f9 76 57 ba 94 43 94 3b 8f 7a ae b8 8f ea a1 3b
       -0.00082193274 0.0045246575 -8.319795e-05 0.0049412916
0001b0 a5 e1 25 3c b1 36 6e bb 30 ae 98 3b 0c f7 77 3b
       0.010124599 -0.0036348517 0.0046594366 0.003783646
0001c0 56 ce f9 3b 89 0d 40 bc 4b 2a df bb 2e f5 a0 bb
       0.007623474 -0.011721977 -0.0068104616 -0.00491204
0001d0 b5 92 5c ba 96 1d 8f 3b ad 68 9c 3b c9 c7 22 bc
       -0.0008414195 0.0043675406 0.0047732205 -0.009935328
0001e0 cd 16 8f 3b e5 03 1f 3b 03 51 7e 3b 24 52 6f bc
       0.0043667317 0.0024263796 0.003880561 -0.014606986
0001f0 22 7e 97 bc 61 5d 2e bc 00 88 78 3b 99 e8 bc 39
       -0.018492762 -0.01064238 0.003792286 0.00036031453
000200 ba 2c af 3a 66 f7 9a ba 39 58 b7 3b ab 50 c9 3b
       0.001336477 -0.0011822998 0.0055952338 0.0061436496
000210 a7 43 5c 3b 32 a4 28 3b b0 52 5f 3c 91 1a 76 bb
       0.003360966 0.0025732634 0.013630554 -0.0037552456
000220 e5 ec a7 3a 90 ee 92 bb f8 44 eb b9 2d 5e 14 3b
       0.0012811689 -0.0044840053 -0.0004487408 0.002263914
000230 cc 8d b4 3a 13 a7 d9 bb 4f b5 07 3c 0f ea 70 3b
       0.0013775169 -0.0066422313 0.008282973 0.0036760604
000240 03 a3 17 3a 11 bd 5f 3a dd 71 30 ba 83 5e d3 3a
       0.00057844835 0.0008534948 -0.0006730834 0.0016126189
000250 ed 41 2a bc 6b a9 25 3b 6e f9 52 3a 3a d8 a2 3b
       -0.0103916945 0.0025277983 0.0008048032 0.004969624
000260 9e 60 ce 3b 38 ac e8 39 12 b1 bf 3b 2a ae 00 bb
       0.0062981388 0.000443788 0.005849966 -0.001963506
000270 f7 54 15 3c 4d 6d ab 3b 00 d9 95 3b c8 8b 3a 3b
       0.0091144955 0.0052315355 0.0045729876 0.0028464664
000280 ac 6f 08 ba 2e 59 c5 3b 9c 51 b6 3b 02 b5 fb 3b
       -0.00052046287 0.006022594 0.005563928 0.00768149
000290 1d 74 48 3c a5 f8 a7 3b e4 11 33 3b f0 1d 35 3b
       0.012234715 0.0051260763 0.0027323896 0.0027636252
0002a0 4d 56 bd 3b fe 27 cd 3b 0c 44 29 bb 93 f3 32 ba
       0.00577811 0.006260871 -0.0025827913 -0.00068264565
0002b0 d6 7d 79 3b 42 e8 b7 3a d0 e1 cf ba c9 74 29 3c
       0.0038069389 0.001403101 -0.0015860144 0.010342785
0002c0 30 02 2b 3b 30 ef fe 39 63 2b c3 bb cf 6c 41 bb
       0.0026093833 0.00048624864 -0.0059561 -0.0029514318
0002d0 ef 45 93 bb c0 bb e8 3a c1 e3 a5 ba bf 8c a6 3a
       -0.0044944207 0.0017756149 -0.0012656377 0.001270674
0002e0 b7 82 64 3a cc 61 c7 3b 98 ca 3c 3c 3e 42 b9 3b
       0.0008716988 0.0060846563 0.0115229115 0.0056536486
0002f0 b1 44 bf 3a d7 9e 45 3c 38 00 b0 39 88 ab db 3b
       0.0014592615 0.012061796 0.000335695 0.0067037977
000300 39 e0 e8 ba 09 c2 8e 3a c0 d0 7a 3b da c4 7d 3b
       -0.0017767019 0.0010891567 0.0038271397 0.003872207
000310 d0 95 cc 3b 09 d9 8f 3b cf 4d 75 3b 22 7d 39 3b
       0.006243445 0.0043898863 0.003743041 0.0028303345
000320 45 80 8d 3c b3 15 dc 3b 90 8c d3 3b 7f af 59 bb
       0.017273078 0.006716454 0.0064559653 -0.0033216176
000330 5a 99 56 3b a2 77 36 3b 9c 33 ee 3a dc c4 35 3c
       0.0032745213 0.0027842303 0.001817334 0.011094298
000340 d1 fe 45 3c 67 02 91 3b 7d ef 08 3b 28 11 46 3c
       0.012084679 0.004425335 0.00208947 0.012089051
000350 ec 3e 4e 3c bf 85 c7 3b ca 39 78 39 d0 44 83 3b
       0.012588244 0.006088942 0.00023672651 0.004006006
000360 e7 bb 17 3b e0 3e 4c 3b 70 dc 52 3b 87 ec 38 3a
       0.002315277 0.0031165406 0.0032174848 0.0007054288
000370 1c d3 9a 3b 15 5e de ba e8 28 b7 bb df 3c 6c bc
       0.004724873 -0.0016965294 -0.005589593 -0.01441881
000380 6a 5c 03 3c ab 82 f3 bb ad 0d 45 3b 65 70 9f 3b
       0.008017639 -0.0074313483 0.0030067966 0.0048656934
000390 bb 3b 90 3b 00 a6 f9 ba ee f4 05 3c 41 b3 96 3b
       0.0044016517 -0.0019046664 0.008176072 0.0045990054
0003a0 42 1a 9a 3b e7 d8 15 bc a0 b4 d0 bb 34 d3 87 bb
       0.004702837 -0.009145952 -0.0063691884 -0.0041450504
0003b0 0f 90 df bb 36 3a ac 3b 19 ad f4 3a 55 81 41 3b
       -0.006822593 0.0052559627 0.001866731 0.002952655
0003c0 36 3d 72 bb bd 73 95 bb a7 85 1c 3b 10 fe 3b ba
       -0.0036962754 -0.004560916 0.0023883374 -0.0007171342
0003d0 a3 21 10 3c 71 61 33 bb 7e 07 20 bc d3 38 9b bb
       0.008797082 -0.0027371312 -0.009767411 -0.0047369986
0003e0 68 8c 37 3b 56 1c 91 3a 53 87 9e 3b 7a 3f 51 bc
       0.0028007273 0.0011071067 0.0048379092 -0.012771482
0003f0 18 0a 3c bb 3d 04 f7 3a b6 c6 74 3b c7 81 18 3c
       -0.002869254 0.0018845868 0.0037349886 0.009308285

root.gating.0.bias f4 [64]
000000 e5 96 0c bc 9c d8 02 bd 51 a2 0e bc 16 b7 d2 3c
       -0.008580898 -0.031944856 -0.008705691 0.025722068
000010 71 3b 80 3c 6e 4e ab 3c e6 be 2e 3c aa 88 39 bb
       0.015653344 0.020911422 0.010665631 -0.0028310218
000020 70 fb 81 3c d2 54 ec 3b 6d 45 18 ba 9c 94 59 bc
       0.015866965 0.00721226 -0.0005808685 -0.01328006
000030 49 6b 91 3c 35 4d 5d ba 2e 5e ff bb 68 36 94 bb
       0.017751353 -0.00084419857 -0.0077932095 -0.0045230873
000040 5b 36 2f 3c 92 db 2e 37 12 99 e8 bb bc bb 3b 3d
       0.010694112 1.0422331e-05 -0.0070983255 0.045833334
000050 75 3d b4 3a 4b 50 4c 3c 0b 2e 83 39 23 db c3 ba
       0.0013751226 0.012470315 0.00025020572 -0.0014942627
000060 47 2f 7d 39 95 33 22 39 4a f6 a3 bc b2 cd 00 3c
       0.00024145572 0.0001546874 -0.0200149 0.007861542
000070 17 d1 bf bc 6d f1 41 3b 05 07 68 3c ef e4 c0 bc
       -0.023415131 0.0029593364 0.01416183 -0.023546664
000080 e2 3e bd bc a2 68 84 3c ab a8 0b bb 9c 6e 44 b8
       -0.023101274 0.016163174 -0.002131025 -4.6833055e-05
000090 e9 3d 7e bb 48 e7 66 3c 91 8e 26 39 93 30 c2 3c
       -0.0038794226 0.014093228 0.00015884104 0.023704803
0000a0 78 98 4a 3b 89 67 a5 3b af 70 fe 3c 8b 84 06 3d
       0.0030913632 0.0050477427 0.031059591 0.032841247
0000b0 ac 58 50 3c dc a4 bf 3c 0c 49 0a 3d 40 83 86 bb
       0.0127164535 0.02339404 0.03376107 -0.0041050017
0000c0 5d 06 ae 3c f9 db 87 3b b7 fc 5c ba 0c 3e 11 3d
       0.021243269 0.004146096 -0.00084299914 0.035459563
0000d0 a0 bf 07 3c 04 5d b1 35 bf c7 10 bc ad 9f 93 3b
       0.008285433 1.3214599e-06 -0.008836686 0.004505119
0000e0 97 06 b1 b8 06 6b 85 b7 bd 6e c3 bb 1b 2e 96 b7
       -8.441245e-05 -1.5904672e-05 -0.0059641288 -1.7902863e-05
0000f0 38 40 01 3c 90 14 8b bc 5e fc 7b bb 62 68 a7 ba
       0.007888846 -0.016977578 -0.0038449983 -0.0012772197

root.gating.2.weight f4 [1, 64]
000000 02 9c b9 bc 39 b9 85 bd b7 dc aa bd da e6 01 3d
       -0.022657398 -0.06529469 -0.08342879 0.031714298
000010 2f fc ed 3d ed 3d 88 3d 90 7e d7 3c b7 f3 d2 3d
       0.11620366 0.066524364 0.026305467 0.10300391
000020 5b 31 35 3d 0f 87 ff 3d 35 64 48 3c 41 f8 c1 bd
       0.044236522 0.12476932 0.0122309225 -0.09471179
000030 68 68 47 3d 57 87 b5 3a eb 57 4a bd f1 5b b6 bd
       0.048683554 0.0013849539 -0.04940025 -0.08904255
000040 e0 37 60 bd 5b 98 61 3b cf ac ec bc 71 de a7 3d
       -0.054740787 0.0034423086 -0.028890995 0.08196724
000050 d2 89 66 bc 51 ac ce bd b9 fa 0a bd 76 c7 00 bd
       -0.014070945 -0.100914605 -0.033930514 -0.03144022
000060 be a3 e6 3c 4d 60 8c b9 77 82 eb bd 91 4c d7 3d
       0.02815425 -0.0002677463 -0.114994936 0.10512651
000070 ca d5 a1 bd dd 05 23 3d 17 2f 92 3c 4b e7 86 bd
       -0.07902105 0.039800514 0.01784472 -0.065870844
000080 65 5a 38 bd 2b 4a 01 3d 05 48 6b 3d 7e 3c a0 b7
       -0.045008082 0.031564873 0.05744173 -1.9101655e-05
000090 f8 c3 f4 3c 90 37 e9 3c 07 8f 80 3a dc 2d 29 3d
       0.029878601 0.028468877 0.000980825 0.0413035
0000a0 a3 98 8b 3d da c7 97 bd f5 e8 9b 3d a1 45 e4 3d
       0.068162225 -0.074111655 0.076127924 0.11146093
0000b0 20 8a 9b 3d ae a5 2a 3d 05 f0 00 3e 9b a9 86 bc
       0.07594705 0.04166191 0.1259156 -0.016438296
0000c0 f7 d6 1a 3d ee 50 1d 3c 78 1d 40 ba 22 24 8f 3d
       0.037802663 0.009601815 -0.000732861 0.06989314
0000d0 86 f3 e7 3d 9d 5e 34 b6 b7 21 89 bd 61 fa 0f bd
       0.11325745 -2.6877162e-06 -0.06695884 -0.03515089
0000e0 78 2f 3f 38 78 c7 c5 38 ad 2b 22 3d 93 d9 88 37
       4.5582157e-05 9.430846e-05 0.039592434 1.631378e-05
0000f0 17 16 e7 3c 9c 51 e8 bc f1 c0 ad bd 72 2f 6a 3d
       0.028208775 -0.028359227 -0.08484066 0.057174154

root.left_child.w f4 [437]
000000 f7 4b bf 34 3c 7e b7 36 9f c3 28 38 b2 5c 1b 00
       3.5631794e-07 5.4685206e-06 4.0236508e-05 2.512811e-39
000010 50 84 8a 30 47 63 00 b1 4a ed 01 80 b4 84 3d 2a
       1.0078427e-09 -1.8682884e-09 -1.76959e-40 1.6832613e-13
000020 97 9c 01 80 93 fd 8c 2f d2 cb 90 38 c2 a6 01 00
       -1.4801e-40 2.5646027e-10 6.9044196e-05 1.51657e-40
000030 e0 9f 01 80 21 e3 17 1c 58 4c 98 a4 bb 9e 01 00
       -1.49188e-40 5.0255266e-22 -6.6048823e-17 1.48777e-40
000040 19 19 83 36 70 f1 91 ae e5 d5 68 2f 92 a1 01 00
       3.907026e-06 -6.6367245e-11 2.1176268e-10 1.49796e-40
000050 8f 22 f3 38 5b ac 01 00 8e 9e 01 80 25 38 9e 34
       0.0001159358 1.53665e-40 -1.48714e-40 2.9470644e-07
000060 32 9b 01 80 70 a0 01 00 fc d9 89 b8 30 29 b0 2e
       -1.47509e-40 1.4939e-40 -6.573272e-05 8.01087e-11
000070 08 ad 01 00 d2 a0 01 80 8a 53 16 8c 79 0e 36 31
       1.53907e-40 -1.49527e-40 -1.1580719e-31 2.6492712e-09
000080 2c 16 03 34 2f bd 70 37 d8 9e 01 00 c0 9e 01 80
       1.2208392e-07 1.43491625e-05 1.48818e-40 -1.48784e-40
000090 4b 9e 01 00 b4 60 a1 ad 1b 9f 01 00 dc ad cc b8
       1.4862e-40 -1.8346526e-11 1.48912e-40 -9.759862e-05
0000a0 34 a7 01 00 7d f2 a9 08 ad e0 11 b5 d7 32 f4 8f
       1.51817e-40 1.0228326e-33 -5.4343656e-07 -2.407984e-29
0000b0 fe a0 f2 9a 23 41 b5 1c 77 6d 30 b0 24 51 d7 b3
       -1.0034895e-22 1.1994413e-21 -6.4183986e-10 -1.0026477e-07
0000c0 ba 89 9c 9d 3c a3 11 2c 7b 9d 01 80 28 aa 49 3a
       -4.1435262e-21 2.0696353e-12 -1.48329e-40 0.0007692897
0000d0 83 00 02 00 0b c4 c6 25 d3 b2 cd 01 e4 87 3b 38
       1.83855e-40 3.448037e-16 7.5561707e-38 4.4710832e-05
0000e0 ff 08 81 03 b1 22 55 1c b5 e8 8e b7 aa 0b c3 22
       7.584004e-37 7.0520626e-22 -1.7036082e-05 5.2867206e-18
0000f0 17 2d 94 ba 26 b5 01 80 50 a5 01 00 e6 a6 01 00
       -0.0011304942 -1.5682e-40 1.51138e-40 1.51707e-40
000100 ba db 5e 2a c2 9b 01 00 39 f2 01 80 27 a6 01 80
       1.9793794e-13 1.47711e-40 -1.78729e-40 -1.5144e-40
000110 f9 f0 01 00 17 a9 d4 2b da fa f9 38 b5 79 6e 32
       1.7828e-40 1.5110438e-12 0.0001191997 1.3881096e-08
000120 ad cb b0 b2 31 ba 99 b7 f8 f2 3d 26 eb a0 01 00
       -2.0581718e-08 -1.8325723e-05 6.590183e-16 1.49562e-40
000130 12 5d 98 b6 fb e5 d7 9e 07 42 fc ae b1 2f 13 37
       -4.540788e-06 -2.2859128e-20 -1.1471362e-10 8.772987e-06
000140 f1 c9 88 34 16 3e a6 b1 04 e0 a7 3b d0 8f d3 30
       2.5478906e-07 -4.838294e-09 0.0051231403 1.5393145e-09
000150 12 75 25 39 75 a1 01 80 06 9d 01 80 a7 69 e4 0f
       0.00015779238 -1.49755e-40 -1.48165e-40 2.2523232e-29
000160 dc 74 ac bc e4 ca c5 94 2c 9f 21 22 b2 04 0c 37
       -0.021051817 -1.9971943e-26 2.1903834e-18 8.3457435e-06
000170 8e c6 51 13 c2 af 01 00 55 43 2c 29 ea ad 01 80
       2.6477404e-27 1.54886e-40 3.8250073e-14 -1.54224e-40
000180 ff ee 44 b9 24 9c 01 80 74 9a 01 00 51 92 28 3c
       -0.0001878105 -1.47848e-40 1.47243e-40 0.010288791
000190 a3 57 3b a3 30 ff 8f b1 4b 9e 01 80 ae 9a 5e 36
       -1.0155848e-17 -4.190859e-09 -1.4862e-40 3.3170613e-06
0001a0 65 83 3a 37 15 11 ed b8 f8 c0 1e b7 35 92 52 2b
       1.1117057e-05 -0.000113042224 -9.462463e-06 7.480989e-13
0001b0 15 2c 9d 3b c1 b6 35 90 22 00 22 bb fa 0c c9 b1
       0.0047965148 -3.5836744e-29 -0.0024719317 -5.851345e-09
0001c0 9f 38 ac ba 10 3a 5c b1 e6 db fe 99 5b cc b0 2a
       -0.0013139433 -3.2047218e-09 -2.63518e-23 3.140568e-13
0001d0 f8 27 05 00 13 a2 01 80 b3 2e 3d a1 f2 a2 f7 35
       4.73516e-40 -1.49977e-40 -6.4097497e-19 1.8450357e-06
0001e0 24 f3 b3 35 00 c6 e0 bc ff 49 91 a7 0b 9a c3 ba
       1.3407303e-06 -0.027438164 -4.032581e-15 -0.0014923228
0001f0 f9 64 64 3b d8 fa 01 80 21 fb e5 a7 f0 42 75 ab
       0.0034850223 -1.81821e-40 -6.3832543e-15 -8.713438e-13
000200 7e 65 ad 2f 58 a8 01 80 4f f7 ea a8 04 43 e3 36
       3.154063e-10 -1.52226e-40 -2.6086472e-14 6.772929e-06
000210 39 ea 20 30 55 51 63 36 f0 00 02 80 47 f1 be 2f
       5.854051e-10 3.3872977e-06 -1.84007e-40 3.4732237e-10
000220 b8 f1 12 37 7b 20 2d 2e ef 23 15 b5 b8 2c 01 80
       8.758558e-06 3.9364494e-11 -5.5559116e-07 -1.07878e-40
000230 5a a3 01 00 f8 6a e1 2e 2b 0a 02 00 9f a0 01 80
       1.50435e-40 1.0250817e-10 1.87319e-40 -1.49455e-40
000240 35 34 d3 37 2e 9a 01 00 ed ea 62 96 89 88 2d 31
       2.517747e-05 1.47145e-40 -1.8330264e-25 2.5252425e-09
000250 ae ea 01 00 ae 46 b6 39 1e fa 01 00 ee cf 07 36
       1.76023e-40 0.00034766406 1.8156e-40 2.0237599e-06
000260 68 07 40 a3 5e 30 92 8d 15 0f e5 b5 32 cf 41 b9
       -1.0409909e-17 -9.009589e-31 -1.7066219e-06 -0.000184831
000270 b9 09 f6 a8 78 9a 01 80 58 9a 01 80 f0 f2 21 a5
       -2.7315703e-14 -1.47248e-40 -1.47204e-40 -1.4046834e-16
000280 4a 0d 05 9e 15 f1 e4 ba 17 78 23 31 54 a6 01 00
       -7.0437095e-21 -0.0017466868 2.3787885e-09 1.51503e-40
000290 0a ab a8 83 cd af 01 00 d7 a0 01 80 1c af 7e 37
       -9.913421e-37 1.54901e-40 -1.49534e-40 1.5180351e-05
0002a0 6f ed 8e 09 06 da fd a4 2c bc e3 39 41 a0 01 80
       3.4408538e-33 -1.10090606e-16 0.00043437013 -1.49324e-40
0002b0 b5 4b 82 33 b4 22 b1 a7 8a cd 27 bb 81 b2 4a b8
       6.067368e-08 -4.9164994e-15 -0.0025604689 -4.8326798e-05
0002c0 52 31 e2 a6 05 6c c3 b1 d5 07 46 05 6b b9 a4 0d
       -1.5695269e-15 -5.6875273e-09 9.311354e-36 1.0151918e-30
0002d0 ef 46 43 3b df 56 ea 88 15 5c 80 36 5f 21 c0 3a
       0.0029796918 -1.4103786e-33 3.825417e-06 0.0014658383
0002e0 b4 65 49 af 71 a1 01 00 2c b5 cf 37 07 57 e0 b7
       -1.8316976e-10 1.4975e-40 2.4760688e-05 -2.6743406e-05
0002f0 5c a6 01 00 99 9e 01 00 56 f6 8b 93 f5 90 b1 83
       1.51514e-40 1.4873e-40 -3.533144e-27 -1.04364055e-36
000300 bf af a2 b3 cd ff 75 31 67 72 b7 ae 6a 9f 01 80
       -7.575681e-08 3.5797598e-09 -8.3421985e-11 -1.49022e-40
000310 8c ba 01 00 68 f9 8f 2c 0f 0e 6c 36 c8 9e 01 00
       1.58756e-40 4.091994e-12 3.5174924e-06 1.48795e-40
000320 c0 f0 a3 b4 73 53 d0 30 9d cf 0b 32 95 44 01 00
       -3.0536285e-07 1.515771e-09 8.138071e-09 1.16438e-40
000330 27 ea a3 a5 9c 14 79 1b d6 d8 60 34 e4 a0 01 00
       -2.843466e-16 2.0603457e-22 2.094051e-07 1.49552e-40
000340 43 60 37 93 8d 9f ec 9a a0 05 2c 34 2e c7 8b 3a
       -2.3145308e-27 -9.786508e-23 1.6020795e-07 0.0010664219
000350 ac a6 01 80 d0 73 e2 32 96 58 6b 80 59 b2 d8 37
       -1.51626e-40 2.6362528e-08 -9.858177e-39 2.5832256e-05
000360 3c 6d e0 b3 1a a1 01 80 69 a1 01 00 11 9e 01 80
       -1.04506825e-07 -1.49628e-40 1.49739e-40 -1.48539e-40
000370 39 ca 2a 37 e3 b4 01 80 9d f2 2a b6 9b 63 f1 95
       1.0179873e-05 -1.56725e-40 -2.5473194e-06 -9.7496275e-26
000380 22 ae e9 b9 df 9e 91 9b e4 9f 01 00 01 01 13 29
       -0.00044570962 -2.4090906e-22 1.49193e-40 3.2641428e-14
000390 67 2d 05 00 f4 9e 01 00 38 5b 94 2e 7d c9 57 3b
       4.75465e-40 1.48857e-40 6.7464645e-11 0.0032926493
0003a0 98 c7 80 35 dc 45 11 3b eb cc 01 00 f9 3e 15 31
       9.594833e-07 0.0022166884 1.65346e-40 2.171815e-09
0003b0 fe 86 60 85 e6 bc 01 80 07 fa 12 36 43 29 8b 29
       -1.05572235e-35 -1.596e-40 2.190123e-06 6.179998e-14
0003c0 05 a6 01 00 e0 d9 28 b9 8a 10 d2 26 40 a0 01 00
       1.51392e-40 -0.00016102893 1.457616e-15 1.49322e-40
0003d0 fc 9e 01 00 4c ea 03 80 14 70 3a b8 dc 12 1b b0
       1.48868e-40 -3.59556e-40 -4.4450237e-05 -5.641547e-10
0003e0 a5 a6 cc 37 22 cd a0 b9 5c 92 3b a5 21 83 f0 36
       2.4396295e-05 -0.00030670414 -1.6269253e-16 7.167823e-06
0003f0 00 9e 01 00 60 da 54 b4 28 c4 01 80 13 b7 01 80
       1.48515e-40 -1.9823483e-07 -1.62203e-40 -1.5751e-40

root.left_child.feature_selector.logit_phi f4 [437]
000000 bd 86 dd 3e b0 86 dd 3e cc 86 dd 3e a6 86 dd 3e
       0.4326686 0.4326682 0.43266904 0.4326679
000010 24 87 dd 3e 85 87 dd 3e 00 87 dd 3e 9d 86 dd 3e
       0.43267167 0.43267456 0.4326706 0.43266764
000020 b5 86 dd 3e 6a 86 dd 3e f4 86 dd 3e dc 86 dd 3e
       0.43266836 0.43266612 0.43267024 0.43266952
000030 ca 86 dd 3e b7 86 dd 3e 80 86 dd 3e 2c 86 dd 3e
       0.43266898 0.43266842 0.43266678 0.43266428
000040 8d 86 dd 3e e6 86 dd 3e cb 86 dd 3e fc 86 dd 3e
       0.43266717 0.43266982 0.432669 0.43267047
000050 da 86 dd 3e 6c 86 dd 3e d1 86 dd 3e ca 86 dd 3e
       0.43266946 0.43266618 0.4326692 0.43266898
000060 3b 86 dd 3e 5e 87 dd 3e 30 86 dd 3e ea 86 dd 3e
       0.43266472 0.4326734 0.4326644 0.43266994
000070 c7 86 dd 3e 85 86 dd 3e 18 87 dd 3e a3 86 dd 3e
       0.4326689 0.43266693 0.4326713 0.43266782
000080 95 87 dd 3e a2 86 dd 3e 9b 86 dd 3e b7 86 dd 3e
       0.43267503 0.4326678 0.43266758 0.43266842
000090 ae 87 dd 3e 8d 87 dd 3e fb 86 dd 3e aa 86 dd 3e
       0.43267578 0.4326748 0.43267044 0.43266803
0000a0 22 87 dd 3e 9c 86 dd 3e 00 87 dd 3e ab 87 dd 3e
       0.4326716 0.4326676 0.4326706 0.4326757
0000b0 ec 86 dd 3e aa 86 dd 3e 55 86 dd 3e 2c 87 dd 3e
       0.43267 0.43266803 0.4326655 0.4326719
0000c0 c0 86 dd 3e f0 86 dd 3e e6 86 dd 3e d4 86 dd 3e
       0.4326687 0.43267012 0.43266982 0.43266928
0000d0 02 87 dd 3e 31 86 dd 3e ac 86 dd 3e 58 87 dd 3e
       0.43267065 0.43266442 0.4326681 0.43267322
0000e0 a0 86 dd 3e f2 85 dd 3e c5 86 dd 3e 5c 86 dd 3e
       0.43266773 0.43266255 0.43266883 0.4326657
0000f0 a2 86 dd 3e f8 86 dd 3e c9 86 dd 3e fb 86 dd 3e
       0.4326678 0.43267035 0.43266895 0.43267044
000100 f8 86 dd 3e de 86 dd 3e 9d 86 dd 3e e2 86 dd 3e
       0.43267035 0.43266958 0.43266764 0.4326697
000110 e5 86 dd 3e a5 86 dd 3e 2f 87 dd 3e 22 87 dd 3e
       0.4326698 0.43266788 0.432672 0.4326716
000120 01 87 dd 3e c0 86 dd 3e d0 86 dd 3e 1b 87 dd 3e
       0.43267062 0.4326687 0.43266916 0.4326714
000130 31 86 dd 3e 03 87 dd 3e d7 86 dd 3e fc 85 dd 3e
       0.43266442 0.43267068 0.43266937 0.43266284
000140 da 86 dd 3e 07 87 dd 3e 9e 86 dd 3e 8f 86 dd 3e
       0.43266946 0.4326708 0.43266767 0.43266723
000150 8a 86 dd 3e 01 87 dd 3e 99 86 dd 3e 12 87 dd 3e
       0.43266708 0.43267062 0.43266752 0.43267113
000160 b0 86 dd 3e 99 86 dd 3e d5 86 dd 3e d0 86 dd 3e
       0.4326682 0.43266752 0.4326693 0.43266916
000170 ad 86 dd 3e 00 87 dd 3e ba 86 dd 3e cf 86 dd 3e
       0.43266812 0.4326706 0.4326685 0.43266913
000180 1e 87 dd 3e c4 86 dd 3e ee 86 dd 3e fc 86 dd 3e
       0.4326715 0.4326688 0.43267006 0.43267047
000190 c2 86 dd 3e b3 86 dd 3e f4 86 dd 3e dd 86 dd 3e
       0.43266875 0.4326683 0.43267024 0.43266955
0001a0 93 86 dd 3e ee 86 dd 3e 4b 86 dd 3e c5 86 dd 3e
       0.43266734 0.43267006 0.4326652 0.43266883
0001b0 50 86 dd 3e cc 86 dd 3e ae 86 dd 3e 92 86 dd 3e
       0.43266535 0.43266904 0.43266815 0.43266732
0001c0 87 87 dd 3e 16 87 dd 3e b6 86 dd 3e 88 86 dd 3e
       0.43267462 0.43267125 0.4326684 0.43266702
0001d0 af 86 dd 3e 10 87 dd 3e e9 86 dd 3e f3 86 dd 3e
       0.43266818 0.43267107 0.4326699 0.4326702
0001e0 50 86 dd 3e c4 86 dd 3e c3 86 dd 3e 98 86 dd 3e
       0.43266535 0.4326688 0.43266878 0.4326675
0001f0 19 86 dd 3e d7 86 dd 3e b3 86 dd 3e 90 86 dd 3e
       0.4326637 0.43266937 0.4326683 0.43266726
000200 c1 86 dd 3e 01 87 dd 3e 85 86 dd 3e e0 86 dd 3e
       0.43266872 0.43267062 0.43266693 0.43266964
000210 83 86 dd 3e b5 86 dd 3e 68 86 dd 3e 3f 87 dd 3e
       0.43266687 0.43266836 0.43266606 0.43267247
000220 ef 86 dd 3e c6 86 dd 3e bf 86 dd 3e 1b 87 dd 3e
       0.4326701 0.43266886 0.43266866 0.4326714
000230 11 87 dd 3e bd 86 dd 3e e7 86 dd 3e 73 86 dd 3e
       0.4326711 0.4326686 0.43266985 0.4326664
000240 e7 86 dd 3e a2 86 dd 3e ad 86 dd 3e 95 86 dd 3e
       0.43266985 0.4326678 0.43266812 0.4326674
000250 15 87 dd 3e 11 86 dd 3e 18 87 dd 3e 9c 86 dd 3e
       0.43267122 0.43266347 0.4326713 0.4326676
000260 b2 86 dd 3e 1c 86 dd 3e c9 86 dd 3e ef 86 dd 3e
       0.43266827 0.4326638 0.43266895 0.4326701
000270 9c 86 dd 3e 06 86 dd 3e 63 86 dd 3e ef 86 dd 3e
       0.4326676 0.43266314 0.4326659 0.4326701
000280 5e 86 dd 3e dc 86 dd 3e 03 87 dd 3e 60 86 dd 3e
       0.43266577 0.43266952 0.43267068 0.43266582
000290 59 86 dd 3e b8 86 dd 3e d7 86 dd 3e c8 86 dd 3e
       0.43266562 0.43266845 0.43266937 0.43266892
0002a0 e6 86 dd 3e c4 86 dd 3e 42 86 dd 3e ce 86 dd 3e
       0.43266982 0.4326688 0.43266493 0.4326691
0002b0 01 86 dd 3e 1b 87 dd 3e 7c 86 dd 3e 85 86 dd 3e
       0.432663 0.4326714 0.43266666 0.43266693
0002c0 41 86 dd 3e de 86 dd 3e cf 86 dd 3e aa 86 dd 3e
       0.4326649 0.43266958 0.43266913 0.43266803
0002d0 7d 86 dd 3e 47 87 dd 3e f1 86 dd 3e 2c 87 dd 3e
       0.4326667 0.4326727 0.43267015 0.4326719
0002e0 da 86 dd 3e b1 86 dd 3e 99 86 dd 3e d5 86 dd 3e
       0.43266946 0.43266824 0.43266752 0.4326693
0002f0 c6 86 dd 3e b0 86 dd 3e 0b 87 dd 3e 0e 87 dd 3e
       0.43266886 0.4326682 0.43267092 0.432671
000300 d4 86 dd 3e 6b 86 dd 3e 99 86 dd 3e d5 86 dd 3e
       0.43266928 0.43266615 0.43266752 0.4326693
000310 24 87 dd 3e 93 86 dd 3e 76 86 dd 3e 84 86 dd 3e
       0.43267167 0.43266734 0.43266648 0.4326669
000320 b4 86 dd 3e 85 86 dd 3e c1 86 dd 3e 41 87 dd 3e
       0.43266833 0.43266693 0.43266872 0.43267253
000330 f1 86 dd 3e c0 86 dd 3e 28 86 dd 3e f6 86 dd 3e
       0.43267015 0.4326687 0.43266416 0.4326703
000340 66 86 dd 3e c4 86 dd 3e b1 86 dd 3e 19 86 dd 3e
       0.432666 0.4326688 0.43266824 0.4326637
000350 04 87 dd 3e 81 86 dd 3e 03 87 dd 3e ca 86 dd 3e
       0.4326707 0.4326668 0.43267068 0.43266898
000360 d0 86 dd 3e 7f 86 dd 3e f4 86 dd 3e 94 86 dd 3e
       0.43266916 0.43266675 0.43267024 0.43266737
000370 d2 86 dd 3e 93 86 dd 3e 08 87 dd 3e 0e 87 dd 3e
       0.43266922 0.43266734 0.43267083 0.432671
000380 97 86 dd 3e fc 86 dd 3e bd 86 dd 3e be 86 dd 3e
       0.43266746 0.43267047 0.4326686 0.43266863
000390 b6 86 dd 3e 48 86 dd 3e f7 86 dd 3e dc 86 dd 3e
       0.4326684 0.4326651 0.43267033 0.43266952
0003a0 5d 86 dd 3e 8b 86 dd 3e ac 86 dd 3e 4e 86 dd 3e
       0.43266574 0.4326671 0.4326681 0.4326653
0003b0 d7 86 dd 3e 9f 86 dd 3e ff 86 dd 3e 0f 87 dd 3e
       0.43266937 0.4326677 0.43267056 0.43267104
0003c0 38 87 dd 3e 9e 86 dd 3e cf 86 dd 3e 7e 86 dd 3e
       0.43267226 0.43266767 0.43266913 0.43266672
0003d0 3b 86 dd 3e ef 86 dd 3e 43 87 dd 3e 57 87 dd 3e
       0.43266472 0.4326701 0.4326726 0.4326732
0003e0 cf 86 dd 3e ac 86 dd 3e b6 86 dd 3e 54 87 dd 3e
       0.43266913 0.4326681 0.4326684 0.4326731
0003f0 17 87 dd 3e ac 86 dd 3e 97 86 dd 3e 09 87 dd 3e
       0.43267128 0.4326681 0.43266746 0.43267086

root.left_child.local_expert.fc1.weight f4 [16, 437]
000000 a3 df 20 3d b1 93 00 bb b0 6c 4b bc e4 3f bf 3c
       0.039275777 -0.001961928 -0.01241605 0.023345895
000010 cb b3 60 bc b3 21 35 3c 50 94 23 bd 6d 83 93 bc
       -0.013714741 0.011055398 -0.039936364 -0.018007005
000020 27 0a 03 bc 80 e0 cf bb 53 b7 89 3d d3 9c 3a 3d
       -0.007998026 -0.006343901 0.067244194 0.045559715
000030 8c 75 85 3b ad 9e b3 bc a1 d8 a7 bb f0 b9 bd 3c
       0.0040728506 -0.021926248 -0.0051222597 0.023159951
000040 0f 8a 69 39 d1 6f 2b ba 90 27 12 bd 7b 10 0a bd
       0.00022272042 -0.0006539794 -0.03568226 -0.033707123
000050 ac b3 bd 3c 11 55 28 b9 89 6b f6 bc 4d f5 c9 bc
       0.023156963 -0.00016053418 -0.030080574 -0.024653101
000060 22 33 5b 3d bd e3 dc bb 89 de 21 3c 7f 9d 7e bd
       0.05351556 -0.0067410157 0.009879717 -0.06216192
000070 e3 03 b6 bc 37 3e 35 3d 77 3c cc ba 41 9e 7d bb
       -0.02221865 0.044248786 -0.0015581985 -0.0038699063
000080 63 88 4e 3d 6a 04 b1 bc eb a9 2e bd ac ad 71 bc
       0.050423037 -0.02160855 -0.042642515 -0.014750879
000090 0c 05 0b bb 33 3b ee 3c 50 d5 b7 bc f5 bf f3 bc
       -0.0021212725 0.029080963 -0.022440583 -0.029754618
0000a0 4f 05 a2 bb c4 af 2b 3d bd 00 55 bc 37 5d 32 3b
       -0.0049444805 0.04191567 -0.013000664 0.0027216205
0000b0 35 5f 1f 3a 06 56 25 3c 64 7e ba 3d 6b dc 39 3c
       0.00060795556 0.01009131 0.09106138 0.011344056
0000c0 b2 d0 9f 3c 7a d4 1d 3c 65 6c 18 bc 1a c9 22 3d
       0.019508693 0.009633178 -0.009303187 0.039742567
0000d0 9d 25 92 bc 24 77 3a 3d a3 7a 38 bb 12 8a 8c 3c
       -0.017840201 0.045523778 -0.002814927 0.01715568
0000e0 17 f7 1f bd f4 73 35 3d d0 68 bd 3c 27 de 10 3c
       -0.039054003 0.044300035 0.023121268 0.008842028
0000f0 af d3 19 bd db 04 1b 3c df 2f 17 bd e1 be 10 bc
       -0.037555393 0.009461607 -0.036910888 -0.008834572
000100 95 e1 c7 bb 80 d2 3a 3c a8 93 e0 bb 42 e2 c8 3a
       -0.0060998895 0.011402726 -0.0068535395 0.0015326219
000110 6d e6 87 3d 82 ea 2d 3d 6e b1 f4 bc e3 e1 db 3b
       0.06635747 0.042459972 -0.029869761 0.0067102774
000120 6d 19 cb 3c 39 0b a3 bc db d4 34 bd 1a 91 1e 3c
       0.024792397 -0.019902812 -0.044148307 0.00967815
000130 e7 9b 6d 3d c5 23 9c bb 66 45 df 3b e8 03 52 bd
       0.05801001 -0.0047650062 0.006813693 -0.051273257
000140 80 b1 34 bc 01 49 19 3d 59 6b 18 bd 2b 04 00 3d
       -0.011028647 0.037423138 -0.03721175 0.031253975
000150 81 6e 83 ba 2e 2e 2f bd 3f e9 8f 3c 87 4f 5c 3d
       -0.001002744 -0.04276865 0.017567275 0.05378678
000160 6e 07 f6 3c 63 6c 0d 3d ea fa 2b 3d da 7c 94 3b
       0.03003284 0.034527194 0.041987337 0.004531485
000170 44 c4 c5 bc 1e d4 80 3c 92 5e 97 3a e1 7c 71 3c
       -0.024141438 0.015726145 0.001154857 0.014739246
000180 18 ca 07 3c 0f 27 bd bc c9 ec cd bc 63 6f 8f 3c
       0.008287929 -0.023089914 -0.025137322 0.017509168
000190 b8 04 50 bd eb 1c 8c bd e0 88 ab 3c bb 4a d5 3c
       -0.05078575 -0.06841453 0.02093929 0.02603661
0001a0 d7 84 70 bd d7 fa 1d 3d d4 79 b3 bc 17 c6 3e 3b
       -0.058720436 0.038569298 -0.021908678 0.002910977
0001b0 6d 1e 33 3c ba c4 0f 3d 8c 66 01 3d 27 93 38 3d
       0.010932547 0.035099722 0.031591937 0.04506221
0001c0 2d 44 24 bd dd 06 91 bc d3 81 48 3d a9 2e ba bc
       -0.04010408 -0.017703468 0.048951935 -0.022727327
0001d0 c7 ca b5 bc d8 43 4a bd cc 73 43 bd 72 3b f2 3c
       -0.022191418 -0.049381107 -0.047717854 0.029569361
0001e0 ae 4e c7 bc a3 c2 c6 3c 01 fa 0d bd 8e 53 3d bd
       -0.02432951 0.024262732 -0.03466225 -0.046222262
0001f0 a3 0c 22 3d 75 13 76 bc c3 4f 87 3b f4 9b 93 bb
       0.039562833 -0.015019287 0.0041293814 -0.004504675
000200 b9 f2 0c bd 54 a0 0f 3b 30 64 14 bd 73 a5 04 bc
       -0.034411166 0.0021915631 -0.03622836 -0.008096087
000210 74 83 11 3d a6 c7 c5 3c 96 6b b3 bd 2d 43 0d bc
       0.035525754 0.024143051 -0.08760755 -0.008621973
000220 70 00 07 bd e5 5c 36 bd ee 5e 86 bc 0b 60 2b 3c
       -0.0329594 -0.044522185 -0.016402688 0.01045991
000230 34 e5 3b bd 2c 40 1e 3c 13 1e 8d 3c 7f 92 b2 3b
       -0.045872882 0.009658854 0.017226255 0.0054495926
000240 7b e1 55 bc 60 e1 03 3c 76 18 58 bc e8 b6 c9 bb
       -0.013054247 0.008049339 -0.013189426 -0.0061558373
000250 25 a9 03 bd 9e d5 32 bd b3 e8 df 3c cf 46 6a 3c
       -0.03214373 -0.043660752 0.02733264 0.014299109
000260 0b cb 5e bc 2a 4b 7b 3c 8b 36 3e bc 88 6a 5c 3c
       -0.013598214 0.015337745 -0.011609684 0.013453133
000270 e5 c9 7d bc dc 05 0a bd 28 0f 49 3d 43 9b 10 bc
       -0.01549003 -0.033696994 0.04908672 -0.00882608
000280 16 d9 2b bd 26 68 27 bd b3 b1 18 bd b5 ea ee 3c
       -0.041955076 -0.040870808 -0.037278842 0.029164651
000290 d5 f7 d7 3c 2c 3c 37 3c 8b 1b 76 3c 08 63 8c 3c
       0.026363293 0.01118378 0.015021215 0.017137066
0002a0 05 b9 01 3d 6e d9 15 3d d1 93 51 bc 7e be f8 bc
       0.03167059 0.03658431 -0.01279159 -0.030364271
0002b0 8e 73 c2 3c ea 4d 44 bd 24 ed 45 3c b0 52 46 3d
       0.023736741 -0.047925867 0.0120804645 0.0484187
0002c0 90 a9 c6 3c 6f 41 00 3d 3e 7e dd bb 52 91 29 3d
       0.024250776 0.031312402 -0.006759434 0.041398354
0002d0 f6 34 06 bd 60 30 17 3b e9 96 24 3d 81 ca 27 bd
       -0.03276535 0.0023069605 0.04018298 -0.040964607
0002e0 d5 dd 91 3c fb f5 e6 3c aa cf 6c bb 92 4d 85 bc
       0.017805973 0.028193465 -0.003613452 -0.01627234
0002f0 47 50 ad 3c 8e bc 15 bc 70 01 dd bc c9 3e e5 bc
       0.021156443 -0.009139193 -0.026978225 -0.02798404
000300 5f 24 24 3a 0c 3d 2f 3d d4 5e 8a 3b 29 dc 5e bc
       0.0006261523 0.04278283 0.00422273 -0.013602295
000310 7c 00 ed bc 1f 64 05 bb fb 16 ff bc 3d 8a b6 bc
       -0.028930895 -0.0020353866 -0.031138888 -0.022282714
000320 93 77 2d 3c 35 3b 15 bd 99 68 fa bc 51 25 4b bd
       0.010587591 -0.036433417 -0.030567454 -0.049596135
000330 0f 60 f7 3c 88 f0 23 bc ea 7a bb 3b 88 5c 15 bd
       0.030197171 -0.010006078 0.0057214396 -0.036465198
000340 9b f2 1c 3d 9c ec 9b 3c 07 06 f0 bb 59 60 97 bc
       0.038317304 0.019033723 -0.0073249373 -0.01847856
000350 42 43 c6 3a db 3a 6c bb d1 06 e1 bc 77 29 23 bd
       0.0015126246 -0.0036045823 -0.02746907 -0.039834466
000360 0d ac 14 3d b2 ba d2 bc 50 34 8d 3b 1b 36 b1 bc
       0.036296893 -0.025723789 0.0043092147 -0.021632245
000370 64 59 77 b9 18 a9 18 bd dd 29 a7 3b 7f 9c 30 bd
       -0.00023589056 -0.037270635 0.005101426 -0.043117996
000380 45 84 92 bc c8 10 27 bd 50 a5 41 bd 16 d1 f7 3a
       -0.017885337 -0.04078749 -0.047276795 0.0018906917
000390 28 9c a8 3c 4c 0d 80 3c fa 33 41 3d 8d ee 8c 3c
       0.020582274 0.01563134 0.04716871 0.017203594
0003a0 f2 2c 0c 3d 35 83 9a 3c 35 14 4c 3d f7 6e dc bc
       0.03422255 0.018861393 0.04982396 -0.02690838
0003b0 6c e9 00 bc 31 fc 80 bc 78 cb f0 ba a1 00 94 3b
       -0.007868152 -0.015745254 -0.0018371185 0.0045166765
0003c0 7c 49 5e bd a2 e6 06 ba bd 84 d3 3c 46 b4 03 bd
       -0.0542693 -0.00051460613 0.02582013 -0.032154344
0003d0 a8 c8 e3 bc 9e fe ab 3c e0 82 3a bd f8 c0 39 bd
       -0.027805641 0.020995434 -0.04553497 -0.045350045
0003e0 81 31 23 3c 5e 60 7d bb 46 d1 b3 bc 28 5c 19 3d
       0.009960533 -0.0038662176 -0.021950375 0.037441403
0003f0 05 af 8d 3b 8a 86 16 3d d8 17 97 b9 7c d1 1c 3d
       0.0043238425 0.0367494 -0.0002881873 0.038285717

root.left_child.local_expert.fc1.bias f4 [16]
000000 a3 6c c6 bd d6 12 06 bd c7 70 cf 3d b7 3a 84 3c
       -0.096886896 -0.032732807 0.101289324 0.016141279
000010 39 d3 17 bc ac 99 cd bc de 7a 85 bd 88 bd dd bc
       -0.009266668 -0.02509769 -0.06517576 -0.027067915
000020 50 4c 9d 3d 4b 74 9a 3d 03 67 b6 3d 4b a0 92 3d
       0.07680571 0.075417124 0.08906367 0.0715948
000030 4e fd 0e bd d6 1e 8e bc 72 6b 32 bd ec 2d 5c bd
       -0.03490954 -0.017348688 -0.0435595 -0.053754732

root.left_child.local_expert.fc2.weight f4 [2, 16]
000000 38 cd 2f 3d eb 90 58 3e 17 c9 2c be 7c be ec 3d
       0.04292032 0.21149032 -0.16873585 0.115597695
000010 75 37 9f bd f2 41 57 3e 91 6a 3a bb 89 27 e5 3d
       -0.077742495 0.2102125 -0.0028444866 0.11189181
000020 5e 07 1d 3d 3d 82 42 bd d5 26 3b be 4b 6a 21 be
       0.038337104 -0.047487486 -0.18276532 -0.15763204
000030 c1 dd c9 3d 6d 90 23 3e 09 0a 1f 3e cd 4b 21 3e
       0.09856749 0.15973063 0.15531172 0.15751572
000040 cd 62 50 be 59 56 dc 3d 64 73 c7 3d 5d d0 72 3e
       -0.2035019 0.10758657 0.09738806 0.23712297
000050 03 b1 50 3e 4d 3f aa ba bd 6f 15 be 4d 84 55 be
       0.20380025 -0.0012988836 -0.14593406 -0.2085125
000060 02 1d 58 3e 53 0f 38 3b 6e 74 65 3e f3 06 dc ba
       0.21104816 0.0028085306 0.22407696 -0.0016786739
000070 e9 6b 4d be 54 27 d4 3d 02 9b 19 be c6 7f 35 bd
       -0.20060696 0.10359064 -0.15000537 -0.044311307

root.left_child.local_expert.fc2.bias f4 [2]
000000 02 7f 4d bd 51 b9 e7 bd
       -0.050169952 -0.11314643

root.right_child.w f4 [437]
000000 cf a6 b1 33 47 e4 ac 37 43 be aa 03 00 a3 01 00
       8.272547e-08 2.0610298e-05 1.0035384e-36 1.50309e-40
000010 7f a3 01 80 8e 28 87 b5 0c f7 dd b5 df 5e 84 80
       -1.50487e-40 -1.0070087e-06 -1.6537683e-06 -1.2156319e-38
000020 55 a1 01 00 57 46 e0 3a 21 b1 a3 b4 3f 9c 01 00
       1.4971e-40 0.0017110807 -3.0489994e-07 1.47886e-40
000030 ac 15 47 ab 93 54 03 34 57 cc e8 3b 61 9f 01 80
       -7.072908e-13 1.2231094e-07 0.0071044373 -1.4901e-40
000040 f3 67 2f 2e 9a 64 84 b0 6e af 82 28 df f0 01 80
       3.988272e-11 -9.632857e-10 1.450898e-14 -1.78244e-40
000050 1c 57 80 3a a2 b9 01 80 40 f3 06 a8 ff 9f 01 00
       0.0009791586 -1.58428e-40 -7.491241e-15 1.49231e-40
000060 40 b5 01 00 cd 1f 95 36 67 67 6f 22 c9 9e 01 00
       1.56856e-40 4.444248e-06 3.244528e-18 1.48797e-40
000070 40 63 e3 3b 12 af 01 00 23 a4 01 00 59 8f a5 b9
       0.0069393218 1.54639e-40 1.50717e-40 -0.00031578055
000080 f1 8f b2 03 ef 9e 01 00 47 31 37 b5 2b 8e 4a ab
       1.0494947e-36 1.4885e-40 -6.824452e-07 -7.1962114e-13
000090 f3 9a 01 80 a8 9c 01 00 d0 73 d9 2c bc 8d 37 b0
       -1.47421e-40 1.48033e-40 6.1803687e-12 -6.677643e-10
0000a0 3d 16 3d 2f 3a 71 a5 1a 73 9a 01 80 52 2c a3 ba
       1.719735e-10 6.842533e-23 -1.47241e-40 -0.0012449122
0000b0 0c 59 17 13 fb 49 99 00 b3 24 61 b1 b5 34 14 2d
       1.9102783e-27 1.407737e-38 -3.276267e-09 8.424529e-12
0000c0 c2 53 69 39 8b 34 88 9e ed a4 01 80 01 aa 46 b7
       0.00022251814 -1.4421291e-20 -1.51e-40 -1.1841302e-05
0000d0 44 ab 8a b7 e3 c7 87 3b 8f e9 11 ba cf a5 79 37
       -1.6530634e-05 0.0041437014 -0.0005566114 1.4880162e-05
0000e0 ae f2 c9 b9 70 cd bb af c2 ef 01 00 0a b0 01 00
       -0.00038518518 -3.4161074e-10 1.77844e-40 1.54986e-40
0000f0 b5 ed f2 b9 ba 18 1f b6 be 51 b3 28 f7 23 ba 38
       -0.00046334942 -2.370724e-06 1.9908442e-14 8.87587e-05
000100 14 cc 3f b7 31 56 ca b9 79 9e 01 00 11 5b 29 3c
       -1.1432003e-05 -0.0003859266 1.48685e-40 0.010336653
000110 f0 c9 5e 3c a8 5a 03 b7 5b a1 01 80 c0 2d 16 00
       0.01359795 -7.829316e-06 -1.49719e-40 2.036793e-39
000120 f7 4a 37 39 cd 52 a6 22 17 9d 01 80 88 63 7a b9
       0.00017480167 4.508206e-18 -1.48189e-40 -0.00023878936
000130 95 aa 01 80 1e 7b fa 94 50 70 0f 10 11 a1 01 80
       -1.53029e-40 -2.529211e-26 2.82883e-29 -1.49615e-40
000140 1f ec 01 80 50 2c c9 a8 fb 9e 01 00 a0 a7 01 80
       -1.7654e-40 -2.23347e-14 1.48867e-40 -1.51968e-40
000150 96 aa 24 ad e4 9c 7a ad 9d 9d 01 00 69 33 1b 36
       -9.360198e-12 -1.4245691e-11 1.48376e-40 2.3126724e-06
000160 8c 0c 53 36 54 9d 01 00 21 cf ad b4 e7 1d a8 26
       3.1448753e-06 1.48274e-40 -3.2374467e-07 1.1665447e-15
000170 53 7f 5b b6 c9 69 ef 37 9c dd 32 0b 99 4a 23 2c
       -3.2707655e-06 2.854028e-05 3.4448273e-32 2.3205103e-12
000180 b3 9f 01 00 0c 73 e5 b5 35 31 ad 92 3d da 5b b7
       1.49125e-40 -1.7095313e-06 -1.0929965e-27 -1.310423e-05
000190 05 c1 84 35 78 44 1d 39 e5 a1 01 80 b9 e5 b1 32
       9.890942e-07 0.00014998193 -1.49912e-40 2.0709978e-08
0001a0 31 3b 61 1b ae a4 3e 0a d1 d9 53 1a fd db 9c 34
       1.863069e-22 9.17914e-33 4.3809728e-23 2.9217327e-07
0001b0 68 dc 08 b3 f3 ae 01 00 fd 9b 01 00 11 e4 61 03
       -3.1865426e-08 1.54595e-40 1.47794e-40 6.6383365e-37
0001c0 a7 ac 01 80 24 f2 13 bb a1 8a 14 a5 b6 81 2c 1e
       -1.53771e-40 -0.0022574747 -1.2883923e-16 9.132428e-21
0001d0 36 9d 01 00 a4 99 19 32 1a db e8 b0 93 9d 00 b4
       1.48232e-40 8.940706e-09 -1.6942494e-09 -1.1978254e-07
0001e0 e9 1f 22 3b ff c6 19 31 89 9e 01 80 cb 83 01 a8
       0.0024738258 2.2377546e-09 -1.48707e-40 -7.1895166e-15
0001f0 8b cc 01 00 1e a7 01 80 df 94 66 1c 9f 9d 01 00
       1.65212e-40 -1.51786e-40 7.629303e-22 1.48379e-40
000200 da b3 f5 ab 2b 43 bb b0 83 36 01 bb 92 18 0a ba
       -1.7458216e-12 -1.3625131e-09 -0.001971633 -0.00052679435
000210 23 9d 84 30 f1 77 1f 26 58 ae 01 00 7a c4 ad 38
       9.648925e-10 5.532676e-16 1.54378e-40 8.2858794e-05
000220 a0 6b e9 b6 c4 42 fd 39 c1 a0 01 00 12 46 bb 37
       -6.9564703e-06 0.00048305665 1.49503e-40 2.2324766e-05
000230 ca aa 01 80 c0 a5 01 80 cc 9f 01 80 26 44 f9 0f
       -1.53103e-40 -1.51295e-40 -1.4916e-40 2.4579545e-29
000240 02 9b 01 80 72 a2 01 00 02 91 8e 11 d4 ec 3a b0
       -1.47442e-40 1.5011e-40 2.2493018e-28 -6.800296e-10
000250 3d f0 bf 32 23 c1 01 80 7f 75 15 37 2f bc 01 00
       2.2344574e-08 -1.6112e-40 8.908449e-06 1.59343e-40
000260 1a 5f 43 31 20 8f ad a9 9f 5f a2 bc 3f 96 3a 2a
       2.8430294e-09 -7.7075716e-14 -0.019820986 1.6572246e-13
000270 58 96 1c b5 f5 b2 01 00 ec b6 01 80 af c3 8f 8d
       -5.833331e-07 1.56033e-40 -1.57456e-40 -8.860165e-31
000280 52 65 4a 06 6a a0 01 00 69 48 cd 84 78 a0 01 80
       3.8066416e-35 1.49381e-40 -4.8261767e-36 -1.49401e-40
000290 6d a0 01 80 30 b3 ae b9 80 c6 21 36 4e c3 16 33
       -1.49385e-40 -0.0003332137 2.4106412e-06 3.5102225e-08
0002a0 ee a2 01 00 e2 6f d3 0c d8 2f 26 b0 5a 8d 2a 22
       1.50284e-40 3.2577034e-31 -6.045844e-10 2.3114127e-18
0002b0 7c 20 00 00 2c 9e 01 00 58 6d cd 2d 3d 9b 01 80
       1.1653e-41 1.48577e-40 2.335436e-11 -1.47524e-40
0002c0 88 ae 2c b8 61 fa 54 ad 48 9d 01 00 51 4b 72 b8
       -4.117054e-05 -1.21064e-11 1.48257e-40 -5.776744e-05
0002d0 f3 4a 7d 24 9c 75 23 b0 cd c3 e0 b2 f5 a6 01 00
       5.4924114e-17 -5.946619e-10 -2.6166072e-08 1.51728e-40
0002e0 6e a3 9b b7 22 82 37 ab f7 f4 b9 a8 b1 c5 fb a5
       -1.8553543e-05 -6.5195256e-13 -2.0645363e-14 -4.367552e-16
0002f0 de f6 d5 8e 63 52 b8 b5 21 1b 56 a8 c0 bb 01 80
       -5.274628e-30 -1.3733046e-06 -1.1885269e-14 -1.59188e-40
000300 e3 53 7c 86 2c 9b 01 00 16 84 b3 10 18 7e 1e 90
       -4.7457562e-35 1.475e-40 7.080656e-29 -3.1257145e-29
000310 04 a1 01 80 9c a0 01 80 42 1e f3 3a 63 2e 01 32
       -1.49597e-40 -1.49451e-40 0.0018548446 7.519335e-09
000320 3a 9e 01 00 df 9f 01 00 bf f9 01 80 3f a0 01 80
       1.48596e-40 1.49186e-40 -1.81428e-40 -1.49321e-40
000330 4f a2 05 34 9e 2c ba 93 ca 9a 01 80 32 5a 62 bb
       1.2445638e-07 -4.6996997e-27 -1.47363e-40 -0.0034538624
000340 8d f5 2f 24 cd 85 46 a7 e5 ba f0 b8 08 89 0b 34
       3.8155066e-17 -2.7550553e-15 -0.000114789036 1.2995235e-07
000350 0f ce b8 31 27 a5 b2 b4 07 7e 23 38 1f 14 b0 b6
       5.378531e-09 -3.3275248e-07 3.89796e-05 -5.247551e-06
000360 9e eb c8 35 50 c3 23 2c 32 4c 5b ad 34 9c 01 00
       1.4969735e-06 2.3272113e-12 -1.24656275e-11 1.4787e-40
000370 c0 d6 31 99 1a 9b 01 80 dd 5b 24 b5 8d 35 4b 37
       -9.194054e-24 -1.47475e-40 -6.122844e-07 1.2112211e-05
000380 8c d7 93 2b b6 1c 09 bc 63 a2 01 80 3b a7 01 80
       1.0504804e-12 -0.008368662 -1.50089e-40 -1.51826e-40
000390 3f ca c3 b9 5b 84 75 a9 5b b9 c1 b5 b8 9b 01 80
       -0.00037343983 -5.4515728e-14 -1.4433566e-06 -1.47697e-40
0003a0 2d 08 b0 3c 78 42 03 39 09 21 dd ad 79 99 62 2b
       0.021488274 0.00012517895 -2.5139462e-11 8.0504315e-13
0003b0 0c 82 7c 3b 20 86 00 00 ba 5b ac 88 6c 9c 53 bb
       0.0038529662 4.8115e-41 -1.0373438e-33 -0.003228928
0003c0 06 b8 01 80 c6 dc 8f b6 a3 74 00 2a f4 6e 20 8b
       -1.5785e-40 -4.2874335e-06 1.140915e-13 -3.089835e-32
0003d0 08 e4 9d b5 f5 68 4b 25 50 5e 93 aa 0d ca 01 b2
       -1.1763777e-06 1.7643004e-16 -2.6177888e-13 -7.554729e-09
0003e0 ec 37 44 0a ad 91 d3 99 0c 24 af 1a 24 64 14 b6
       9.4475745e-33 -2.1875727e-23 7.243654e-23 -2.2112008e-06
0003f0 de 4f 58 1f bb 9f 09 b8 a4 ab 01 80 56 c7 01 00
       4.5805844e-20 -3.2812106e-05 -1.53409e-40 1.63344e-40

root.right_child.feature_selector.logit_phi f4 [437]
000000 43 86 dd 3e ad 86 dd 3e b8 86 dd 3e b0 86 dd 3e
       0.43266496 0.43266812 0.43266845 0.4326682
000010 e4 85 dd 3e 56 86 dd 3e 47 86 dd 3e b2 86 dd 3e
       0.43266213 0.43266553 0.43266508 0.43266827
000020 b6 86 dd 3e cc 86 dd 3e a5 86 dd 3e cf 86 dd 3e
       0.4326684 0.43266904 0.43266788 0.43266913
000030 af 86 dd 3e a0 86 dd 3e 58 87 dd 3e 9c 86 dd 3e
       0.43266818 0.43266773 0.43267322 0.4326676
000040 b0 86 dd 3e d0 86 dd 3e a4 86 dd 3e ee 86 dd 3e
       0.4326682 0.43266916 0.43266785 0.43267006
000050 f3 86 dd 3e 75 86 dd 3e d2 86 dd 3e df 86 dd 3e
       0.4326702 0.43266645 0.43266922 0.4326696
000060 52 86 dd 3e a2 86 dd 3e de 86 dd 3e 85 86 dd 3e
       0.4326654 0.4326678 0.43266958 0.43266693
000070 d4 86 dd 3e 9e 86 dd 3e cd 86 dd 3e 1d 87 dd 3e
       0.43266928 0.43266767 0.43266907 0.43267146
000080 a5 86 dd 3e 98 86 dd 3e 1c 87 dd 3e 03 86 dd 3e
       0.43266788 0.4326675 0.43267143 0.43266305
000090 37 86 dd 3e 06 87 dd 3e d9 86 dd 3e 81 86 dd 3e
       0.4326646 0.43267077 0.43266943 0.4326668
0000a0 0d 87 dd 3e ad 86 dd 3e f8 85 dd 3e ef 85 dd 3e
       0.43267098 0.43266812 0.43266273 0.43266246
0000b0 ba 86 dd 3e d5 86 dd 3e ce 86 dd 3e 1e 87 dd 3e
       0.4326685 0.4326693 0.4326691 0.4326715
0000c0 80 86 dd 3e e7 86 dd 3e 17 87 dd 3e d3 86 dd 3e
       0.43266678 0.43266985 0.43267128 0.43266925
0000d0 e2 86 dd 3e e2 86 dd 3e c9 86 dd 3e ca 86 dd 3e
       0.4326697 0.4326697 0.43266895 0.43266898
0000e0 aa 86 dd 3e c1 86 dd 3e fd 86 dd 3e 67 86 dd 3e
       0.43266803 0.43266872 0.4326705 0.43266603
0000f0 ea 86 dd 3e c8 86 dd 3e 15 87 dd 3e e4 86 dd 3e
       0.43266994 0.43266892 0.43267122 0.43266976
000100 4f 87 dd 3e 86 86 dd 3e 93 86 dd 3e cb 86 dd 3e
       0.43267295 0.43266696 0.43266734 0.432669
000110 d0 86 dd 3e 90 86 dd 3e dd 86 dd 3e cd 86 dd 3e
       0.43266916 0.43266726 0.43266955 0.43266907
000120 c1 86 dd 3e 7f 86 dd 3e 10 87 dd 3e b2 86 dd 3e
       0.43266872 0.43266675 0.43267107 0.43266827
000130 db 86 dd 3e 6d 86 dd 3e be 86 dd 3e b5 86 dd 3e
       0.4326695 0.4326662 0.43266863 0.43266836
000140 33 87 dd 3e b6 86 dd 3e 68 86 dd 3e fb 86 dd 3e
       0.4326721 0.4326684 0.43266606 0.43267044
000150 be 86 dd 3e ca 86 dd 3e 11 87 dd 3e 91 86 dd 3e
       0.43266863 0.43266898 0.4326711 0.4326673
000160 91 86 dd 3e a4 86 dd 3e ed 86 dd 3e c9 86 dd 3e
       0.4326673 0.43266785 0.43267003 0.43266895
000170 ea 86 dd 3e c1 86 dd 3e ac 86 dd 3e a4 86 dd 3e
       0.43266994 0.43266872 0.4326681 0.43266785
000180 01 87 dd 3e cf 86 dd 3e 07 86 dd 3e 93 86 dd 3e
       0.43267062 0.43266913 0.43266317 0.43266734
000190 06 87 dd 3e f3 86 dd 3e d3 86 dd 3e 01 87 dd 3e
       0.43267077 0.4326702 0.43266925 0.43267062
0001a0 68 86 dd 3e c3 86 dd 3e b8 86 dd 3e da 86 dd 3e
       0.43266606 0.43266878 0.43266845 0.43266946
0001b0 92 86 dd 3e d3 86 dd 3e a5 86 dd 3e a5 86 dd 3e
       0.43266732 0.43266925 0.43266788 0.43266788
0001c0 c1 86 dd 3e 06 86 dd 3e cf 86 dd 3e 7c 86 dd 3e
       0.43266872 0.43266314 0.43266913 0.43266666
0001d0 d3 86 dd 3e 03 87 dd 3e 06 87 dd 3e 4c 86 dd 3e
       0.43266925 0.43267068 0.43267077 0.43266523
0001e0 65 86 dd 3e 6b 86 dd 3e a9 86 dd 3e ca 86 dd 3e
       0.43266597 0.43266615 0.432668 0.43266898
0001f0 43 87 dd 3e 17 87 dd 3e 30 87 dd 3e 13 87 dd 3e
       0.4326726 0.43267128 0.43267202 0.43267116
000200 e9 86 dd 3e a3 86 dd 3e 9a 86 dd 3e 9a 86 dd 3e
       0.4326699 0.43266782 0.43266755 0.43266755
000210 e6 86 dd 3e 90 86 dd 3e 6a 86 dd 3e a8 86 dd 3e
       0.43266982 0.43266726 0.43266612 0.43266797
000220 8e 86 dd 3e 29 86 dd 3e b5 86 dd 3e 39 86 dd 3e
       0.4326672 0.4326642 0.43266836 0.43266466
000230 08 87 dd 3e 82 86 dd 3e 16 86 dd 3e 03 87 dd 3e
       0.43267083 0.43266684 0.43266362 0.43267068
000240 9d 86 dd 3e 9f 86 dd 3e dd 86 dd 3e f3 86 dd 3e
       0.43266764 0.4326677 0.43266955 0.4326702
000250 da 86 dd 3e c9 86 dd 3e e0 86 dd 3e 7a 86 dd 3e
       0.43266946 0.43266895 0.43266964 0.4326666
000260 f1 86 dd 3e 8c 86 dd 3e b5 86 dd 3e b9 86 dd 3e
       0.43267015 0.43266714 0.43266836 0.43266848
000270 96 86 dd 3e d2 86 dd 3e 93 86 dd 3e 66 86 dd 3e
       0.43266743 0.43266922 0.43266734 0.432666
000280 a2 86 dd 3e 82 86 dd 3e a7 86 dd 3e d0 86 dd 3e
       0.4326678 0.43266684 0.43266794 0.43266916
000290 0a 86 dd 3e 15 87 dd 3e bb 86 dd 3e 19 87 dd 3e
       0.43266326 0.43267122 0.43266854 0.43267134
0002a0 94 86 dd 3e 7f 86 dd 3e 08 87 dd 3e d3 86 dd 3e
       0.43266737 0.43266675 0.43267083 0.43266925
0002b0 a9 86 dd 3e ac 86 dd 3e 2b 87 dd 3e 9f 86 dd 3e
       0.432668 0.4326681 0.43267187 0.4326677
0002c0 b8 86 dd 3e cc 86 dd 3e ce 86 dd 3e 68 86 dd 3e
       0.43266845 0.43266904 0.4326691 0.43266606
0002d0 c1 86 dd 3e 71 86 dd 3e 9d 86 dd 3e fd 86 dd 3e
       0.43266872 0.43266633 0.43266764 0.4326705
0002e0 86 86 dd 3e ed 86 dd 3e c8 86 dd 3e d3 86 dd 3e
       0.43266696 0.43267003 0.43266892 0.43266925
0002f0 b9 86 dd 3e 83 86 dd 3e 9f 86 dd 3e a0 86 dd 3e
       0.43266848 0.43266687 0.4326677 0.43266773
000300 5d 86 dd 3e d7 86 dd 3e dc 86 dd 3e 0d 87 dd 3e
       0.43266574 0.43266937 0.43266952 0.43267098
000310 d9 86 dd 3e ad 86 dd 3e ba 86 dd 3e f2 86 dd 3e
       0.43266943 0.43266812 0.4326685 0.43267018
000320 e9 86 dd 3e a2 86 dd 3e 9a 86 dd 3e 23 86 dd 3e
       0.4326699 0.4326678 0.43266755 0.432664
000330 6d 86 dd 3e de 86 dd 3e cb 86 dd 3e b5 86 dd 3e
       0.4326662 0.43266958 0.432669 0.43266836
000340 d8 86 dd 3e de 86 dd 3e c0 86 dd 3e 15 87 dd 3e
       0.4326694 0.43266958 0.4326687 0.43267122
000350 eb 86 dd 3e 71 86 dd 3e b5 86 dd 3e cf 86 dd 3e
       0.43266997 0.43266633 0.43266836 0.43266913
000360 e9 86 dd 3e e5 86 dd 3e 02 87 dd 3e c9 86 dd 3e
       0.4326699 0.4326698 0.43267065 0.43266895
000370 e3 86 dd 3e 15 87 dd 3e 7d 86 dd 3e 9c 86 dd 3e
       0.43266973 0.43267122 0.4326667 0.4326676
000380 0a 87 dd 3e ba 86 dd 3e f1 86 dd 3e a9 86 dd 3e
       0.4326709 0.4326685 0.43267015 0.432668
000390 cb 86 dd 3e bf 86 dd 3e 45 87 dd 3e e7 86 dd 3e
       0.432669 0.43266866 0.43267265 0.43266985
0003a0 a4 86 dd 3e e8 85 dd 3e b4 86 dd 3e b6 86 dd 3e
       0.43266785 0.43266225 0.43266833 0.4326684
0003b0 51 86 dd 3e 0c 87 dd 3e b5 86 dd 3e a7 86 dd 3e
       0.43266538 0.43267095 0.43266836 0.43266794
0003c0 c9 86 dd 3e d4 86 dd 3e ae 86 dd 3e af 86 dd 3e
       0.43266895 0.43266928 0.43266815 0.43266818
0003d0 fc 86 dd 3e 60 86 dd 3e 91 86 dd 3e b6 86 dd 3e
       0.43267047 0.43266582 0.4326673 0.4326684
0003e0 d3 86 dd 3e 3f 86 dd 3e a7 86 dd 3e 04 87 dd 3e
       0.43266925 0.43266484 0.43266794 0.4326707
0003f0 fa 86 dd 3e ba 86 dd 3e 95 86 dd 3e a8 86 dd 3e
       0.4326704 0.4326685 0.4326674 0.43266797
