checkpoints/trial_0_alpha0.713_beta0.898_lr0.003depth1_mlpTrue_hdim128/checkpoint.pth (torch, 492386 bytes, 15 tensors)

root.gating.0.weight f4 [16, 437]
000000 cc e4 b9 3b 42 62 ec 3b 10 bf 1c ba 39 5c 7a b7
       0.0056730267 0.0072138617 -0.0005979398 -1.4922633e-05
000010 b4 15 6a bb 31 35 ec bc 71 21 4b 3d eb 23 3d 3d
       -0.0035718502 -0.028833957 0.04959244 0.046176832
000020 ff 68 03 3d 25 0d ac bb e5 be 8f bc 7f e9 a1 3c
       0.032082554 -0.0052505904 -0.01754708 0.01976466
000030 bc 04 3d 3d b2 c1 6c bc fc 46 8b 3c 99 b1 6c b8
       0.046147093 -0.014450477 0.017001621 -5.6432185e-05
000040 23 46 80 3c 56 a2 ec 3c 99 71 41 3d d6 ee 00 3d
       0.015658444 0.028886002 0.047227476 0.03147777
000050 0a 5c ae bc 2e 7d 0e 3c e3 0c 38 3d 2b 61 6a 3d
       -0.021284122 0.008696837 0.044934165 0.057221573
000060 de fc 44 bb a7 fd c5 3b d7 3a b5 bc 0b 56 99 bc
       -0.0030057947 0.0060422006 -0.022122784 -0.018717786
000070 41 b6 10 3d 83 ad a6 3c 34 f4 af 3c 83 32 f7 3c
       0.03533006 0.020346409 0.02147875 0.030175453
000080 e5 ad d8 bc 61 38 67 3d 9c d8 61 3c 70 12 c1 3b
       -0.026450107 0.05645025 0.013784554 0.0058920905
000090 98 69 2d 3d 1f 64 a5 3b ef 9a d0 b8 8f 4d 4e 3d
       0.04233703 0.0050473358 -9.9470715e-05 0.050366934
0000a0 e3 d8 f4 3c 9b cf 41 3d db ce 7f 3c c9 10 e4 3c
       0.029888576 0.04731713 0.015613283 0.027840035
0000b0 bd 97 d7 3c cf 04 26 3d 68 40 22 bd f0 1e 04 3c
       0.026317472 0.04053193 -0.039612204 0.008064017
0000c0 da 53 47 3c 04 5b 93 3c 9c b0 6a 3d ec 3b 8e 3c
       0.012165988 0.017987736 0.057297334 0.017362557
0000d0 7a 1b cc 3c 5a d2 2b 3d c3 9a d0 3c 36 f1 d4 3b
       0.024915446 0.041948654 0.025464421 0.006498481
0000e0 97 55 3b 3d f4 a5 e4 bc 94 d1 1b 3d 6e 3e 35 bc
       0.04573592 -0.027911164 0.038041666 -0.011062248
0000f0 c3 44 87 bb 6b 87 52 3c ab 9c 50 3c 15 b7 56 3d
       -0.00412807 0.012849669 0.012732665 0.052420694
000100 cc c3 13 3b 04 c9 d6 3c 13 1e 49 3d 9a 10 6a 3d
       0.0022547124 0.026218899 0.049100947 0.05714474
000110 e8 6e 34 3d d3 fe 89 3c 29 e8 95 3b 35 60 a5 3c
       0.04405108 0.016845142 0.004574795 0.020187477
000120 f7 be 26 3c a8 2c 86 3c 68 f2 0c 3d cd ff d3 3c
       0.0101773655 0.016378716 0.034410864 0.025878811
000130 48 67 9c 3b 31 fc eb 3c 27 cd b4 3c aa b6 7a 3c
       0.0047730543 0.028806778 0.02207048 0.01530234
000140 82 60 6f ba 8e b5 d6 bc 47 c4 13 bc 3c de 21 3d
       -0.0009131507 -0.026209619 -0.009018964 0.03951858
000150 28 83 13 3b f1 59 52 3d 53 8c b0 3c 7a 79 f0 3b
       0.0022508595 0.051355306 0.021551287 0.0073387
000160 eb ae 66 3c 16 7e c2 3c 9f cc ce 3b 89 9b 3d 3d
       0.01407979 0.023741763 0.006311014 0.046290908
000170 75 54 38 3b 7d 4b 58 bc f4 66 2b 3c fc ac a7 3a
       0.0028126512 -0.013201592 0.010461558 0.0012792642
000180 10 86 22 3c 6b 0f 53 bb 45 a8 e4 3c ae 55 08 3d
       0.009919658 -0.0032205235 0.027912268 0.033284836
000190 14 14 56 3d b1 1a f3 3c 66 41 02 3d 3b e2 5f bb
       0.05226524 0.029675813 0.03180065 -0.0034161943
0001a0 da a6 0a 3c 8d a7 3f 3d 81 e2 c1 b9 1d 91 d9 3a
       0.008462632 0.04679065 -0.00036980587 0.0016599033
0001b0 2c 4b ef bc 01 af b6 3b dc 12 26 3d c0 28 23 3d
       -0.02921065 0.0055750613 0.04054533 0.039833784
0001c0 91 2a a8 bb 3f 96 13 bc 20 c7 6a 3c 0c fe 79 bb
       -0.0051320274 -0.009007989 0.014329702 -0.0038145809
0001d0 58 a9 50 3c a7 bc 3a 3d 18 80 19 3d 0f 51 31 bc
       0.012735687 0.04559007 0.037475675 -0.0108225485
0001e0 f0 53 5f 3c 20 20 55 3d 1d 92 6d 3c 6d 70 02 3c
       0.013630852 0.05203259 0.014500168 0.007961375
0001f0 ba 10 87 3b 60 a0 87 3c ee 8e 0a 3d b0 e9 20 3c
       0.004121867 0.016555965 0.033827715 0.00982134
000200 80 2c 56 3d 43 5e b4 3c 46 90 ba bc f6 1d ae bc
       0.052288532 0.022017604 -0.022773873 -0.02125452
000210 0a d4 98 3b 39 0b 27 3d cc 1a 58 3d 53 7e 09 bc
       0.004663949 0.040782187 0.05275993 -0.008391934
000220 1a 12 a9 3c 98 3e 98 bc 25 69 5a 3c 89 e5 19 3d
       0.020638514 -0.018584535 0.0133307325 0.037572417
000230 f2 0a 88 3b a5 0a 5f 3c 75 26 57 bc 81 78 4f 3d
       0.0041516954 0.013613378 -0.013131727 0.05065203
000240 8b 92 51 3d a6 7b 9f 3c d0 61 1e 3d 06 9a ec 3c
       0.051165145 0.01946814 0.0386675 0.028882038
000250 1e 63 44 bc 2d a6 1b 3d cd 3c 63 3d b1 0f 38 3d
       -0.011986522 0.038000274 0.055477906 0.04493684
000260 b3 a0 e4 bc ea 41 70 bc e5 06 7e 3c f9 b3 1b 3d
       -0.027908659 -0.014664153 0.0155045735 0.038013432
000270 b1 7f 84 3d e7 09 60 3d 82 21 81 3c 48 7e 5b bc
       0.06469668 0.054696944 0.015763048 -0.013396807
000280 29 aa 98 3c 95 74 c6 3c d8 95 9b 3c b3 32 d2 bc
       0.018635826 0.024225513 0.01899235 -0.02565894
000290 1d 84 4d 3c 7c f5 0f 3c 97 78 2a 3d c7 c4 e7 3c
       0.012543705 0.008786555 0.04161891 0.028292073
0002a0 bc 29 19 3d a2 2c b0 3c d5 92 9b 3c e4 90 49 3d
       0.037393317 0.021505658 0.018990913 0.049210444
0002b0 74 4f 7e 3c 3c 1c 67 3d 64 fd 16 3d 12 dc 06 3d
       0.015521873 0.05642341 0.036862746 0.03292472
0002c0 40 87 12 3d 36 fc 66 3d cc 5d 49 3d 87 53 6d 3c
       0.035773516 0.05639287 0.049161717 0.0144852465
0002d0 ac 16 db bc 51 fe 1c 3d e7 21 d8 3b 69 cd e8 3c
       -0.02674421 0.038328473 0.0065958383 0.02841826
0002e0 be b0 29 3d b9 ed b9 3c 55 1b 46 bc 37 b8 bc 3c
       0.04142832 0.022696363 -0.012091477 0.02303706
0002f0 9a 45 4e 3c 2b 69 13 3d 6d ea 70 bc ce 73 db bc
       0.0125898365 0.035988968 -0.014704329 -0.026788618
000300 31 fb 24 3d 04 c2 c6 3c e6 d2 3d 3d a7 84 fa 3c
       0.040278617 0.024262436 0.046343707 0.030580832
000310 29 f5 0f 3d ba 5a ca bb a3 80 1d 3c 0f a2 89 3c
       0.035145912 -0.006175366 0.009613189 0.016800908
000320 72 c7 ca 3b 3e b3 5d bc 4f ff 81 ba 21 4d 83 3c
       0.0061883265 -0.013531504 -0.0009918007 0.016027989
000330 eb e8 ef 3c 12 29 27 3d 86 03 ad 3c 93 1b 95 bc
       0.029285869 0.040810652 0.021119844 -0.018201625
000340 29 e9 18 3c 07 64 dd 3c 93 a6 46 3d 27 67 01 3d
       0.009332933 0.027025236 0.0484987 0.031592514
000350 f3 2a 9d 3c f8 aa 96 3b c5 53 a4 3a 65 55 78 3c
       0.019185519 0.004598018 0.0012537172 0.015157078
000360 5b ca 5b 3d 3b 03 17 3c c6 17 cb bb 41 b6 00 3c
       0.053659778 0.009217079 -0.0061979024 0.007855953
000370 e7 be ef 3c 5d 40 1d 3d 64 f8 50 bc 15 0a 08 bc
       0.029265834 0.03839146 -0.012754533 -0.008303185
000380 da 62 f6 3c 2f e2 11 3d cd 96 44 3d 6b 6a 29 3d
       0.030076433 0.035616096 0.047995377 0.041361254
000390 4d 90 5a 3d 5c a4 83 3c 36 4a 81 bc f3 2a df 3c
       0.053360272 0.016069584 -0.015782457 0.02724216
0003a0 4a 79 0e 3d c4 8b 4c 3d c4 88 ae 3c 70 cb c5 3c
       0.03478364 0.04993798 0.02130545 0.024144858
0003b0 72 22 ee bb c4 36 6b 3b 80 7c 39 3c 60 14 b9 3b
       -0.00726729 0.0035890797 0.011321187 0.005648181
0003c0 20 ed e7 3c 69 92 03 3b f6 06 58 3d 85 b4 5b 3c
       0.028311312 0.002007628 0.052741013 0.013409738
0003d0 c9 c1 63 bc 17 19 0b bd 17 d4 c3 3b eb 6d 81 3c
       -0.013901182 -0.033959474 0.005976211 0.015799483
0003e0 66 f7 02 3c 3c f0 58 3d 4f 9c 00 3d c0 4f a6 bc
       0.007993555 0.05296348 0.031399067 -0.0203017
0003f0 61 cd 0d 3d 31 9b 70 3b ac 2b 56 3c 64 67 0b 3c
       0.034619693 0.0036713595 0.013071936 0.008508537

root.gating.0.bias f4 [16]
000000 91 0c 53 3d 9f 8d 27 3d e5 52 5d bd 24 07 e1 bc
       0.051525656 0.040906545 -0.054034133 -0.027469225
000010 88 67 92 3a 0d 6e 25 bc 88 60 90 39 48 38 c2 bc
       0.0011169771 -0.010097039 0.00027537742 -0.023708478
000020 3a c6 60 3d e8 6a 22 3d 67 6b 47 3a b3 29 e9 3a
       0.054876544 0.039652735 0.0007607252 0.0017788917
000030 1c 5a e5 ba c9 45 13 3b 58 d9 f6 3b 66 26 38 3a
       -0.0017498168 0.0022472015 0.0075332336 0.0007024765

root.gating.2.weight f4 [1, 16]
000000 13 cf 78 3e 8c 6b 61 3e 31 26 71 be c0 ab 2c 3e
       0.24297743 0.22013682 -0.23549725 0.16862392
000010 7d 9d 0d 3b 42 5b 9c bd 21 5d 5a 3c 0d 25 13 3e
       0.0021608763 -0.076345935 0.013327868 0.14369603
000020 d4 7e 2d 3e c6 a8 e7 3d 3d f2 74 3d a4 5e 8b bd
       0.16942912 0.11311488 0.05980133 -0.06805161
000030 8e 30 8a 3b 59 de cb bd 13 6f a2 3d a1 d3 02 be
       0.004217214 -0.09954519 0.07931342 -0.12776043

root.left_child.w f4 [437]
000000 0b f6 95 35 9e 5d b9 34 b8 49 dc b3 8e ce 4f 35
       1.1172973e-06 3.452705e-07 -1.0257958e-07 7.7414086e-07
000010 1e 29 4a b5 63 35 55 b6 19 74 9c 34 72 3f 65 32
       -7.53107e-07 -3.1770549e-06 2.9141736e-07 1.334398e-08
000020 29 68 b7 b2 9e 44 96 b2 a2 85 5f b4 58 7b cb b3
       -2.135137e-08 -1.7493502e-08 -2.0817109e-07 -9.47536e-08
000030 71 b3 ff b4 f7 4d 34 33 6d 2a 86 33 02 ee b6 38
       -4.7628012e-07 4.1980424e-08 6.2475785e-08 8.722769e-05
000040 b1 04 fc b4 43 62 96 b4 0a ed 63 31 18 31 86 34
       -4.694207e-07 -2.8011172e-07 3.3167589e-09 2.4995165e-07
000050 a7 60 42 33 91 63 7a b4 ee 43 1e 33 2d fb 2a 34
       4.525705e-08 -2.3319286e-07 3.6849023e-08 1.5923861e-07
000060 30 e7 db b3 d5 48 da 32 ac 98 31 b5 95 a7 ba b2
       -1.0240035e-07 2.541166e-08 -6.6159805e-07 -2.1729457e-08
000070 30 be 93 34 d5 c9 4f 32 c4 25 e2 31 c8 85 df b3
       2.7519263e-07 1.2094877e-08 6.581759e-09 -1.04085814e-07
000080 6e f3 d7 b3 8f 3d ad 30 6c 39 26 b0 bc 0c 1a b2
       -1.0055997e-07 1.2604903e-09 -6.047205e-10 -8.966875e-09
000090 cc 93 28 b3 c9 d2 d1 b3 65 e6 bb 35 9a 5a e6 31
       -3.924997e-08 -9.7706625e-08 1.3999639e-06 6.704181e-09
0000a0 db 38 82 b7 28 7b 01 af 4a ef b4 b3 8f 9c a0 b4
       -1.5523683e-05 -1.1776236e-10 -8.4254296e-08 -2.9916234e-07
0000b0 6a 1a 9e b1 14 f4 1e b2 d6 60 67 b2 cc 1e f9 b2
       -4.601408e-09 -9.252307e-09 -1.3467988e-08 -2.900142e-08
0000c0 e1 4b 8a b3 64 8a 3b 36 77 16 0b 34 8d 31 44 b3
       -6.439928e-08 2.7945725e-06 1.2953556e-07 -4.5679872e-08
0000d0 a9 39 8c b4 35 28 12 33 87 4f c4 b3 62 1e e0 b4
       -2.6118985e-07 3.4029842e-08 -9.141427e-08 -4.1745358e-07
0000e0 9e 57 15 34 eb b2 87 33 36 82 ab b2 a3 62 56 b3
       1.3908581e-07 6.3189724e-08 -1.9966233e-08 -4.9915467e-08
0000f0 ee 59 4c 33 0b 39 93 b4 bd 93 bc b3 c3 fc c9 32
       4.7579242e-08 -2.7422388e-07 -8.7813056e-08 2.3514422e-08
000100 fc 04 04 36 66 62 76 b3 49 50 b4 32 1e e6 f7 34
       1.9672434e-06 -5.736583e-08 2.0991267e-08 4.6174767e-07
000110 b9 ac 7c 33 d0 81 c1 34 36 a6 52 b3 1a 5f a5 b3
       5.8830413e-08 3.6043502e-07 -4.9045603e-08 -7.70071e-08
000120 f4 85 09 35 37 89 25 b5 56 af 76 33 e2 72 91 b1
       5.1231405e-07 -6.1666964e-07 5.7435805e-08 -4.233116e-09
000130 96 8b 0e 33 6a 47 ca 34 8d 1e 6b 34 a0 ea 97 b4
       3.3188904e-08 3.7677393e-07 2.1897195e-07 -2.8296654e-07
000140 72 50 bb b3 e2 bc b0 b4 e6 56 bc b3 78 c6 82 b4
       -8.722499e-08 -3.2919985e-07 -8.770239e-08 -2.4358792e-07
000150 01 a6 d5 b4 3c 8c d8 b3 04 f3 7d b2 47 43 e2 b0
       -3.9795125e-07 -1.0083792e-07 -1.4781794e-08 -1.6462786e-09
000160 ae de 53 32 81 e6 9a 35 d7 4a 93 b4 e7 13 88 3a
       1.2332448e-08 1.154098e-06 -2.7435337e-07 0.0010381908
000170 bf 5b 49 b1 76 20 08 34 a8 81 a2 b2 aa 6e a1 34
       -2.9301501e-09 1.2677796e-07 -1.8918243e-08 3.0069106e-07
000180 ea a8 ca b4 8e e4 c8 34 b7 84 6e 36 72 69 ff 32
       -3.7748333e-07 3.7419198e-07 3.5542014e-06 2.9733858e-08
000190 76 d5 b5 b2 43 8e ac b3 e7 a7 05 b4 92 c8 d1 b2
       -2.1168244e-08 -8.0352514e-08 -1.2447673e-07 -2.4422011e-08
0001a0 4a 7a 03 33 e1 45 cc b4 3c 0b fd b1 eb 3e 4a b4
       3.0612036e-08 -3.8048805e-07 -7.3645463e-09 -1.8835605e-07
0001b0 fb 57 6f b3 35 70 ae b2 41 f2 c0 b4 fa 1d f9 31
       -5.572654e-08 -2.0307292e-08 -3.593905e-07 7.2502617e-09
0001c0 ea d3 b3 b5 06 4c c8 34 30 4d 2e b4 ea 51 3a 34
       -1.3398214e-06 3.7308217e-07 -1.6233093e-07 1.73524e-07
0001d0 ef 01 9e 35 40 ad 0a 35 5a d8 30 31 1a 51 c5 b4
       1.177248e-06 5.166112e-07 2.5734352e-09 -3.675312e-07
0001e0 8b c4 ab 33 4b 41 94 b3 99 10 76 b2 7c f0 54 34
       7.998559e-08 -6.903664e-08 -1.43228585e-08 1.9831526e-07
0001f0 21 9e 38 b5 39 27 9c 33 95 22 df b3 63 b6 fb 33
       -6.877545e-07 7.2714506e-08 -1.0390537e-07 1.1721274e-07
000200 62 97 69 b4 06 6d 4b b4 60 71 39 b3 d6 f6 c0 b4
       -2.1754889e-07 -1.8945511e-07 -4.3176783e-08 -3.5942384e-07
000210 2c c3 8a 35 5e d5 15 b2 49 b6 c8 32 89 d0 24 33
       1.0338604e-06 -8.721456e-09 2.3365958e-08 3.8373887e-08
000220 9f 2a 92 b4 7f 55 13 b4 49 9d cd b4 66 67 57 34
       -2.722563e-07 -1.3721545e-07 -3.8298666e-07 2.0061051e-07
000230 ef b8 4c 35 cf 72 8b b0 99 e9 f5 b4 7b 12 b2 b4
       7.6265036e-07 -1.0146212e-09 -4.580477e-07 -3.316853e-07
000240 b6 b1 52 33 5e 11 9e b2 8d 95 94 b2 45 8c 85 b3
       4.9056062e-08 -1.8401519e-08 -1.7297475e-08 -6.21881e-08
000250 53 d8 02 35 5f 16 8f b4 db 42 9d b4 05 6f 59 33
       4.8743567e-07 -2.6652103e-07 -2.9292173e-07 5.062522e-08
000260 6e 40 0a 3b 6f 8d 0b 34 e4 7a e0 32 01 b7 45 35
       0.0021095532 1.2996837e-07 2.6132916e-08 7.3654525e-07
000270 03 48 40 b4 85 02 bd 34 1f c5 73 33 f0 59 c4 b4
       -1.7907591e-07 3.5205827e-07 5.6757127e-08 -3.6573283e-07
000280 8b bd c8 b3 49 d5 f2 b1 77 cc 91 b3 6f a4 91 33
       -9.3477034e-08 -7.0673747e-09 -6.7892806e-08 6.781999e-08
000290 ae 81 52 b4 6f 62 38 33 89 e2 82 34 6e ec c0 b4
       -1.9604951e-07 4.2930363e-08 2.4379213e-07 -3.5934812e-07
0002a0 8c 77 19 b3 a9 42 bc b3 44 de 54 37 bb 04 19 b3
       -3.5731816e-08 -8.7665576e-08 1.2687935e-05 -3.562739e-08
0002b0 43 32 8f b2 66 a2 e5 33 78 be 0a 35 27 fc 2c b4
       -1.6670247e-08 1.06931836e-07 5.1686175e-07 -1.6110481e-07
0002c0 40 63 e8 33 e9 ed 41 33 61 15 0b b3 d0 51 88 31
       1.0821395e-07 4.5152692e-08 -3.2382903e-08 3.967422e-09
0002d0 11 bb 98 b1 35 bf ea b2 ad 7a 9a 37 65 88 81 32
       -4.445049e-09 -2.7328136e-08 1.8415356e-05 1.5079602e-08
0002e0 59 54 e6 b1 69 d0 a7 32 15 18 fe 34 e9 cb 4c b3
       -6.7034702e-09 1.9536133e-08 4.732871e-07 -4.7682907e-08
0002f0 18 62 2d 32 89 9c 23 b3 49 92 22 b3 d8 c6 0f 34
       1.0092229e-08 -3.8093763e-08 -3.785161e-08 1.3390252e-07
000300 4f 25 a9 b1 4a 27 87 b5 3b 6d 79 32 19 f2 67 b4
       -4.922789e-09 -1.0069718e-06 1.4518544e-08 -2.1601626e-07
000310 b8 10 b4 31 9d bd e4 36 d8 30 9c b4 12 40 75 33
       5.24059e-09 6.8170034e-06 -2.9092803e-07 5.710178e-08
000320 94 65 bf b2 dc 45 77 34 a1 bb c7 33 2e 82 4f 34
       -2.2281519e-08 2.3029082e-07 9.300789e-08 1.9325736e-07
000330 ac 3f 1d 34 02 72 a0 b4 c1 52 a9 b3 f2 0c 7e b5
       1.4644928e-07 -2.9885274e-07 -7.8847286e-08 -9.464121e-07
000340 d8 a2 9a 34 a8 d5 c0 33 96 c4 11 34 25 bd 4d 34
       2.880322e-07 8.9795606e-08 1.3575695e-07 1.9160923e-07
000350 2c e3 87 32 9e 88 7f 33 00 84 c2 33 1f 04 3b b4
       1.5819374e-08 5.9496067e-08 9.0578396e-08 -1.7417231e-07
000360 0f f4 26 b2 46 a6 66 33 dd fa 68 34 69 ef d5 33
       -9.717964e-09 5.3702273e-08 2.1697947e-07 9.962134e-08
000370 12 4f fd 38 d0 ce 3e b5 b2 b8 82 34 7d 4c 3f b4
       0.00012078708 -7.108147e-07 2.434877e-07 -1.7816087e-07
000380 f0 38 2c b2 14 a9 79 b3 18 5b a8 32 76 a7 d9 35
       -1.0024664e-08 -5.8128606e-08 1.9599199e-08 1.6216497e-06
000390 79 26 14 b5 c6 1f cf 32 f3 41 0d b2 2f b1 04 33
       -5.519028e-07 2.411242e-08 -8.222275e-09 3.0894793e-08
0003a0 3d 3b 91 b3 8f d7 b7 b1 19 76 54 b4 d1 83 bc 32
       -6.762864e-08 -5.350507e-09 -1.9787002e-07 2.1946024e-08
0003b0 20 80 62 b6 db 7f 9c 34 bd 7f 2d 33 85 e2 b5 38
       -3.3751203e-06 2.9150291e-07 4.039588e-08 8.672945e-05
0003c0 bc 4c 6e b4 51 8e 69 b4 ec 60 36 b3 ea 9b 71 b3
       -2.2193393e-07 -2.175159e-07 -4.2463327e-08 -5.6253988e-08
0003d0 9f a4 c9 b4 ca 4d 5e b4 e5 c2 1a 32 57 a2 36 b4
       -3.7558945e-07 -2.070366e-07 9.008294e-09 -1.700913e-07
0003e0 91 76 46 b2 69 3a 58 34 88 48 88 b1 e6 dc 05 34
       -1.1552076e-08 2.0137817e-07 -3.966367e-09 1.2466953e-07
0003f0 ae da 3a b3 1d 4c 49 b4 62 a1 96 32 e8 b3 35 b2
       -4.3505388e-08 -1.8747274e-07 1.7535687e-08 -1.0576493e-08

root.left_child.feature_selector.logit_phi f4 [437]
000000 da e1 53 bf f5 58 52 bf ae 48 54 bf 07 3d 54 bf
       -0.827665 -0.8216699 -0.829234 -0.8290562
000010 99 b2 53 bf fe 16 54 bf d8 6d 53 bf ff 9a 51 bf
       -0.82694393 -0.82847583 -0.82589483 -0.8187713
000020 82 19 53 bf 5b 77 54 bf 09 e1 53 bf b8 c3 51 bf
       -0.82460797 -0.8299462 -0.8276525 -0.8193927
000030 66 b0 53 bf 85 a2 53 bf 44 77 54 bf 08 fb 53 bf
       -0.8269104 -0.8266986 -0.82994485 -0.8280492
000040 d2 d0 53 bf b1 91 53 bf 80 2d 53 bf a5 67 52 bf
       -0.8274051 -0.8264418 -0.824913 -0.821894
000050 c3 da 53 bf 76 5f 53 bf 57 37 53 bf c9 06 53 bf
       -0.8275568 -0.82567537 -0.82506317 -0.8243223
000060 6d 62 54 bf 91 93 53 bf 42 4b 54 bf 35 c1 53 bf
       -0.82962686 -0.82647043 -0.82927334 -0.82716686
000070 73 ba 52 bf 7c 7b 53 bf ca 9b 53 bf 79 4d 54 bf
       -0.8231575 -0.826103 -0.8265959 -0.82930714
000080 8c b0 53 bf ea 10 54 bf ff 0b 52 bf f7 7c 53 bf
       -0.82691264 -0.8283831 -0.82049555 -0.82612556
000090 9a 4b 54 bf cd 87 54 bf 2b e4 53 bf 7e 7b 53 bf
       -0.8292786 -0.83019716 -0.8277003 -0.8261031
0000a0 59 5e 52 bf c6 b4 53 bf c9 ac 54 bf d8 06 54 bf
       -0.82175213 -0.82697713 -0.8307615 -0.8282294
0000b0 9b e7 52 bf fb 8a 52 bf 2a 85 53 bf 54 2c 54 bf
       -0.8238465 -0.8224332 -0.8262507 -0.8288014
0000c0 a4 4a 54 bf 4a 5d 54 bf fd 1d 53 bf 68 f4 53 bf
       -0.8292639 -0.8295485 -0.82467633 -0.8279481
0000d0 21 7d 53 bf 81 df 53 bf 44 f0 52 bf 0b 43 52 bf
       -0.82612807 -0.82762915 -0.82397866 -0.8213355
0000e0 d0 84 50 bf 3d 52 54 bf c2 79 54 bf df 7e 54 bf
       -0.81452656 -0.82937986 -0.8299829 -0.8300609
0000f0 85 f4 52 bf 91 1f 54 bf d4 e6 53 bf 0e 17 52 bf
       -0.8240436 -0.82860667 -0.8277409 -0.8206643
000100 0c e6 54 bf 95 cd 54 bf 44 6c 4f bf 1b 2f 52 bf
       -0.83163524 -0.83126193 -0.81024575 -0.8210313
000110 aa 38 54 bf 36 5f 53 bf 50 cb 52 bf 34 18 54 bf
       -0.8289896 -0.82567155 -0.8234148 -0.8284943
000120 42 44 53 bf 5c f8 52 bf bd 86 52 bf d8 dd 52 bf
       -0.8252603 -0.82410216 -0.82236844 -0.82369757
000130 4c 08 53 bf c2 2c 51 bf 70 45 53 bf a6 b1 53 bf
       -0.82434535 -0.8170892 -0.8252783 -0.82692945
000140 1a 27 53 bf c7 5a 54 bf 28 af 53 bf fa 0b 53 bf
       -0.8248154 -0.82951015 -0.8268914 -0.8244015
000150 df d1 54 bf e2 cd 53 bf 79 58 54 bf 19 b5 53 bf
       -0.8313274 -0.8273603 -0.829475 -0.8269821
000160 b6 68 53 bf b1 36 50 bf ed 91 53 bf dd a9 53 bf
       -0.8258165 -0.8133345 -0.8264454 -0.82681066
000170 fa 6d 53 bf 9d 4f 53 bf 77 0b 52 bf 9a 7a 53 bf
       -0.82589686 -0.82543355 -0.82048744 -0.8260895
000180 ec 71 53 bf 08 96 54 bf 65 0b 54 bf e7 bc 51 bf
       -0.82595706 -0.8304143 -0.82829887 -0.8192887
000190 33 8d 53 bf 78 56 53 bf 1b 45 52 bf b1 58 53 bf
       -0.8263733 -0.82553816 -0.82136697 -0.8255721
0001a0 d0 77 52 bf 77 41 53 bf 95 e2 54 bf 49 8d 54 bf
       -0.8221407 -0.82521766 -0.83158237 -0.83028084
0001b0 ad 54 53 bf b4 36 53 bf 8d 6f 54 bf 96 b5 52 bf
       -0.8255108 -0.82505345 -0.82982713 -0.8230833
0001c0 87 91 53 bf 77 9d 52 bf 59 10 53 bf 12 40 53 bf
       -0.8264393 -0.8227152 -0.8244682 -0.8251964
0001d0 4c af 53 bf 8f d6 52 bf 03 3e 53 bf 68 72 53 bf
       -0.82689357 -0.8235864 -0.825165 -0.82596445
0001e0 e1 20 54 bf 06 6a 50 bf 35 bd 53 bf 6e ab 53 bf
       -0.8286267 -0.8141178 -0.8271058 -0.82683456
0001f0 30 24 53 bf 06 3e 53 bf 1c cd 53 bf 7c 0e 54 bf
       -0.8247709 -0.82516515 -0.8273485 -0.828346
000200 f4 ed 52 bf c0 79 53 bf 73 6c 53 bf a7 ef 54 bf
       -0.8239434 -0.8260765 -0.82587355 -0.8317818
000210 2a 5d 52 bf 05 7c 51 bf 45 03 54 bf 23 7d 53 bf
       -0.8217341 -0.81829864 -0.8281749 -0.8261282
000220 00 4f 54 bf bb aa 53 bf f2 52 53 bf 5c e8 52 bf
       -0.82933044 -0.8268239 -0.8254844 -0.823858
000230 44 99 52 bf df 99 53 bf c6 d8 53 bf 03 b9 53 bf
       -0.82265115 -0.82656664 -0.82752645 -0.8270418
000240 3c 1b 54 bf 43 52 53 bf fa 92 53 bf 6c 10 52 bf
       -0.82854056 -0.82547396 -0.82646143 -0.8205631
000250 b6 00 54 bf 87 af 53 bf 42 ac 51 bf 7e 56 52 bf
       -0.82813585 -0.8268971 -0.8190347 -0.82163227
000260 8a 14 53 bf e0 2a 53 bf 65 46 52 bf 1d 89 51 bf
       -0.82453215 -0.824873 -0.82138664 -0.81849843
000270 ed 48 54 bf 32 c9 53 bf 4d 92 53 bf db 2d 54 bf
       -0.82923776 -0.82728875 -0.8264511 -0.8288247
000280 b2 06 52 bf 15 2e 52 bf e5 a1 52 bf 42 39 53 bf
       -0.82041466 -0.82101566 -0.8227828 -0.82509243
000290 bf 3f 53 bf ad 27 53 bf 6c cb 52 bf 27 2d 53 bf
       -0.82519144 -0.82482415 -0.8234165 -0.8249077
0002a0 08 17 54 bf 4c 35 53 bf 16 3a 54 bf 9f f6 51 bf
       -0.8284764 -0.825032 -0.8290113 -0.8201694
0002b0 f0 62 55 bf 62 fc 52 bf 38 fd 53 bf ab cf 53 bf
       -0.8335409 -0.82416356 -0.82808256 -0.8273875
0002c0 09 76 50 bf 01 20 51 bf ae 9d 53 bf 89 dd 54 bf
       -0.8143011 -0.8168946 -0.82662475 -0.83150536
0002d0 85 17 54 bf c5 be 52 bf d1 32 53 bf bf 91 54 bf
       -0.8284839 -0.8232234 -0.82499415 -0.8303489
0002e0 f0 2a 53 bf f2 ee 51 bf 08 3e 53 bf b9 8f 52 bf
       -0.8248739 -0.82005227 -0.8251653 -0.82250553
0002f0 a0 3f 52 bf 29 e9 53 bf c3 06 54 bf 10 28 54 bf
       -0.82128334 -0.8277765 -0.8282282 -0.8287363
000300 6f 63 54 bf c0 8a 52 bf 06 b2 53 bf d1 b9 52 bf
       -0.82964224 -0.82242966 -0.8269352 -0.82314783
000310 f4 73 53 bf bb 51 53 bf a3 bb 53 bf 36 ed 51 bf
       -0.82598805 -0.82546586 -0.82708186 -0.8200258
000320 68 30 53 bf ee f0 52 bf ca 27 54 bf f9 53 54 bf
       -0.8249574 -0.8239888 -0.82873213 -0.8294063
000330 20 5d 52 bf 9f a9 52 bf b9 de 53 bf 31 fc 52 bf
       -0.8217335 -0.8229007 -0.8276172 -0.82416064
000340 bf 33 53 bf ab 95 50 bf 4f 06 52 bf 4c 05 53 bf
       -0.82500833 -0.81478375 -0.82040876 -0.8242996
000350 cc 30 54 bf 41 c6 53 bf e0 8a 53 bf c2 70 52 bf
       -0.8288696 -0.82724386 -0.8263378 -0.82203305
000360 fa 81 53 bf 86 09 54 bf 65 69 53 bf f2 a1 53 bf
       -0.82620203 -0.8282703 -0.82582694 -0.82668984
000370 e8 ac 4e bf de 2e 53 bf 4d c1 52 bf 53 6c 53 bf
       -0.80732584 -0.8249339 -0.82326204 -0.82587165
000380 0e 6a 53 bf 73 0a 54 bf 90 14 52 bf f5 80 52 bf
       -0.825837 -0.82828444 -0.82062626 -0.8222802
000390 66 b5 52 bf 61 39 53 bf f3 05 53 bf fa 96 52 bf
       -0.8230804 -0.8250943 -0.8243095 -0.8226162
0003a0 64 c5 51 bf b9 fe 53 bf 80 03 54 bf f0 e0 53 bf
       -0.8194182 -0.8281055 -0.8281784 -0.827651
0003b0 a9 24 53 bf 92 f6 4f bf ee 01 51 bf 25 a2 50 bf
       -0.82477814 -0.8123561 -0.8164357 -0.8149741
0003c0 7a 3d 53 bf 8c 27 53 bf 1b 79 53 bf 06 66 52 bf
       -0.8251568 -0.8248222 -0.8260667 -0.82186925
0003d0 9d 80 53 bf d1 f9 53 bf e3 34 53 bf 23 a5 53 bf
       -0.82618123 -0.82803065 -0.82502574 -0.82673854
0003e0 9f dc 52 bf a1 05 53 bf a3 af 54 bf 4a 4c 54 bf
       -0.8236789 -0.82430464 -0.830805 -0.8292891
0003f0 9b 28 53 bf f7 e9 50 bf 92 29 53 bf 60 a2 53 bf
       -0.82483834 -0.81607 -0.82485306 -0.8266964

root.left_child.local_expert.fc1.weight f4 [128, 437]
000000 a9 63 a6 bc 8d 74 d9 bc 4e 07 a5 bc 87 3c 12 bc
       -0.020311194 -0.026544834 -0.020145085 -0.008925564
000010 ff 55 23 ba 23 f9 d9 bc 7b 24 fa 3b 07 0b ad 3c
       -0.0006230771 -0.026608055 0.0076337433 0.021123422
000020 fd 1f 1b 3a 10 18 20 3b 7c 2f 9b bc b9 21 52 b9
       0.00059175474 0.0024428405 -0.01894354 -0.00020039723
000030 28 9c 80 bc a8 5a 43 bc 23 04 57 3b e4 b8 53 bc
       -0.015699461 -0.01192347 0.0032808862 -0.012922499
000040 18 94 95 bc 37 87 5a 3c 8a a2 99 3b 64 50 01 3c
       -0.018259093 0.013337902 0.0046885656 0.007892702
000050 1c 19 b2 bb c0 03 e8 bc 59 ca 01 3b 27 61 bf 3c
       -0.005435122 -0.0283221 0.0019804446 0.023361756
000060 e0 bb 43 bd 0a 4e 88 3b 15 80 ed bb 18 a8 8e 3c
       -0.047786593 0.0041596936 -0.0072479346 0.017414138
000070 f4 a4 b5 bc c0 d9 0b 3d b4 38 a2 3c 2d d1 1b bc
       -0.022173382 0.03414321 0.019802429 -0.009510321
000080 4d 28 5c b9 80 ea 6b bc 86 ed 52 bc 06 92 e5 3a
       -0.00020995848 -0.014399171 -0.012874013 0.0017514832
000090 48 b7 6e 3b 45 3e 59 bc ca 96 09 3c c6 ae 1f bd
       0.0036425162 -0.013259475 0.008397767 -0.038985036
0000a0 df c3 bd bc 1b 4f fa bb 79 ec 64 bc f0 7e 18 3b
       -0.023164688 -0.0076388246 -0.013972395 0.002326902
0000b0 01 0f e7 3c 70 3b cf bc bf b7 d6 bc c0 c4 ae ba
       0.028205397 -0.025296897 -0.026210664 -0.0013333783
0000c0 33 2e bf bb 2d 43 15 3c ea 19 c3 bb 62 a0 ad bc
       -0.005834365 0.009110254 -0.005954017 -0.02119464
0000d0 96 cf b0 3c 37 9f b5 3c 5f c8 3b 3c 39 d4 d6 3b
       0.02158336 0.022170646 0.011461346 0.0065560606
0000e0 ec 2a b1 bc 41 31 41 3c 5a 83 a7 ba 31 c9 01 bd
       -0.021626912 0.011791528 -0.0012780235 -0.03168601
0000f0 4d b0 1c bc 27 32 7f 3c 30 18 83 3b cc f9 77 3b
       -0.009563518 0.015575922 0.004000686 0.00378381
000100 e7 96 bf 3b 06 04 ea bb 63 dc d8 bc cb 3a 19 bd
       0.0058468464 -0.007141593 -0.026472276 -0.037409585
000110 7e 35 23 3c be c9 de 3c 1d 9a e8 3a f0 b2 c3 bc
       0.009961484 0.027195808 0.0017746125 -0.023889035
000120 93 0e b7 3c 19 ff fa bb bb 2c aa bc bf e9 ee bc
       0.022345817 -0.0076598045 -0.020773282 -0.029164193
000130 11 2b ce bc f9 5e ec 3a 69 c0 00 3c d7 96 37 3c
       -0.02516702 0.0018033675 0.007858374 0.011205397
000140 07 9f 65 3c b8 3b 30 bc c8 8a e9 3c 5e 0f 1c bd
       0.014014966 -0.010756426 0.028508559 -0.038100593
000150 57 d8 c1 3c 1f e0 51 3c e6 d6 be bc ee b3 3b bc
       0.02366273 0.012809782 -0.023295831 -0.011456473
000160 af 9e df ba 71 97 4c 3c e0 31 72 bb 8e a2 f0 3c
       -0.0017060841 0.012487278 -0.0036955997 0.029374387
000170 4e cf 90 bc 7d c3 f2 3c 3a 4a 2f bc ed ae 93 bc
       -0.017676976 0.029634232 -0.010698849 -0.018027747
000180 d3 f3 1a bc d9 cf c7 bc f2 76 32 bb b9 60 75 bc
       -0.009457546 -0.024391102 -0.0027231541 -0.014976674
000190 81 e7 91 3c 8b 7c b7 bc 0f d9 40 3c c6 a1 0e bb
       0.017810585 -0.022398254 0.011770501 -0.0021763905
0001a0 f3 8b af 3c 07 f9 03 bd bd 13 fb 3c 35 dd 84 3c
       0.021429038 -0.032219913 0.03064906 0.016218761
0001b0 e7 4d c1 bc ba b2 b8 bc 0a ca 18 3b 96 89 bc bc
       -0.023596717 -0.022546161 0.0023313784 -0.023014825
0001c0 a4 4b c4 3c 06 9e ea bc b3 57 b0 bc ac 56 f9 3c
       0.02396185 -0.028639805 -0.021526193 0.030436836
0001d0 b4 e9 eb bb 23 59 c6 3b 53 97 9d 3c fc 4d 18 3c
       -0.0071994904 0.0060531064 0.019237196 0.009295937
0001e0 ee 88 1b bc 14 a0 17 bc e9 fe 4a 3c fa 61 76 3c
       -0.009493096 -0.009254474 0.012389877 0.015038008
0001f0 00 33 e2 3c 1f 2d 40 bc 36 d1 86 3c 12 62 79 bc
       0.02761221 -0.011729508 0.016457181 -0.015221136
000200 04 1c c2 bc ba 45 3d bc 99 a1 16 3c 3e 88 7c bc
       -0.023695 -0.011552269 0.009193801 -0.015413342
000210 31 2a a5 bc 31 08 7c 3b b6 a5 06 3d e1 02 9c 3c
       -0.02016172 0.003845703 0.032872878 0.019044342
000220 47 53 64 3c 87 70 80 bc e2 1c df bc e3 83 36 bd
       0.0139358705 -0.015678657 -0.027235452 -0.04455937
000230 fa 2a 23 bd df 23 da 3c 39 92 c6 3c 12 82 35 3a
       -0.039835908 0.026628433 0.024239646 0.0006923984
000240 4d e3 94 3c 39 e2 1c 3b ff 80 d1 3c 6a 2c bd 3c
       0.018174792 0.002393855 0.025574205 0.023092467
000250 0f a1 27 bc e8 da 49 3b dc b4 1a bc 5b d9 12 bb
       -0.01023127 0.0030800644 -0.009442534 -0.0022407386
000260 f2 d6 f1 3c d1 89 4a 3b dc c9 01 3c 3e 6a be ba
       0.02952144 0.00309049 0.007921662 -0.0014527512
000270 41 61 93 3b 16 19 16 3d 90 8c 89 b9 cb 0f 66 bc
       0.0044976776 0.036645018 -0.00026235403 -0.014041851
000280 09 91 88 bc ab 2b 50 bc 1a 29 3d 3c 58 2a a9 bc
       -0.01667072 -0.012705724 0.011545444 -0.020650074
000290 d9 cd c5 3c 84 f3 36 bc 91 6c 16 bc 2f 8c 51 bb
       0.024146007 -0.011166457 -0.009181158 -0.0031974425
0002a0 59 a0 21 bb ff bf 04 bc 16 00 65 bb a8 e8 d2 bc
       -0.0024662225 -0.008102416 -0.0034942678 -0.025745705
0002b0 37 07 89 3b 58 db ba bc 83 e0 61 3c 8e ce 90 3c
       0.0041817683 -0.02280967 0.013786438 0.017676618
0002c0 1c d6 a1 3c 54 bb bc bc 6c e3 04 bc 98 e9 27 bc
       0.019755416 -0.023038544 -0.008110862 -0.010248564
0002d0 9b c2 75 3c f3 69 be bc b2 33 80 bc a4 0a 2e 3c
       0.015000011 -0.02324388 -0.01564965 0.010622654
0002e0 0d ff 82 b9 40 ad f8 3c fd 50 b0 bc 6e 9d 76 3c
       -0.0002498556 0.03035605 -0.021522993 0.015052183
0002f0 4e 79 c8 bc bd 64 c6 bc 33 c0 03 3d 74 f8 54 bb
       -0.024471905 -0.024217958 0.032165717 -0.0032496722
000300 66 41 af bc 4f 82 14 3c 4e 2d ab 3c 8d d4 b3 bc
       -0.02139349 0.009064271 0.020895626 -0.021951938
000310 6c 5d 32 bc 6c 72 a1 bc af 6d 91 3c 67 c6 11 bb
       -0.010886531 -0.01970788 0.017752497 -0.00222435
000320 fe e1 b4 3c 3d 77 dc 3c 0e 9a d9 bb b2 ec 4b bb
       0.022080418 0.026912326 -0.006640679 -0.0031116423
000330 f9 85 bc ba 1d f5 ad 3b 7b 61 3e bc a0 4d cc 3c
       -0.0014383189 0.005308761 -0.011619921 0.024939358
000340 f5 3c 8c bb ac e5 38 bc c3 7d 0c bc 88 6a 41 bb
       -0.0042797276 -0.011285227 -0.008574906 -0.002951296
000350 3c ae bb 3c ba 04 07 3d 46 c1 b2 3c 64 0a a0 bc
       0.02291023 0.032963492 0.021820676 -0.019536205
000360 fa 82 db bc ca e8 ea 3c be 3c d1 bc 37 c5 af bc
       -0.026795853 0.028675456 -0.02554166 -0.021456344
000370 dd 01 87 3c 96 6c 9d bc d5 8e 29 39 c1 63 ca 3c
       0.01648038 -0.019216817 0.00016170305 0.02470577
000380 ed dc 99 3c b8 0c 87 3c a3 df 81 3c 58 dc b0 3c
       0.018782103 0.016485557 0.015853709 0.021589443
000390 23 63 f9 bc 03 17 9d 3c 05 9d b7 3c cc b9 4c 3c
       -0.03044278 0.019176012 0.02241374 0.012495469
0003a0 b9 8d db 3c 7f 7d 13 3d 04 d6 44 3d 64 51 14 3c
       0.026800977 0.036008354 0.048055664 0.009052608
0003b0 ee a0 a5 3c a2 b1 18 3c 75 04 d4 3c 29 84 c6 bb
       0.020218339 0.009319695 0.025881032 -0.006058235
0003c0 78 a8 a3 3c ed 1d 80 3b 37 9c 98 3c 61 f1 86 3c
       0.019977793 0.0039098174 0.018629177 0.01647252
0003d0 c3 38 f9 ba b5 91 2b 3c 4d 49 2a 3d 9c 05 95 3c
       -0.0019014109 0.010471751 0.04157381 0.018191151
0003e0 9b c9 7e 3c 2e a8 2e bb 7e a2 02 3c 88 82 fe 3c
       0.015550996 -0.0026650536 0.0079733115 0.031068102
0003f0 74 5d 5e ba 0e d1 1d 3c ae 7d c1 bb a1 3c d7 bc
       -0.00084825535 0.009632362 -0.0059048748 -0.026274027

root.left_child.local_expert.fc1.bias f4 [128]
000000 b2 92 dd bc 39 6f be bc 74 32 63 bc 92 2e 2e bc
       -0.027047489 -0.023246394 -0.013867009 -0.01063122
000010 9e ba f6 bc a1 c4 0b bd c7 64 59 3c 97 62 91 bc
       -0.030118283 -0.034123067 0.013268656 -0.017747207
000020 ca 4a b6 bc 33 fe 2a bd 92 2d 17 bd 86 07 5c bc
       -0.02225246 -0.04174633 -0.036908694 -0.013429528
000030 9d c3 f0 bc ab 0b 99 bc b4 f3 3d bd 9a f5 aa bc
       -0.02939015 -0.018682322 -0.04637499 -0.020869065
000040 5d 0a c7 bc 45 fd f4 bc 72 67 d7 bc af 9a 27 bc
       -0.024296934 -0.029905925 -0.026294444 -0.010229751
000050 21 2f 56 bb 66 f1 dc bc 4f fe be 3c f5 e6 c9 3b
       -0.00326819 -0.026970576 0.023314623 0.0061615654
000060 09 ce ed bc 9b 5e c2 bc 2a 21 b0 bb 06 4c 20 3c
       -0.02902891 -0.023726752 -0.005375047 0.00978375
000070 3f 0f 2e bb 0f ba a1 3c f9 b5 4b bc c2 0a 13 bc
       -0.002655938 0.01974204 -0.012433522 -0.008974733
000080 5b d4 1c bc 5c 5b 16 bb 5d dd b7 3c 17 a3 77 3c
       -0.009572114 -0.0022942638 0.022444421 0.015114567
000090 c3 a2 a8 bb b6 44 11 bd 54 c6 81 bd 20 3c b3 3b
       -0.005146356 -0.03546592 -0.06336656 0.005469814
0000a0 41 8e 9a bc 41 a1 81 bd 3c 8d 76 bc 5f c2 00 3c
       -0.01886666 -0.06329585 -0.015048321 0.007858842
0000b0 1a 6e c8 bc 13 b1 6d 3c 55 54 ad bb ea 72 da bb
       -0.024466563 0.01450755 -0.005289594 -0.006666531
0000c0 04 82 7f bc 34 e0 42 bb ec 52 38 bd 67 94 1f bb
       -0.015594963 -0.0029735686 -0.045000955 -0.002434993
0000d0 05 e9 7b bd ce 5c f9 ba 5c fe 47 3c 9a 06 29 bc
       -0.06150152 -0.001902485 0.01220664 -0.010316515
0000e0 a3 79 8e bb aa ee 52 bd d9 e4 33 3b 39 11 d4 bc
       -0.0043479963 -0.05149714 0.0027449636 -0.025887119
0000f0 d2 25 56 3c f8 2b 17 bd e2 18 04 bc 52 9a 1e bd
       0.0130705405 -0.036907166 -0.008062573 -0.03872139
000100 da f0 9e b8 ac 7e 22 3b 42 a4 20 3d a9 f0 6e bc
       -7.578889e-05 0.002479474 0.03921915 -0.014583745
000110 31 22 62 bc 19 d0 71 bd 9d 6b 40 bd 5f 5a 14 bd
       -0.013802097 -0.059036348 -0.046977628 -0.036218997
000120 88 c9 16 bc 29 2c 0f bc 86 9b 90 3b 03 cd cf bc
       -0.009203322 -0.008738556 0.004413071 -0.025366312
000130 15 a0 c9 bc cf f1 4f bc 29 67 d3 bc 18 6b 56 bd
       -0.024612466 -0.012691929 -0.025806027 -0.052348226
000140 02 fb 0b bd 58 ea 6e bd 98 96 91 bb 7b aa 02 bd
       -0.034174927 -0.058328956 -0.004443001 -0.031900864
000150 f3 02 31 3c 0e 06 2a bd 88 21 7a bd 96 53 55 bc
       0.010803926 -0.04150968 -0.061067134 -0.013020417
000160 8f da d7 bc ff 57 23 bd ed 7b 7f bc f9 33 1b bc
       -0.026349334 -0.03987884 -0.015593511 -0.00947284
000170 99 55 a1 3b 3c 03 2d bd b9 a0 47 3c 21 8e cd bc
       0.004923534 -0.042239413 0.012184315 -0.025092186
000180 0d 48 c0 bc 02 cc c3 bc d1 9b b4 3c af 1a a4 bb
       -0.023471856 -0.02390099 0.022046955 -0.0050080637
000190 ea 95 1e bd 0a 22 8a bc 4b 9c 35 3c 09 ae 1a bd
       -0.038717188 -0.016861934 0.011084626 -0.03776363
0001a0 3f d1 38 bd 73 53 87 bd 32 1e 17 bc 91 af 0b bd
       -0.045121428 -0.066077136 -0.009223508 -0.03410298
0001b0 78 90 53 bc d7 7d 7c bc 55 40 df 3c be 5c 2b bd
       -0.012912862 -0.015410862 0.027252356 -0.041836493
0001c0 97 23 52 3c 3f 4e c3 bb d8 a5 64 bc 37 2e f8 bc
       0.012825868 -0.0059602554 -0.013955556 -0.030295474
0001d0 bf 4a 10 bd 2b 0c 05 bd 99 a0 c0 3b fb 93 68 bc
       -0.035227533 -0.032482307 0.0058785197 -0.014195438
0001e0 6b 91 8f 3b d5 3d 1c bc 01 d3 68 ba fd 25 70 bb
       0.004381349 -0.009536226 -0.00088815397 -0.0036643737
0001f0 ba bc 17 bc 89 ac 78 bc 67 7f 0f bc ce a9 ee bc
       -0.0092613045 -0.015177854 -0.008758402 -0.029133704

root.left_child.local_expert.fc2.weight f4 [2, 128]
000000 0d 59 6e bd 21 a8 93 bc 31 a6 78 bc 5d 66 95 3c
       -0.058190394 -0.018024506 -0.015176342 0.018237287
000010 66 99 75 3d 5e 38 92 bc 29 f3 06 bd f5 b1 03 3d
       0.059960745 -0.017849144 -0.03294674 0.032152135
000020 23 68 9b 3d e3 94 0d bc c1 5c 0f bc 93 c4 f1 bc
       0.07588222 -0.008641454 -0.008750142 -0.02951268
000030 4b 99 8a 3d 23 83 20 bd 11 6f 51 3c f8 06 de bc
       0.067675196 -0.03918756 0.012782828 -0.027102932
000040 de c5 ef 3c 6e 25 6e bd 7d 2e 1a 3c 8d 5b 94 3c
       0.029269155 -0.058141164 0.009410498 0.018110061
000050 b0 de 27 bc e5 95 17 bb d7 38 4f bd a2 25 14 bd
       -0.010245964 -0.0023130116 -0.050591316 -0.036168702
000060 7f 80 83 bd c7 52 d5 3b ef 52 ab 3c 32 46 20 bd
       -0.06420993 0.006510112 0.02091357 -0.039129443
000070 66 77 29 3d b6 e8 74 bd 92 56 43 3d f0 ca b2 bc
       0.041373633 -0.059792243 0.04768998 -0.021825284
000080 e7 47 f5 3c 09 0f 45 bc 5e 18 1d bd 52 7d 92 b9
       0.029941512 -0.01202751 -0.038353316 -0.0002794066
000090 ef 66 9a 3c 41 53 c6 3c bf 70 f9 bb 15 0c 85 3d
       0.01884791 0.02420962 -0.0076123173 0.06496445
0000a0 6a 7f 7b 3c 0b 71 8b bd 24 7e 6c bc d1 0a aa 3c
       0.015350202 -0.068086706 -0.014434371 0.02075711
0000b0 2e be 46 3d 75 16 c9 bc 56 b9 88 3d 32 79 83 3d
       0.048521213 -0.024546841 0.06675975 0.064196005
0000c0 72 4b 02 3d 41 aa ef 3b e7 e3 e9 3c fc 60 3f bb
       0.03181023 0.007313997 0.028551055 -0.0029202094
0000d0 7d ff e6 3c e1 e2 8c 3d 3b c0 14 bd 64 c8 9b bd
       0.028197998 0.06879211 -0.036316138 -0.07606581
0000e0 62 c9 4e 3c 29 31 81 3d 81 bf 4d ba 05 7d 23 3d
       0.012621256 0.06308205 -0.00078486657 0.03991415
0000f0 d2 b4 c5 3c 45 4c 17 bd 6c 28 2b 3d 77 d9 27 bd
       0.024134073 -0.03693797 0.041786596 -0.040978875
000100 d8 74 97 3c 37 d0 af bc d0 f8 36 bd 28 b4 67 bd
       0.018488333 -0.02146159 -0.04467088 -0.056568295
000110 da db 5d bd 1b 33 6e 3c 9f 8c b7 3a f2 16 95 3d
       -0.054164745 0.014538552 0.00140037 0.07279767
000120 4b be ad 3c fa b8 fe bc 43 89 11 ba 5c 59 2f 3d
       0.021208903 -0.031094063 -0.00055517646 0.04280983
000130 09 d7 06 3d 48 41 ed bc 20 40 06 bd c6 05 f2 3c
       0.032919917 -0.028961793 -0.032775998 0.029543769
000140 e1 46 77 3c d6 bd 3b 3d 5c 5b 8d bb e7 1a a3 bc
       0.015092582 0.04583534 -0.0043138694 -0.019910289
000150 34 ee f2 3b c6 14 ae bb 22 ab 93 bd c5 e9 da bc
       0.00741365 -0.005312535 -0.07210375 -0.026722798
000160 1f f1 fb bb 6a 2c 29 bd 64 ca cb bc dc 24 9a 3c
       -0.007688656 -0.041302122 -0.02487678 0.018816404
000170 81 fc 34 bd 95 85 85 bd ef 40 c5 3b d4 cf ff ba
       -0.04418612 -0.065196194 0.0060197036 -0.0019516894
000180 37 aa 30 3d 9a 56 3c bd c4 2e 4b bd bb 26 1f b6
       0.04313108 -0.045981027 -0.049605146 -2.371539e-06
000190 34 1f 2e 3d 18 5b 88 3c 73 43 97 3c f8 33 04 3d
       0.042510226 0.016645 0.01846478 0.032276124
0001a0 1f 9b a5 bc 9b 91 db bc 6f bb 2b 3d fc 89 f7 bc
       -0.020215569 -0.026802829 0.041926797 -0.030217163
0001b0 c3 8c 03 bc 2c 0a 25 bd 51 d1 46 bd 8a ef 2e bb
       -0.008029166 -0.040292904 -0.048539463 -0.002669307
0001c0 53 e8 51 3d da 17 25 bd d9 cc d4 3a c0 d6 84 bc
       0.051246952 -0.04030595 0.0016235366 -0.016215682
0001d0 a3 99 b4 bb 6a fb bd 3c 0a f9 f7 3c ce c1 2f bc
       -0.005511479 0.023191173 0.030270118 -0.010727359
0001e0 e1 73 12 bd e8 2b ae 3c 82 20 f0 bc 55 19 1c 3d
       -0.035755042 0.02126117 -0.029312376 0.038110096
0001f0 c6 e2 ac bc d2 a2 c6 3c 2a 94 c8 bc 40 92 6f bd
       -0.021104228 0.02424756 -0.024484713 -0.058489084
000200 50 fc 29 bd c5 ce 3c bc 0c 62 e6 bc 98 4e 57 3c
       -0.04150039 -0.011523907 -0.028122924 0.013141297
000210 70 0e 82 3d e0 83 3d bc 22 a8 03 bd 93 f6 f8 3c
       0.0635041 -0.011567086 -0.032142766 0.030391013
000220 e6 4a 9a 3d 69 54 69 bb 41 73 49 3d 99 8d f3 bc
       0.07533817 -0.003560329 0.04918218 -0.029730605
000230 ca 3d 55 3d e5 23 11 bd dc ba 8b 3c 5c 8e e8 bc
       0.05206088 -0.035434622 0.017056875 -0.028388195
000240 5c f7 03 3d a4 07 6c bd e0 ac 45 3c ea f4 91 3c
       0.032218322 -0.057624474 0.012065142 0.01781698
000250 c8 3d c2 ba c1 20 2e bc 84 1a 20 3d 23 29 0d bd
       -0.0014819438 -0.010627926 0.039087787 -0.03446306
000260 4f d0 84 bd ff 4e 76 3d b7 98 ab 3c 75 d7 54 3d
       -0.06485044 0.06013393 0.020946844 0.05196329
000270 57 ac ad bb 56 fc ec bc 8d 0a 48 3d 78 1a 86 bc
       -0.0053000855 -0.028928917 0.048838187 -0.016370043
000280 af 5e 4e 3d ad e2 61 bc 0e 50 83 bc 3d 3b 53 bc
       0.050383266 -0.013786954 -0.016029384 -0.0128925415
000290 b9 6b 8e 3c 73 fc 58 3d e5 df f2 bc 3b df 87 3d
       0.01738535 0.05297513 -0.029647777 0.06634375
0002a0 20 ab bf 3c 85 64 ab bd 91 fd 7e bc 85 21 f3 3b
       0.023397028 -0.08368782 -0.015563385 0.0074197673
0002b0 5f 3a 4d 3d aa b1 25 bc 1b b4 84 3d 30 f8 86 3d
       0.050104495 -0.010113159 0.06479665 0.06590307
0002c0 4d 51 88 3c c7 4e e1 3b 2b 64 81 3c 5b 25 ee bb
       0.01664033 0.006875846 0.015794834 -0.0072676367
0002d0 aa 60 4a 3c be b5 8d 3d e1 95 03 bb 2a 51 9c bd
       0.012352148 0.0691943 -0.0020078348 -0.07632668
0002e0 71 10 59 3c ba ec 98 3c 87 2e 7f bc e9 42 1a 3d
       0.013248549 0.018667568 -0.015575058 0.037661467
0002f0 29 cf 1f 3d 76 50 fe bc 8a 17 1e 3d 75 65 3a bd
       0.039015923 -0.031044226 0.038596667 -0.045506913
000300 cf cb 98 3c 9b 06 a2 bc 17 32 98 bc c6 2d 60 bd
       0.018651871 -0.01977854 -0.018578572 -0.054731153
000310 f6 91 62 bd 0c 9e ac bc 51 7d 93 bc 64 35 55 3d
       -0.05531498 -0.021071456 -0.018004091 0.05205287
000320 fd 6b ad 3c 37 84 00 bd 17 b7 0b 3c a6 7f 33 3d
       0.021169657 -0.03137609 0.008527539 0.043822907
000330 55 a1 e7 3c b8 9e e4 bc 0b 21 e5 3c 0e da d2 3c
       0.028275171 -0.027907714 0.027969858 0.025738742
000340 12 33 74 3c 72 52 18 bd f6 df 5c bb aa 59 e9 bc
       0.014904754 -0.037188 -0.0033702827 -0.028485138
000350 e5 25 85 3c 30 35 19 bc 9a a6 8d bd 33 b9 a6 bc
       0.016253421 -0.00935106 -0.06916542 -0.020351982
000360 17 a5 2f bc e9 51 a1 bc c3 58 c9 bc 29 c6 9a 3c
       -0.010720513 -0.019692378 -0.024578458 0.018893318
000370 51 be 2e bd 64 ca c5 bd 60 89 ca ba 8f e8 30 bd
       -0.04266197 -0.096577436 -0.0015452318 -0.043190535
000380 f9 82 28 3d e3 83 3c bd db 26 60 bd 93 1d 5c ba
       0.04114053 -0.046024214 -0.054724555 -0.0008396741
000390 33 34 bf 3c ac d2 4a 3c c8 1a 0b 3d de 19 01 3d
       0.02334032 0.01237933 0.033961087 0.03151881
0003a0 95 12 6d bc db 97 b2 bd 2a 93 29 3d 05 46 03 bd
       -0.014469762 -0.087203704 0.041400112 -0.032049198
0003b0 78 38 b4 bc 52 a6 06 bd 00 de a8 bc 1a b1 e7 3c
       -0.021999583 -0.03287346 -0.02061367 0.02828269
0003c0 86 10 5c 3d ee 25 25 bd ec 01 c6 3a e7 e5 7a bc
       0.053726695 -0.040319376 0.0015106774 -0.015313602
0003d0 9e 1c f2 bb b7 2e 96 3c e8 99 e1 3c 88 7d 50 bc
       -0.0073886653 0.018332822 0.027539209 -0.0127252415
0003e0 1b 2c be bc 62 20 ac 3c f0 af fa bc 3a 42 ac 3c
       -0.02321439 0.021011535 -0.030601472 0.021027673
0003f0 7d 85 a8 bc a7 1f b7 3c 4f 02 d6 bc f2 9c 7a bd
       -0.020571465 0.02235396 -0.026124148 -0.06118483

root.left_child.local_expert.fc2.bias f4 [2]
000000 66 a9 66 3b 3f 8f a2 3d
       0.0035196184 0.07937478

root.right_child.w f4 [437]
000000 46 42 35 32 e6 29 db 33 86 5b cc b4 71 19 ef 32
       1.05506555e-08 1.02056035e-07 -3.8064553e-07 2.7834831e-08
000010 22 1d e1 33 db 86 fa b3 ba 0d 97 33 bc 12 b0 b3
       1.0482678e-07 -1.1666062e-07 7.033982e-08 -8.1990464e-08
000020 5a b5 c0 b5 45 0c 5d 33 28 ca 45 34 9a 92 30 b4
       -1.4357895e-06 5.146673e-08 1.8420599e-07 -1.644461e-07
000030 ec 47 c0 35 5c 32 53 b4 9f 72 ca 34 f0 25 d8 31
       1.4326047e-06 -1.9669227e-07 3.770883e-07 6.2907404e-09
000040 91 0d 28 34 08 62 b2 b4 dd a1 07 35 d9 51 0a b5
       1.5651155e-07 -3.322641e-07 5.052696e-07 -5.152811e-07
000050 5e d1 8a 34 eb 24 b0 b3 e3 38 03 b4 bb 3a a2 b2
       2.5856838e-07 -8.202354e-08 -1.2221021e-07 -1.888599e-08
000060 6b 6b 02 b4 12 58 ac 33 02 29 d3 34 f9 9c ce 32
       -1.2146272e-07 8.025394e-08 3.933165e-07 2.405294e-08
000070 c1 48 59 33 a5 da 1b 33 3a 48 14 33 39 fa 0f 31
       5.059042e-08 3.6287606e-08 3.4524625e-08 2.0951474e-09
000080 79 98 92 34 8f e9 03 34 d3 ae 45 33 a9 dd 6b 32
       2.7305558e-07 1.2285294e-07 4.602664e-08 1.37292e-08
000090 8c 9b 28 36 dd a8 62 b3 41 ef dd b1 d7 53 80 b2
       2.512449e-06 -5.2773306e-08 -6.4591466e-09 -1.4939287e-08
0000a0 aa a7 c7 32 f5 b1 b1 b2 93 e5 f0 32 03 f7 f5 33
       2.3242894e-08 -2.0686437e-08 2.8044076e-08 1.1453633e-07
0000b0 3c 48 42 35 49 9a 89 b3 d8 2f 94 b2 31 47 98 b4
       7.2375747e-07 -6.407624e-08 -1.7251224e-08 -2.8364005e-07
0000c0 9d af 96 b7 2b 41 1a 31 2d 60 14 33 25 9a 98 34
       -1.796317e-05 2.2446993e-09 3.4546407e-08 2.842436e-07
0000d0 91 51 5a b3 be 42 b9 b5 16 73 8a 35 42 9d f3 32
       -5.0831265e-08 -1.3802999e-06 1.0315296e-06 2.8360436e-08
0000e0 4a 16 df b3 1b 95 88 33 72 b5 4b 2f 03 9d 69 b3
       -1.0388301e-07 6.3601156e-08 1.8527205e-10 -5.439234e-08
0000f0 7b 48 4e b3 c3 89 04 33 72 a4 87 b4 2a 90 a0 33
       -4.8029033e-08 3.085894e-08 -2.526536e-07 7.476804e-08
000100 ad 69 51 b5 a5 19 79 34 ff 28 e0 32 15 27 fd b2
       -7.8012346e-07 2.3199262e-07 2.6095675e-08 -2.9470849e-08
000110 f8 c7 93 b4 86 c6 83 34 84 40 59 32 7c 31 5a 36
       -2.752638e-07 2.4545096e-07 1.2645732e-08 3.2513335e-06
000120 8c 56 97 33 7f 11 54 33 0a 78 e6 33 10 94 27 b3
       7.047228e-08 4.937601e-08 1.07320446e-07 -3.901738e-08
000130 f6 65 16 b5 f0 18 70 34 9c c0 df 32 a2 79 83 33
       -5.602773e-07 2.2360814e-07 2.6048205e-08 6.122288e-08
000140 a2 b8 24 35 db 38 16 b4 3d d5 02 b3 c9 15 d9 33
       6.1363437e-07 -1.3990523e-07 -3.0461923e-08 1.01088126e-07
000150 bb 1e 8a b3 97 92 10 33 88 33 f5 b4 ac 11 9f 37
       -6.4317156e-08 3.3660935e-08 -4.56723e-07 1.8962506e-05
000160 86 04 39 b4 b3 50 06 35 5b 22 31 b3 95 c6 f9 b3
       -1.7231113e-07 5.003632e-07 -4.124227e-08 -1.1631088e-07
000170 b1 25 dd 32 84 0c 4b b2 d7 5c b2 34 c4 6f 93 32
       2.5744926e-08 -1.1819001e-08 3.3222634e-07 1.7163877e-08
000180 b1 fb 7d 34 d4 a8 61 33 61 dd db b2 a9 71 a0 35
       2.3654026e-07 5.2540443e-08 -2.5595627e-08 1.1954008e-06
000190 06 9e cd b3 30 a1 0a b3 52 d0 20 b4 af 6d 97 35
       -9.574801e-08 -3.2277228e-08 -1.4976948e-07 1.1282299e-06
0001a0 fc b9 73 33 d3 9d 1c b5 1f 90 0e 33 cb 7a 90 31
       5.6746998e-08 -5.8344193e-07 3.319303e-08 4.2049115e-09
0001b0 4b 13 85 b2 88 da 93 33 e9 b6 c4 b2 f2 89 ec 33
       -1.5492011e-08 6.8849715e-08 -2.2900581e-08 1.10146985e-07
0001c0 44 46 32 b3 d2 78 27 33 8a 9b a0 34 26 3d c8 b4
       -4.150776e-08 3.8992603e-08 2.9915492e-07 -3.7297394e-07
0001d0 9d fc 14 b2 6c 8e 83 33 5c 66 33 b4 ba 09 a6 b2
       -8.672171e-09 6.126069e-08 -1.6707912e-07 -1.9329367e-08
0001e0 45 c8 b6 b5 be dd 00 35 94 81 49 32 c3 36 be 33
       -1.3618343e-06 4.8006393e-07 1.17292025e-08 8.8575256e-08
0001f0 8a b6 0f 34 1c fd 06 b4 80 bf c4 b3 c4 69 3e 35
       1.338432e-07 -1.2571803e-07 -9.161795e-08 7.0934425e-07
000200 c7 c9 81 34 bc 7f fe 32 27 1a 21 b2 75 29 8b 34
       2.4174935e-07 2.9627579e-08 -9.37738e-09 2.5920932e-07
000210 1b 7e 03 39 42 a8 89 b3 e6 93 80 30 fd 59 a0 34
       0.00012540111 -6.4101656e-08 9.355261e-10 2.9867797e-07
000220 4c 22 58 32 b3 e7 33 35 38 f1 48 b6 5f 6e 55 36
       1.2580653e-08 6.7019863e-07 -2.994273e-06 3.1803718e-06
000230 82 75 c0 b5 ec f1 b1 b3 70 ee 09 34 bd 02 e5 b4
       -1.4339314e-06 -8.28621e-08 1.2845862e-07 -4.2656566e-07
000240 83 9e 8e 33 b3 50 e1 b1 fe a2 f4 b4 95 03 c1 34
       6.6412234e-08 -6.5575363e-09 -4.5567134e-07 3.5951658e-07
000250 f7 0c 22 b3 8f d3 13 34 59 4c 80 34 4f 81 87 33
       -3.7730356e-08 1.3767406e-07 2.3897408e-07 6.3099485e-08
000260 e3 7d 65 31 32 01 e8 33 72 c6 51 b7 8a ef f5 b4
       3.3395444e-09 1.0803559e-07 -1.2503575e-05 -4.5809094e-07
000270 28 5d 02 35 12 90 78 b4 ae 9d d6 b3 be 27 86 32
       4.8564334e-07 -2.3149212e-07 -9.993833e-08 1.5617726e-08
000280 43 7b 98 b3 dd 9e 3d 34 fd 02 41 b2 a2 e4 67 33
       -7.100473e-08 1.7659791e-07 -1.1234758e-08 5.399182e-08
000290 fa bc 6d 36 32 1a a0 b4 78 98 4b b4 a0 22 66 b6
       3.542575e-06 -2.9821382e-07 -1.8961316e-07 -3.4292825e-06
0002a0 fd 55 5c 32 97 8b 5f b3 a2 96 f6 b1 95 fa 2a 37
       1.2825237e-08 -5.204819e-08 -7.1766673e-09 1.0191133e-05
0002b0 b2 2e 01 31 7e 4a 68 36 86 4b 49 b5 9a ad 4e b6
       1.8798514e-09 3.4614054e-06 -7.4988236e-07 -3.0797441e-06
0002c0 9d a9 33 33 13 02 4c 34 0a 4c b7 34 19 65 ec b3
       4.1830948e-08 1.8999735e-07 3.4141732e-07 -1.1007996e-07
0002d0 1c 57 a1 33 97 50 ad 31 7d cb 14 b3 d1 0b 1a b4
       7.512992e-08 5.0441247e-09 -3.4644007e-08 -1.4346666e-07
0002e0 81 0b 50 35 73 ee 04 33 c8 a6 84 b3 10 3f 03 34
       7.750278e-07 3.0950513e-08 -6.177066e-08 1.2223268e-07
0002f0 98 aa 69 32 5c de 3e b3 1a 07 85 32 13 9a 53 b4
       1.36011735e-08 -4.4440057e-08 1.5486467e-08 -1.9706958e-07
000300 42 8a 8e b4 24 67 a1 b3 6c 93 fa 33 41 10 6f 34
       -2.6550157e-07 -7.515908e-08 1.1668348e-07 2.2264523e-07
000310 3a ac 80 34 4e 1b 3f b3 9d b7 c5 34 42 69 21 b4
       2.396717e-07 -4.4495486e-08 3.6827706e-07 -1.5032586e-07
000320 53 1b fa b4 fe ec 3b b5 55 9b dd b2 87 f4 ca b4
       -4.658601e-07 -7.00078e-07 -2.5798423e-08 -3.780335e-07
000330 9e af ed 33 41 61 d8 b2 41 dc 73 b6 69 99 c6 34
       1.1068117e-07 -2.5189935e-08 -3.6338026e-06 3.6991995e-07
000340 76 0e 68 32 c4 71 85 b3 4b 16 5b 34 e3 9e fc 34
       1.3507465e-08 -6.213989e-08 2.0404075e-07 4.7054263e-07
000350 1f d5 21 33 73 f1 b7 b2 e1 4c ab b4 3b 9b df b6
       3.7679566e-08 -2.1413802e-08 -3.190717e-07 -6.663989e-06
000360 c7 f2 04 34 40 bd b8 35 d2 c2 27 33 dc 32 ba 32
       1.238178e-07 1.3764147e-06 3.9059906e-08 2.1676378e-08
000370 0c 24 01 35 15 74 1d b3 36 6b 1d 33 2f d2 d4 33
       4.81087e-07 -3.6659987e-08 3.665192e-08 9.9102515e-08
000380 38 90 8f b4 36 18 d0 31 97 c0 62 b5 4c cb 1b 32
       -2.674076e-07 6.056349e-09 -8.4471816e-07 9.068412e-09
000390 18 b0 54 31 fc bc 9f b2 e5 be e4 b2 e9 ea 05 b6
       3.0950158e-09 -1.8595976e-08 -2.6629502e-08 -1.995528e-06
0003a0 46 1c a6 b3 0e 2a de b3 04 5a a7 b2 48 e1 a4 b2
       -7.73512e-08 -1.034533e-07 -1.9482293e-08 -1.9194559e-08
0003b0 54 b2 cd 32 77 7a 93 31 cb ec f5 31 02 7c 85 b3
       2.3946235e-08 4.2921857e-09 7.1573587e-09 -6.215852e-08
0003c0 21 8e fd 32 66 04 48 32 da 63 2d b2 00 14 50 b4
       2.951771e-08 1.1642532e-08 -1.0092629e-08 -1.9378786e-07
0003d0 eb ea 91 32 45 d1 4b 35 dd 9f fb 33 35 4b b4 33
       1.698705e-08 7.592792e-07 1.1717177e-07 8.395583e-08
0003e0 fc 0a 43 35 4a 7b 25 31 f3 06 63 b3 3a 55 02 b4
       7.2659145e-07 2.4080742e-09 -5.2858876e-08 -1.2138199e-07
0003f0 45 fb 9b 32 56 80 0a 32 ff a9 05 b3 e5 b0 c8 34
       1.8158639e-08 8.061837e-09 -3.1121086e-08 3.738161e-07
