checkpoints/trial_0_alpha0.145_beta0.443_lr0.000depth2_mlpTrue_hdim64/checkpoint.pth (torch, 495394 bytes, 29 tensors)

root.gating.0.weight f4 [8, 437]
-0.014465445 -0.014815683 -0.008412303 -0.024977215 -0.021089997 -0.016087232 0.023240717 0.018310154
0.009746892 -0.023058172 -0.014872225 -0.0022613597 0.019933265 -0.005740231 -0.01398628 -0.019526064
0.017641146 0.005230507 0.019347202 0.008879808 -0.03651013 0.0039155 0.01988732 0.028985493
-0.0037229413 -0.010383323 -0.032305893 -0.009115694 0.010699868 -0.004492378 0.0007600557 0.017873779
-0.026435846 0.029708223 -0.009275225 -0.0021226609 0.013565248 -0.0063251248 0.004660661 0.02264616
0.0051679937 0.021752022 0.00076859025 0.01656559 0.0020855896 0.014410599 -0.01744494 0.005099152
-0.008005455 0.018003942 0.028950641 -0.0058201943 0.00261027 0.014983097 0.013372757 -0.014021462
0.018955594 -0.012949849 0.031872377 -0.020818189 -0.0049737073 -0.0093658 -0.0103887 0.026224047
-0.0070317527 0.005776993 0.021056341 0.029070998 0.0037616885 -0.029304383 -0.014626709 0.021850925
-0.011580891 -0.0075659477 0.01103531 0.0063469307 -0.019272774 0.0058290185 -9.250252e-05 -0.014699582
-0.029443879 -0.045503333 -0.025885893 0.014021572 -0.019949203 0.025022712 -0.004763254 -0.020854114
-0.0076862923 0.00086855906 -0.006785943 0.02374774 -0.021656822 -0.037700113 -0.010849225 -0.018047202
-0.012048389 -0.027773984 0.0019432752 0.0091322465 0.023331849 0.017462881 0.018676486 -0.021206142
-0.023163173 0.020907963 -0.019378236 -0.018684508 -0.04478801 -0.011358858 0.014948445 0.013265363
0.0017418965 -0.0007866711 -0.0013861527 -0.034511007 -0.008226244 0.019463385 0.012330545 -0.023224698
0.002808082 0.025289739 -0.0069039315 0.025730554 0.010454048 -0.0022164441 0.0065099923 -0.012124406
0.024899356 -0.0013210771 -0.037740905 -0.016812569 -0.014839261 0.014696479 0.058759306 -0.0063410304
0.007473092 -0.026264222 -0.008666078 0.012195691 -0.014966533 0.0010257955 -0.0063077044 0.02367216
0.023008477 0.031233244 0.017783485 0.015636904 -0.016668204 0.012754492 0.025536431 0.019641936
-0.036159255 -0.0104138935 -0.0059815925 0.011392665 0.04313577 0.01932472 0.0041578924 -0.0074234614
-0.0043970407 -0.00047040236 -0.0032068684 -0.033569824 0.014541348 -0.012142081 0.014302734 0.026372174
0.00087339926 0.010165092 0.014670603 0.022142021 -0.007726269 0.029148445 0.024289597 0.033538602
0.010569067 0.027102746 0.05132177 -0.00848358 -0.029524567 0.031429306 -0.013770563 0.0029679963
0.016911684 0.014648886 -0.00260741 -0.0012311378 -0.0105596185 0.033973966 -0.029461468 -0.027580269
0.038623195 0.00039870912 0.017659932 0.008155273 0.026990678 -0.0010646331 -0.011941267 -0.0070245326
0.0041185776 -0.023599874 -0.0074720164 0.010599071 0.0054786033 0.012432515 -0.00045959384 -0.02422674
0.012179781 0.0026250537 0.020271206 0.038933985 0.018095097 -0.0032592511 -0.002505972 -0.0073266984
0.02355492 -0.009797532 -0.012032049 0.012599218 0.004969647 0.011899094 0.013128153 0.0014543717
0.018395374 0.027770268 0.020802747 0.012134848 0.02731387 0.006366202 -0.010138998 0.0023518726
0.007429984 0.05660242 0.016919198 0.012547394 -0.007668588 -0.017350331 -0.013314251 -0.01189668
0.015205517 0.0048824884 0.02360141 -0.009199163 0.020199131 -0.026679927 -0.007317011 0.014496116
-0.013964833 0.021807676 0.010171832 -0.030906662 0.036764007 -0.01873507 -0.010940837 0.028897772
00000000: 7900 6dbc 7abd 72bc c2d3 09bc 049d ccbc
00000010: eec4 acbc 5fc9 83bc 5163 be3c 2dff 953c
00000020: 6eb1 1f3c 7ee4 bcbc a2aa 73bc 5233 14bb
00000030: 164b a33c 8c18 bcbb b626 65bc 20f5 9fbc
00000040: 2a84 903c ac64 ab3b 067e 9e3c 9d7c 113c
00000050: a58b 15bd 984d 803b bcea a23c fc72 ed3c
00000060: 97fc 73bb d01e 2abc 2f53 04bd fe59 15bc
00000070: 804e 2f3c cc34 93bb 793e 473a 086c 923c
00000080: fd8f d8bc a95e f33c 1df7 17bc 571c 0bbb
00000090: c640 5e3c fe42 cfbb 75b8 983b 7184 b93c
000000a0: 4658 a93b 4c31 b23c 387b 493a 8fb4 873c
000000b0: 63ae 083b 6f1a 6c3c b1e8 8ebc ca16 a73b
000000c0: 5029 03bc 017d 933c e529 ed3c 54b7 bebb
000000d0: 1011 2b3b aa7b 753c 6819 5b3c 46ba 65bc
000000e0: c348 9b3c 9a2b 54bc 9c8c 023d e88a aabc
000000f0: 7bfa a2bb 0373 19bc 5e35 2abc d0d3 d63c
00000100: 9e6a e6bb ee4c bd3b 597e ac3c 4d26 ee3c
00000110: a986 763b bf0f f0bc dda4 6fbc b600 b33c
00000120: c7bd 3dbc c5eb f7bb 72cd 343c eaf9 cf3b
00000130: f0e1 9dbc 5a01 bf3b eafd c1b8 84d6 70bc
00000140: 4a34 f1bc b461 3abd a70e d4bc bcba 653c
00000150: 836c a3bc 6efc cc3c 1215 9cbb 3fd6 aabc
00000160: 4bdd fbbb 03b0 633a 9e5c debb 9f8a c23c
00000170: a669 b1bc 6f6b 1abd f3c0 31bc bad7 93bc
00000180: 9b66 45bc 4486 e3bc 7fb5 fe3a 6b9f 153c
00000190: 6f22 bf3c 510e 8f3c 6eff 983c 81b8 adbc
000001a0: b2c0 bdbc 2d47 ab3c 1bbf 9ebc 4110 99bc
000001b0: a273 37bd 811a 3abc 53ea 743c f756 593c
000001c0: 5950 e43a 9b38 4eba 91af b5ba 6a5b 0dbd
000001d0: 5ec7 06bc ad71 9f3c 0e06 4a3c b941 bebc
000001e0: cc07 383b 6d2c cf3c 603a e2bb e2c8 d23c
000001f0: 7547 2b3c c341 11bb c651 d53b 72a5 46bc
00000200: bcf9 cb3c fe27 adba 3596 1abd 83ba 89bc
00000210: 5f20 73bc 80c9 703c 99ad 703d 6bc8 cfbb
00000220: d7e0 f43b 1128 d7bc 2afc 0dbc 6fd0 473c
00000230: 3036 75bc fc73 863a dcb0 cebb 1eec c13c
00000240: 467c bc3c dcdc ff3c acae 913c f718 803c
00000250: c28b 88bc 38f8 503c c731 d13c 20e8 a03c
00000260: ba1b 14bd 099f 2abc 3c01 c4bb 4da8 3a3c
00000270: 22af 303d e04e 9e3c ee3e 883b 8240 f3bb
00000280: 0d15 90bb 56a0 f6b9 532a 52bb 8380 09bd
00000290: d63e 6e3c 94ef 46bc 0456 6a3c 750a d83c
000002a0: d5f4 643a 7c8b 263c f85c 703c 2f63 b53c
000002b0: a42c fdbb b8c8 ee3c fafa c63c c65f 093d
000002c0: e129 2d3c 9406 de3c c736 523d b7fe 0abc
000002d0: 81dd f1bc 04bc 003d ed9d 61bc b782 423b
000002e0: 5f8a 8a3c e201 703c 15e1 2abb 215e a1ba
000002f0: 4002 2dbc 4928 0b3d 2d59 f1bc 04f0 e1bc
00000300: 5b33 1e3d d509 d139 90ab 903c b29d 053c
00000310: 8e1b dd3c 298b 8bba 4ea5 43bc 0d2e e6bb
00000320: 22f5 863b 8654 c1bc d1d7 f4bb baa7 2d3c
00000330: db85 b33b bfb1 4b3c a4f5 f0b9 2877 c6bc
00000340: b48d 473c 1809 2c3b cd0f a63c 3e79 1f3d
00000350: 2b3c 943c 2999 55bb 3c3b 24bb cd14 f0bb
00000360: 3ff6 c03c d485 20bc 1222 45bc f36c 4e3c
00000370: 6cd8 a23b 6bf4 423c 7717 573c 9ea0 be3a
00000380: e5b1 963c 797e e33c 866a aa3c 3ed1 463c
00000390: 56c1 df3c 939b d03b 0a1e 26bc e021 1a3b
000003a0: 3977 f33b f0d7 673d 219a 8a3c 9693 4d3c
000003b0: c748 fbbb 4822 8ebc 0424 5abc 4bea 42bc
000003c0: 9020 793c 48fd 9f3b bf57 c13c 16b8 16bc
000003d0: a678 a53c dd8f dabc 89c3 efbb 1e81 6d3c
000003e0: c1cc 64bc 03a6 b23c c1a7 263c f82f fdbc
000003f0: db95 163d 4a7a 99bc 3241 33bc 05bb ec3c

root.gating.0.bias f4 [8]
-0.01285094 0.036192074 0.051779095 0.0452525 -0.029811593 0.018514412 -0.004616185 0.033380058
00000000: c08c 52bc 243e 143d 5116 543d af5a 393d
00000010: 7137 f4bc 89ab 973c 5e43 97bb 87b9 083d

root.gating.2.weight f4 [1, 8]
-0.17038262 -0.14416493 -0.22917412 -0.19801785 0.17975792 0.35775062 -0.18077956 -0.34576124
00000000: c878 2ebe f99f 13be 9fac 6abe 31c5 4abe
00000010: 7612 383e 172b b73e 471e 39be 9e07 b1be

root.left_child.w f4 [437]
-0.123898625 -0.1031596 0.0641314 0.09519617 -0.11153555 0.17070271 -0.07865356 -0.058158338
0.06250428 0.25382453 -0.009028445 0.038114965 0.08541628 0.026476122 -0.2001219 -0.06328301
-0.15289415 -0.0034039954 -0.032323025 -0.116484955 -0.054064292 -0.14726575 -0.108077854 -0.25394443
-0.08696481 -0.00072764896 0.15149105 0.013598934 -0.032871846 0.011989967 -0.0042302785 0.004395502
-0.15516211 -0.1687324 -0.072175324 -0.12766758 0.06452549 -0.086143285 -0.040245492 0.048822362
0.06974934 0.06696615 0.17232211 0.18124215 -0.04485909 -0.07941708 0.019401819 0.12322046
0.042428654 0.02736105 0.015932579 0.028521648 0.13208115 -0.10134841 -0.08632857 0.026522778
0.08459941 -0.01918353 -0.011349376 0.02740926 0.13889207 0.049887616 0.07267609 -0.005077276
-0.085001566 -0.02575745 0.044001404 -0.006959824 0.084726326 -0.060967747 0.17678532 -0.13921973
-0.15128063 -0.11576179 0.08582497 -0.15309033 0.018868739 0.033209823 -0.10760666 -0.096358016
-0.12790288 0.15964665 0.09436214 0.018881766 -0.016170848 0.016234184 -0.08752955 0.053948082
0.035453044 0.04166421 -0.10491257 0.024128653 0.029239837 -0.11470105 -0.0546843 -0.031874046
0.06339174 -0.032161806 0.15709971 0.07872501 -0.043917626 -0.03281202 0.016163241 0.056833386
-0.036521763 -0.045577906 -0.17462723 -0.10954779 0.08420747 -0.021209044 0.113125965 -0.040952012
0.046271786 -0.005918353 -0.0806818 -0.0077513694 0.09021006 -0.06196327 -0.044438828 -0.003273348
-0.0050157155 0.014453234 0.07333485 0.02339253 0.010953845 -0.06310169 0.0069874953 -0.081907615
0.12805717 0.07985071 -0.06411955 -0.022598803 0.007189937 -0.15332709 -0.056187306 -0.018949458
0.027820282 0.0018487433 -0.092283644 -0.0104585495 0.18599579 0.13257915 -0.027319964 -0.015142701
-0.074910566 0.069572926 0.12737222 0.07742932 -0.051442992 -0.056117613 -0.22588661 0.11864853
0.15368605 0.12137422 -0.10581949 -0.025968345 0.13844112 -0.020499777 -0.010940067 -0.021059666
0.028892912 0.026100725 0.059932496 0.020480549 -0.076860406 0.03720446 -0.039497986 -0.008059691
-0.06440025 -0.0058518853 -0.087521836 0.06228674 0.021083985 0.008531614 -0.024907216 -0.04787707
-0.01293201 0.21937715 -0.22498997 0.09303794 -0.0087778 -0.01884701 0.078888744 -0.011542668
-0.15311973 0.06988178 -0.04398117 0.1452205 -0.05081821 -0.20876653 0.036613856 0.10022717
-0.03784379 0.009039833 -0.12632859 -0.16997412 0.12900928 -0.037099946 0.011272614 -0.014703202
-0.0717725 -0.033125844 -0.05775267 -0.033321764 -0.12276385 0.069724336 -0.17321745 -0.10550525
-0.10442927 0.029729972 0.19658646 0.21428937 -0.2187791 -0.07813431 -0.092382796 -0.07830694
0.08948088 -0.030915221 -0.07866871 0.010973201 -0.023286324 0.029049985 0.16970153 0.07031392
0.03918135 -0.040051837 -0.01874675 0.073557496 0.03399019 -0.044945035 0.16231678 -0.013106242
0.18589716 0.1295416 -0.05852433 0.13738991 0.16666253 0.13372903 0.01839491 0.06829438
0.03611073 0.15042882 0.0516159 -0.05724924 0.0037800625 -0.22710566 0.008990235 0.027248578
0.051822655 0.12461466 0.09214652 -0.00034104267 -0.013780411 0.039786767 0.1725985 0.04661563
00000000: 90be fdbd 5745 d3bd 5357 833d 36f6 c23d
00000010: c06c e4bd b1cc 2e3e 1e15 a1bd 7037 6ebd
00000020: 3e02 803d 4af5 813e 0bec 13bc 701e 1c3d
00000030: bbee ae3d 74e4 d83c c1ec 4cbe 869a 81bd
00000040: 4990 1cbe 9115 5fbb 2665 04bd aa8f eebd
00000050: 8572 5dbd d5cc 16be ec57 ddbd 0105 82be
00000060: 9b1a b2bd b2bf 3eba 7820 1b3e 10ce 5e3c
00000070: a1a4 06bd 9171 443c 269e 8abb 2508 903b
00000080: d1e2 1ebe 30c8 2cbe a8d0 93bd 4abb 02be
00000090: f125 843d e46b b0bd 75d8 24bd f5f9 473d
000000a0: bed8 8e3d 8d25 893d 3575 303e 8b97 393e
000000b0: 2abe 37bd 6ca5 a2bd 90f0 9e3c 025b fc3d
000000c0: abc9 2d3d 4824 e03c 0a85 823c 3ba6 e93c
000000d0: 4840 073e c18f cfbd 09cd b0bd 4c46 d93c
000000e0: 7542 ad3d c726 9dbc bcf2 39bc 6289 e03c
000000f0: b939 0e3e f556 4c3d 34d7 943d 475f a6bb
00000100: 4d15 aebd 4a01 d3bc d13a 343d 3c0f e4bb
00000110: ff84 ad3d 51b9 79bd 3607 353e 9e8f 0ebe
00000120: 4fe9 1abe 8414 edbd 00c5 af3d b6c3 1cbe
00000130: 9d92 9a3c 0607 083d e160 dcbd 5a57 c5bd
00000140: f9f8 02be 697a 233e f040 c13d efad 9a3c
00000150: ba78 84bc 8dfd 843c b142 b3bd aaf8 5c3d
00000160: 3637 113d 17a8 2a3d 67dc d6bd 74a9 c53c
00000170: 6288 ef3c 62e8 eabd a5fc 5fbd 5c8e 02bd
00000180: 87d3 813d 19bc 03bd bfde 203e 943a a13d
00000190: f8e2 33bd e665 06bd c668 843c 20ca 683d
000001a0: d897 15bd e6af 3abd 7bd1 32be 975a e0bd
000001b0: f774 ac3d 97be adbc 96ae e73d 4cbd 27bd
000001c0: 7c87 3d3d beee c1bb 803c a5bd 33ff fdbb
000001d0: 0dc0 b83d 33cd 7dbd 7d05 36bd ab85 56bb
000001e0: df5a a4bb 42cd 6c3c 9530 963d b1a1 bf3c
000001f0: c277 333c 753b 81bd 5cf7 e43b 2ebf a7bd
00000200: 6b21 033e c588 a33d 1c51 83bd 2021 b9bc
00000210: 9099 eb3b c701 1dbe a924 66bd e53b 9bbc
00000220: 5ce7 e33c 8851 f23a 35ff bcbd 565a 2bbc
00000230: ae75 3e3e d4c2 073e 1ece dfbc 1719 78bc
00000240: b66a 99bd 407c 8e3d dd6d 023e 4393 9e3d
00000250: e3b5 52bd 95db 65bd d24e 67be 00fe f23d
00000260: e05f 1d3e 0c93 f83d e4b7 d8bd 91bb d4bc
00000270: 82c3 0d3e 26ef a7bc f73d 33bc 5285 acbc
00000280: d4b0 ec3c 30d1 d53c c77b 753d d3c6 a73c
00000290: fd68 9dbd b463 183d a4c8 21bd cb0c 04bc
000002a0: 47e4 83bd 2cc1 bfbb a63e b3bd 6120 7f3d
000002b0: 52b8 ac3c 2fc8 0b3c 380a ccbc bf1a 44bd
000002c0: c8e0 53bc 67a4 603e c563 66be ad8a be3d
000002d0: c3d0 0fbc 0b65 9abc 6c90 a13d 751d 3dbc
000002e0: 6bcb 1cbe 2e1e 8f3d 9925 34bd afb4 143e
000002f0: c126 50bd e5c6 55be 69f8 153d e743 cd3d
00000300: 1702 1bbd cf1b 143c 485c 01be b20d 2ebe
00000310: 021b 043e 1df6 17bd c5b0 383c b3e5 70bc
00000320: 76fd 92bd f7ae 07bd 108e 6cbd 677c 08bd
00000330: 9d6b fbbd a2cb 8e3d ea5f 31be 2313 d8bd
00000340: 03df d5bd 458c f33c f64d 493e ac6e 5b3e
00000350: a107 60be e204 a0bd 3133 bdbd 645f a0bd
00000360: c041 b73d eb41 fdbc 101d a1bd f1c8 333c
00000370: f6c2 bebc 3cfa ed3c 3dc6 2d3e bf00 903d
00000380: a07c 203d 650d 24bd c992 99bc 50a5 963d
00000390: 4c39 0b3d 4918 38bd 5f36 263e 90bb 56bc
000003a0: d35b 3e3e 8ea6 043e 35b7 6fbd f1af 0c3e
000003b0: 95a9 2a3e 43f0 083e ecb0 963c eddd 8b3d
000003c0: d8e8 133d 030a 1a3e 326b 533d 2e7e 6abd
000003d0: edba 773b 638e 68be c74b 133c 6938 df3c
000003e0: fe43 543d f935 ff3d 51b7 bc3d f9cd b2b9
000003f0: 3cc7 61bc 73f7 223d a9bd 303e 08f0 3e3d

root.left_child.left_child.w f4 [437]
3.032896e-10 -2.0151285e-12 5.3648887e-07 -5.746053e-14 8.039024e-20 -4.998671e-23 9.369244e-07 -3.7006666e-07
8.23883e-12 2.534527e-06 3.898905e-07 -9.2571e-41 -4.46378e-40 -9.8620724e-08 -1.1939458e-07 0.001203893
-2.701509e-28 -2.5819364e-07 -7.180922e-29 -9.2463e-41 2.381617e-05 9.111e-41 1.2904434e-10 -4.352165e-05
2.9443967e-07 3.478862e-23 1.19751e-40 -9.423442e-07 -3.442536e-14 -0.0021731833 -0.00053285883 -1.19493e-40
7.2974105e-10 -1.05756e-40 -0.0009467742 -3.8621863e-05 -1.20066e-40 0.0011529704 2.9546688e-14 9.314e-41
9.2043e-41 1.0909307e-05 1.211255e-08 -6.954392e-07 2.8196308e-15 -2.1720195e-17 -6.573496e-09 4.1685507e-06
-9.8057e-41 -1.05623565e-11 1.12107e-40 -1.1709008e-17 1.9303088e-17 8.342012e-13 0.00096099527 -1.0019e-40
-1.2545222e-07 1.2610004e-17 -3.485133e-05 -9.2815e-41 4.3353564e-11 -1.2821337e-08 8.178603e-15 -2.1093084e-12
-1.586083e-06 9.2249e-41 5.8151548e-15 -2.1739084e-17 -1.787139e-06 3.5054033e-11 3.2974433e-30 0.000101028294
7.396394e-05 0.0015399611 9.1395e-41 7.971668e-12 9.233e-41 4.618594e-08 1.02697e-40 -0.00010707543
0.00049544696 -0.00021663043 -1.2672088e-32 1.19623e-40 -8.987597e-09 -1.3106289e-16 -1.1277236e-12 -9.1293e-41
1.19435e-40 2.7543524e-06 1.3879266e-05 1.2035468e-06 4.542281e-11 -1.0007135e-05 -1.05795e-40 2.465191e-05
-9.778965e-07 0.0003301908 2.9936903e-08 -2.4951955e-31 9.321733e-15 6.891165e-06 -3.187388e-11 -1.17537e-40
1.5534676e-14 -1.0664e-40 -0.009153185 1.05905e-40 1.05955e-40 6.994062e-08 -1.05727e-40 3.3575338e-15
-4.0201616e-05 1.0206e-40 8.6552165e-05 9.131e-41 1.02708e-40 1.03789e-40 5.219921e-08 -4.2841005e-08
-0.0003969963 9.8684e-41 4.33e-42 9.2644e-41 -9.2203e-41 -2.3434412e-08 -3.1418634e-37 4.0923382e-08
-1.8234252e-27 -7.304937e-05 -0.0009254281 -0.00044340125 0.004782222 0.0070062266 -2.0575924e-06 9.1337e-41
2.225863e-06 -4.9630514e-16 -1.05525e-40 -2.4352151e-09 0.0009584818 0.0059602917 1.8144818e-05 -8.407986e-09
-1.21235e-40 4.670384e-07 0.001269262 7.199083e-06 -0.008424639 -9.1573e-41 -6.770803e-12 1.4828855e-07
4.165276e-08 9.9554e-41 3.3394525e-07 0.0001815814 5.5308202e-08 -1.7822822e-10 -9.1538e-41 -8.2349313e-26
7.698625e-07 9.1873e-41 3.7583394e-08 -0.0015418066 4.4896374e-06 -1.11909e-40 2.6492137e-11 -9.2662e-41
-8.622022e-11 9.2396e-41 6.26761e-08 6.762849e-25 6.8259294e-07 9.2048e-41 -3.9874826e-06 -9.3322e-41
-2.7782e-41 1.060684e-05 -9.3064e-41 -2.0082025e-10 9.1104e-41 8.672936e-05 -5.286779e-12 -0.00011148316
3.0142147e-07 9.008872e-15 6.7208587e-15 9.4379e-41 -1.11294e-11 9.2669e-41 2.2023763e-12 0.0028797835
-0.012596958 -9.1935e-41 -1.20121e-40 -4.1783403e-07 -7.770931e-17 -0.0004930548 -0.00038083983 -8.2580686e-05
-7.559022e-13 9.2662e-41 -0.00086542184 1.0382729e-09 -2.3751443e-14 -0.0005492109 -6.713195e-07 -7.3926467e-06
-2.4204036e-10 5.83382e-17 -4.6945544e-29 -0.0035597966 -1.04955236e-13 -3.4954971e-06 3.982788e-18 -5.571538e-10
-1.597899e-10 -0.00026269033 3.1321326e-20 -9.4183e-41 9.2748e-41 -0.0024281307 9.345e-41 -6.3668224e-08
-2.1835084e-11 -1.05163e-40 -1.05631e-40 3.3813212e-06 1.19116e-40 -4.911777e-24 0.00044323844 -9.3434e-41
-1.0674512e-06 9.3877e-41 -9.3454e-41 -1.3799839e-12 -1.1263176e-09 7.714308e-08 9.994e-41 4.8953388e-23
9.4412105e-09 8.046409e-17 -1.1677727e-12 -7.981199e-20 9.2664e-41 0.00092633563 1.2367444e-07 7.654041e-09
1.3245438e-10 -0.0016558842 -1.00424e-40 1.07087e-40 2.0230698e-07 -2.1217013e-11 -9.2779e-41 4.624029e-15
00000000: 37bc a62f 54cd 0dac 3c03 1035 be63 81a9
00000010: ebd0 bd1f 8db8 719a f480 7b35 93ad c6b4
00000020: 64f0 102d d816 2a36 2452 d134 0d02 0180
00000030: 52dc 0480 51c9 d3b3 ef32 00b4 f2cb 9d3a
00000040: 7d3a ab91 dd9d 8ab4 d90e b690 c001 0180
00000050: d6c8 c737 fafd 0000 c1e2 0d2f 048b 36b8
00000060: 7b13 9e34 3a3a 281a d14d 0100 66f5 7cb5
00000070: bd09 1ba9 f76b 0ebb 8daf 0bba 194d 0180
00000080: f696 4830 ce26 0180 f130 78ba e9fd 21b8
00000090: b24e 0180 441f 973a 0311 0529 a303 0100
000000a0: 9400 0100 1e07 3737 8f17 5032 38ae 3ab5
000000b0: 022d 4b27 5c55 c8a3 15dd e1b1 94df 8b36
000000c0: 5811 0180 a0d0 39ad 8238 0100 3afe 57a3
000000d0: 210a b223 88ce 6a2b 4deb 7b3a 4a17 0180
000000e0: 0bb4 06b4 0f9d 6823 552d 12b8 bb02 0180
000000f0: c6ab 3e2e d644 5cb2 2655 1328 ec6d 14ac
00000100: 66e1 d4b5 2701 0100 5683 d127 f681 c8a3
00000110: a1dd efb5 552b 1a2e 9cc2 850e 27df d338
00000120: 171d 9b38 85d8 c93a c6fe 0000 333d 0c2d
00000130: 6101 0100 fa5d 4633 471e 0100 af8d e0b8
00000140: e2e0 013a 4a27 63b9 3098 838a 764d 0100
00000150: df67 1ab2 f01a 17a5 86b6 9eab 7dfe 0080
00000160: f04c 0100 6ad7 3836 feda 6837 8e89 a135
00000170: 8ac5 472e 51e4 27b7 ea26 0180 93cb ce37
00000180: 4540 83b5 751d ad39 f993 0033 8cf2 a18c
00000190: e8ec 2728 a83a e736 cc2e 0cae a547 0180
000001a0: 86ec 8b28 4529 0180 3ef7 15bc 3827 0100
000001b0: 5c27 0100 4332 9633 b926 0180 91ef 7127
000001c0: 289e 28b8 801c 0100 5783 b538 89fe 0000
000001d0: 4f1e 0100 5221 0100 a331 6033 2f00 38b3
000001e0: f123 d0b9 1713 0100 120c 0000 4102 0100
000001f0: 0601 0180 d14c c9b2 fbd2 d582 bcc3 2f33
00000200: 7577 1093 1532 99b8 6e98 72ba 4f78 e8b9
00000210: 30b4 9c3b 7d94 e53b 2b15 0ab6 9cfe 0000
00000220: 0960 1536 db0c 0fa6 2926 0180 c258 27b1
00000230: a042 7b3a 8d4e c33b b335 9837 b772 10b2
00000240: f451 0180 45bd fa34 5e5d a63a a78f f136
00000250: 7f07 0abc 45ff 0080 f939 eeac 3f39 1f34
00000260: b2e5 3233 8415 0100 1649 b334 e366 3e39
00000270: 038c 6d33 c9f6 43af 2cff 0080 14e3 cb95
00000280: 8ca8 4e35 1b00 0100 616b 2133 7216 caba
00000290: b1a5 9636 f537 0180 fd06 e92d 4e02 0180
000002a0: ab99 bdae 9001 0100 8d98 8633 cf4c 5117
000002b0: 6e3b 3735 9800 0100 37cc 85b6 2504 0180
000002c0: 724d 0080 08f4 3137 6d03 0180 e0cd 5caf
000002d0: f6fd 0000 78e2 b538 1203 baac 11cc e9b8
000002e0: 0dd3 a134 174a 2228 fb24 f227 1707 0100
000002f0: 5dca 43ad 5302 0100 7cfa 1a2c c0ba 3c3b
00000300: 7963 4ebc 4700 0180 d94e 0180 ac52 e0b4
00000310: 7b2f b3a4 5940 01ba 75ab c7b9 2b2f adb8
00000320: 7ec4 54ab 4e02 0100 7add 62ba fbb2 8e30
00000330: 19ef d5a8 ebf8 0fba ba34 34b5 5a0e f8b6
00000340: 2710 85af cc84 8624 cd0a 6e90 7a4b 69bb
00000350: 9356 eca9 2f94 6ab6 5ef0 9222 3726 19b0
00000360: dcb0 2faf b3b9 89b9 29e9 131f 8b06 0180
00000370: 8b02 0100 4621 1fbb 8004 0100 fab9 88b3
00000380: 3d10 c0ad 2725 0180 7526 0180 a8ea 6236
00000390: 0c4c 0100 e203 be98 7562 e839 7504 0180
000003a0: 5845 8fb5 b105 0100 8304 0180 2937 c2ab
000003b0: c7cc 9ab0 dba9 a533 9816 0100 5cb9 6c1a
000003c0: e232 2232 9d89 b924 7259 a4ab 6373 bc9f
000003d0: 4f02 0100 55d5 723a 5fcb 0434 d47e 0332
000003e0: 98a2 112f 410a d9ba f117 0180 842a 0100
000003f0: b839 5934 77a0 baad a102 0180 2499 a627

root.left_child.left_child.feature_selector.logit_phi f4 [437]
-0.5876166 -0.587617 -0.5876152 -0.5876141 -0.5876154 -0.5876132 -0.58761567 -0.5876173
-0.587618 -0.58761686 -0.58761686 -0.5876167 -0.587617 -0.58761483 -0.58761483 -0.58761615
-0.5876176 -0.58761483 -0.5876161 -0.5876168 -0.5876151 -0.58761686 -0.5876181 -0.58761644
-0.5876172 -0.58761555 -0.5876148 -0.58761233 -0.58761746 -0.5876163 -0.58761847 -0.5876196
-0.5876171 -0.5876164 -0.5876177 -0.5876193 -0.5876117 -0.5876155 -0.5876123 -0.5876171
-0.5876177 -0.5876168 -0.5876189 -0.5876164 -0.5876154 -0.58761716 -0.5876188 -0.58761585
-0.58761823 -0.58762014 -0.5876162 -0.5876163 -0.5876142 -0.58761466 -0.58761317 -0.5876156
-0.58761746 -0.58761525 -0.5876145 -0.5876159 -0.5876176 -0.5876157 -0.5876156 -0.5876163
-0.5876124 -0.5876191 -0.5876174 -0.5876167 -0.58761513 -0.5876158 -0.5876148 -0.58761775
-0.58761764 -0.5876176 -0.58761734 -0.58761626 -0.58761746 -0.5876174 -0.58761716 -0.587611
-0.5876139 -0.5876165 -0.5876169 -0.58761775 -0.58761644 -0.58761686 -0.5876153 -0.5876183
-0.58761793 -0.5876169 -0.5876135 -0.58761454 -0.58761346 -0.5876169 -0.58761585 -0.5876185
-0.5876164 -0.5876138 -0.58761764 -0.5876179 -0.5876168 -0.5876202 -0.58761495 -0.5876163
-0.5876158 -0.58761674 -0.587616 -0.5876167 -0.587616 -0.5876169 -0.5876162 -0.5876166
-0.58761543 -0.5876162 -0.58761686 -0.5876172 -0.58761525 -0.5876176 -0.587617 -0.58761686
-0.58761585 -0.5876182 -0.58761865 -0.587616 -0.5876172 -0.5876168 -0.58761907 -0.58761513
-0.58761907 -0.5876172 -0.5876168 -0.58761626 -0.58761543 -0.58761865 -0.58761495 -0.58761466
-0.5876148 -0.5876142 -0.58761626 -0.5876165 -0.5876173 -0.58761597 -0.5876182 -0.5876164
-0.58761686 -0.58761615 -0.5876145 -0.5876148 -0.58761746 -0.58761734 -0.5876178 -0.58761764
-0.58761626 -0.5876168 -0.58761674 -0.5876168 -0.5876155 -0.5876146 -0.5876149 -0.587617
-0.5876168 -0.58761805 -0.5876167 -0.58761525 -0.58761734 -0.58761674 -0.5876149 -0.58761585
-0.5876154 -0.5876154 -0.58761406 -0.5876196 -0.5876136 -0.5876174 -0.5876165 -0.5876175
-0.5876135 -0.5876169 -0.5876163 -0.5876174 -0.5876188 -0.5876166 -0.58761734 -0.58761597
-0.5876175 -0.5876151 -0.5876161 -0.58761626 -0.5876178 -0.58761644 -0.5876147 -0.5876165
-0.5876175 -0.58761513 -0.58761615 -0.5876154 -0.58761495 -0.5876144 -0.58761704 -0.58761734
-0.5876163 -0.58761495 -0.58761805 -0.58761215 -0.5876179 -0.5876153 -0.58761615 -0.58761483
-0.5876156 -0.5876161 -0.58761525 -0.5876163 -0.5876192 -0.5876148 -0.58761925 -0.58761877
-0.58761734 -0.58761775 -0.58762074 -0.5876144 -0.587617 -0.58761656 -0.58761686 -0.5876169
-0.5876155 -0.5876181 -0.587617 -0.58761626 -0.5876176 -0.58761674 -0.58761495 -0.5876175
-0.58761704 -0.5876207 -0.5876171 -0.5876157 -0.58761656 -0.58762 -0.58761746 -0.5876147
-0.58761644 -0.5876161 -0.5876139 -0.5876152 -0.58761466 -0.587618 -0.58761704 -0.5876174
-0.5876171 -0.58761597 -0.58761656 -0.5876155 -0.5876183 -0.58761597 -0.58761567 -0.58761543
00000000: 0b6e 16bf 116e 16bf f36d 16bf e16d 16bf
00000010: f66d 16bf d26d 16bf fb6d 16bf 166e 16bf
00000020: 226e 16bf 0f6e 16bf 0f6e 16bf 0c6e 16bf
00000030: 116e 16bf ed6d 16bf ed6d 16bf 036e 16bf
00000040: 1b6e 16bf ed6d 16bf 026e 16bf 0e6e 16bf
00000050: f16d 16bf 0f6e 16bf 246e 16bf 086e 16bf
00000060: 156e 16bf f96d 16bf ec6d 16bf c36d 16bf
00000070: 196e 16bf 066e 16bf 2a6e 16bf 3d6e 16bf
00000080: 136e 16bf 076e 16bf 1d6e 16bf 386e 16bf
00000090: b86d 16bf f86d 16bf c26d 16bf 136e 16bf
000000a0: 1d6e 16bf 0e6e 16bf 316e 16bf 076e 16bf
000000b0: f66d 16bf 146e 16bf 306e 16bf fe6d 16bf
000000c0: 266e 16bf 466e 16bf 046e 16bf 066e 16bf
000000d0: e26d 16bf ea6d 16bf d16d 16bf fa6d 16bf
000000e0: 196e 16bf f46d 16bf e76d 16bf ff6d 16bf
000000f0: 1b6e 16bf fc6d 16bf fa6d 16bf 066e 16bf
00000100: c46d 16bf 356e 16bf 186e 16bf 0c6e 16bf
00000110: f26d 16bf fd6d 16bf ec6d 16bf 1e6e 16bf
00000120: 1c6e 16bf 1b6e 16bf 176e 16bf 056e 16bf
00000130: 196e 16bf 186e 16bf 146e 16bf ad6d 16bf
00000140: dd6d 16bf 096e 16bf 106e 16bf 1e6e 16bf
00000150: 086e 16bf 0f6e 16bf f56d 16bf 276e 16bf
00000160: 216e 16bf 106e 16bf d76d 16bf e86d 16bf
00000170: d66d 16bf 106e 16bf fe6d 16bf 2b6e 16bf
00000180: 076e 16bf dc6d 16bf 1c6e 16bf 206e 16bf
00000190: 0e6e 16bf 476e 16bf ef6d 16bf 066e 16bf
000001a0: fd6d 16bf 0d6e 16bf 016e 16bf 0c6e 16bf
000001b0: 016e 16bf 106e 16bf 046e 16bf 0b6e 16bf
000001c0: f76d 16bf 046e 16bf 0f6e 16bf 156e 16bf
000001d0: f46d 16bf 1b6e 16bf 116e 16bf 0f6e 16bf
000001e0: fe6d 16bf 256e 16bf 2d6e 16bf 016e 16bf
000001f0: 156e 16bf 0e6e 16bf 346e 16bf f26d 16bf
00000200: 346e 16bf 156e 16bf 0e6e 16bf 056e 16bf
00000210: f76d 16bf 2d6e 16bf ef6d 16bf ea6d 16bf
00000220: ec6d 16bf e26d 16bf 056e 16bf 096e 16bf
00000230: 166e 16bf 006e 16bf 256e 16bf 076e 16bf
00000240: 0f6e 16bf 036e 16bf e76d 16bf ec6d 16bf
00000250: 196e 16bf 176e 16bf 1f6e 16bf 1c6e 16bf
00000260: 056e 16bf 0e6e 16bf 0d6e 16bf 0e6e 16bf
00000270: f86d 16bf e96d 16bf ee6d 16bf 116e 16bf
00000280: 0e6e 16bf 236e 16bf 0c6e 16bf f46d 16bf
00000290: 176e 16bf 0d6e 16bf ee6d 16bf fe6d 16bf
000002a0: f66d 16bf f66d 16bf e06d 16bf 3d6e 16bf
000002b0: d86d 16bf 186e 16bf 096e 16bf 1a6e 16bf
000002c0: d76d 16bf 106e 16bf 066e 16bf 186e 16bf
000002d0: 306e 16bf 0b6e 16bf 176e 16bf 006e 16bf
000002e0: 1a6e 16bf f16d 16bf 026e 16bf 056e 16bf
000002f0: 1f6e 16bf 086e 16bf eb6d 16bf 096e 16bf
00000300: 1a6e 16bf f26d 16bf 036e 16bf f66d 16bf
00000310: ef6d 16bf e66d 16bf 126e 16bf 176e 16bf
00000320: 066e 16bf ef6d 16bf 236e 16bf c06d 16bf
00000330: 206e 16bf f56d 16bf 036e 16bf ed6d 16bf
00000340: fa6d 16bf 026e 16bf f46d 16bf 066e 16bf
00000350: 366e 16bf ec6d 16bf 376e 16bf 2f6e 16bf
00000360: 176e 16bf 1e6e 16bf 506e 16bf e66d 16bf
00000370: 116e 16bf 0a6e 16bf 0f6e 16bf 106e 16bf
00000380: f86d 16bf 246e 16bf 116e 16bf 056e 16bf
00000390: 1b6e 16bf 0d6e 16bf ef6d 16bf 1a6e 16bf
000003a0: 126e 16bf 4f6e 16bf 136e 16bf fc6d 16bf
000003b0: 0a6e 16bf 446e 16bf 196e 16bf eb6d 16bf
000003c0: 086e 16bf 026e 16bf dd6d 16bf f36d 16bf
000003d0: ea6d 16bf 226e 16bf 126e 16bf 186e 16bf
000003e0: 136e 16bf 006e 16bf 0a6e 16bf f86d 16bf
000003f0: 276e 16bf 006e 16bf fb6d 16bf f76d 16bf

root.left_child.left_child.local_expert.fc1.weight f4 [64, 437]
-0.00777651 0.039261024 -0.018935708 0.0044155666 0.038909953 0.029908085 -0.029573971 0.010145922
0.006620624 -0.019689785 0.005562209 -0.03644439 0.01567327 -0.04115889 -0.04433204 -0.030725945
-0.0322606 0.029810479 0.018664828 0.01959322 0.03399921 -0.00435622 0.017179377 -0.025049187
-0.0028116268 0.056933925 0.037171245 -0.06995615 -0.02121309 -0.019131022 0.021722937 0.0015827704
-0.0530809 0.029753981 0.00070601027 -0.003396866 -0.005499046 0.0041822386 -0.02052284 0.020547237
-0.015696306 -0.011708897 -0.02025188 -0.007890881 0.012424842 0.037855722 -0.060504865 -0.005795504
0.016439207 -0.055289056 -0.04160308 0.0064740675 0.018362477 -0.026377944 -0.011785694 0.005410282
-0.009182443 0.022697411 0.02990705 -0.025051424 -0.049966197 0.039972667 -0.011783921 0.025575232
-0.027774302 0.013540019 0.037684403 0.004959788 0.019625079 0.025276242 0.0062208157 -0.00016570589
0.04680046 -6.794153e-05 0.03903761 -0.02569082 -0.029585656 0.04369052 0.027740363 0.015027974
0.006312268 -0.041505538 -0.010084557 -0.023874894 -0.038017232 -0.021820351 0.023132617 -0.0396724
-0.014932308 0.030833954 -0.015223999 -0.032747198 0.00749352 -0.01275588 0.03712724 -0.0073618274
0.02783787 -0.02742323 -0.039426956 -0.00067889906 0.03123291 -0.01940059 0.04891612 0.016773418
0.020790145 0.026965924 0.047444846 0.034745693 -0.017694358 0.036715485 -0.04662997 -0.036901195
-0.01375992 0.03932933 -0.015892437 -0.019604532 0.0041589523 -0.013391595 0.024953939 0.0022278493
-0.027715376 0.0036137637 -0.019000763 0.00020734852 0.05695228 0.022082109 0.0027359566 0.00872971
-0.046404786 0.0026199156 0.00056407816 0.027250674 0.042145405 0.029369565 -0.027606817 -0.031852536
0.039821457 0.020766275 -0.0043740454 -0.040607296 -0.005330072 0.034128416 -0.024228685 -0.035460018
-0.037867025 -0.019340117 -0.020638242 -0.028462887 -0.0039734268 -0.012173003 -0.016549036 0.0026298286
-0.038000837 0.035417587 0.03439605 -0.039484397 -0.014912853 0.0008806911 0.049435005 0.018342258
0.022024235 -0.01997934 0.042800643 0.036360558 -0.016803948 -0.026212035 0.034292653 -0.017938036
0.015557205 -0.014533301 0.025451772 -0.026526561 0.0068843095 0.020653153 0.049584668 0.012590104
0.026958827 -0.018524721 0.014768311 0.03864135 0.02692288 0.027619274 0.04246675 -0.03835351
-0.008071779 -0.030100914 -0.022241551 0.03902948 -0.026023494 0.027685208 0.037751425 -0.04394834
0.014291674 -0.029824827 -0.04566228 -0.04203133 -0.041138716 0.028096562 0.028160335 0.010740776
0.038453363 -0.029869856 0.034985546 -0.0059745423 -0.008357573 0.008190786 -0.02461666 -0.03013035
0.024980335 -0.018279288 -0.008164081 0.025440477 0.045080807 0.014919108 -0.034419168 -0.0017321951
-0.018240625 -0.04120124 -0.02022913 0.017233903 -0.009132923 -0.033903856 -0.013360018 -0.006795208
0.040115826 -0.019044125 -0.00801164 0.035421662 0.0406596 -0.040814646 0.0062202285 -0.032596316
0.04006034 -0.031206021 0.043713506 0.037042294 0.019342294 -0.020518664 -0.021847412 -0.039860368
0.04706089 0.035206296 -0.0014535761 0.017459797 0.029149607 -0.021492116 -0.0039702444 0.028449256
-0.035184257 -0.022560904 0.00020981654 -0.0071471552 -0.0024130482 0.0061833365 0.019977266 0.018567516
00000000: 18d2 febb 2bd0 203d 0f1f 9bbc 75b0 903b
00000010: 0b60 1f3d cd01 f53c 1d45 f2bc 153b 263c
00000020: d2f1 d83b 794c a1bc 3143 b63b b646 15bd
00000030: 3b65 803c 3996 28bd 8395 35bd fab4 fbbc
00000040: b123 04bd 1b35 f43c fbe6 983c f681 a03c
00000050: c142 0b3d 9fbe 8ebb c4bb 8c3c f433 cdbc
00000060: 4543 38bb 8c33 693d e040 183d 2c45 8fbd
00000070: 13c7 adbc a9b8 9cbc 4df4 b13c f674 cf3a
00000080: 5c6b 59bd 9fbe f33c 8c13 393a f49d 5ebb
00000090: 5731 b4bb 290b 893b 841f a8bc ae52 a83c
000000a0: 8a95 80bc acd6 3fbc 45e7 a5bc c148 01bc
000000b0: 9191 4b3c 9a0e 1b3d f3d3 77bd 36e8 bdbb
000000c0: 84ab 863c c776 62bd fe67 2abd 6a24 d43b
000000d0: e86c 963c 8f16 d8bc c918 41bc bc48 b13b
000000e0: f571 16bc ecef b93c a1ff f43c a538 cdbc
000000f0: 5ba9 4cbd 61ba 233d 5911 41bc 2683 d13c
00000100: ef86 e3bc f5d6 5d3c f65a 1a3d b885 a23b
00000110: c6c4 a03c 1f10 cf3c fcd7 cb3b 56c1 2db9
00000120: d7b1 3f3d d57b 8eb8 e7e5 1f3d 8e75 d2bc
00000130: 9e5d f2bc d5f4 323d c23f e33c e437 763c
00000140: 24d7 ce3b b601 2abd b339 25bc 4895 c3bc
00000150: f5b7 1bbd 98c0 b2bc 9d80 bd3c 877f 22bd
00000160: a4a6 74bc 7d97 fc3c 146e 79bc ed21 06bd
00000170: 348c f53b 0afe 50bc bc12 183d 7c3b f1bb
00000180: 3f0c e43c afa6 e0bc 297e 21bd 25f8 31ba
00000190: 29dc ff3c fced 9ebc 455c 483d 6868 893c
000001a0: 1850 aa3c a4e7 dc3c 8755 423d 8051 0e3d
000001b0: c2f3 90bc fa62 163d 11ff 3ebd b525 17bd
000001c0: 4a71 61bc cb17 213d db30 82bc af99 a0bc
000001d0: d247 883b 6c68 5bbc 346c cc3c 1c01 123b
000001e0: 5b0b e3bc e5d4 6c3b 7da7 9bbc b26b 5939
000001f0: cb46 693d 8ae5 b43c bc4d 333b 0f07 0f3c
00000200: f212 3ebd e4b2 2b3b a5de 133a ce3c df3c
00000210: a9a0 2c3d 7198 f03c b127 e2bc ce77 02bd
00000220: d31b 233d 091e aa3c 2754 8fbb d653 26bd
00000230: e2a7 aebb 3dca 0b3d 3c7b c6bc 863e 11bd
00000240: 741a 1bbd 2a6f 9ebc 8811 a9bc 002b e9bc
00000250: 8533 82bb 4671 47bc d891 87bc 3459 2c3b
00000260: c4a6 1bbd 0812 113d dfe2 0c3d 64ba 21bd
00000270: 0a55 74bc 2ede 663a 5c7c 4a3d 8142 963c
00000280: 2b6c b43c b6ab a3bc ba4f 2f3d cfee 143d
00000290: 6fa8 89bc 9fba d6bc 7476 0c3d caf2 92bc
000002a0: a6e3 7e3c 151d 6ebc 3c80 d03c 3b4e d9bc
000002b0: c695 e13b cd30 a93c 4b19 4b3d b946 4e3c
000002c0: c2d8 dc3c 28c1 97bc c9f6 713c 6446 1e3d
000002d0: 5f8d dc3c d141 e23c 9df1 2d3d 9218 1dbd
000002e0: 7f3f 04bc 3196 f6bc ea33 b6bc 60dd 1f3d
000002f0: 392f d5bc 17cc e23c 3da1 1a3d 2d03 34bd
00000300: a027 6a3c 3253 f4bc 5f08 3bbd 0b29 2cbd
00000310: 1281 28bd c32a e63c 81b0 e63c 14fa 2f3c
00000320: 4681 1d3d a1b1 f4bc 014d 0f3d 18c6 c3bb
00000330: 34ee 08bc a532 063c e1a8 c9bc ecd3 f6bc
00000340: 8fa3 cc3c 72be 95bc a3c2 05bc 8c68 d03c
00000350: a7a6 383d 466f 743c 1dfb 0cbd d30a e3ba
00000360: 5d6d 95bc a2c2 28bd 8fb7 a5bc 1d2e 8d3c
00000370: 41a2 15bc c5de 0abd fae3 5abc 56aa debb
00000380: 7e50 243d 6d02 9cbc 4143 03bc 4e16 113d
00000390: ae8a 263d 422d 27bd 0fd3 cb3b b783 05bd
000003a0: 5016 243d c5a3 ffbc ef0c 333d a9b9 173d
000003b0: bb73 9e3c c216 a8bc 58f9 b2bc a044 23bd
000003c0: ebc2 403d 7a34 103d ec85 beba d907 8f3c
000003d0: 28cb ee3c 3c10 b0bc d318 82bb 6a0e e93c
000003e0: 5e1d 10bd a5d1 b8bc 3302 5c39 af32 eabb
000003f0: 3b24 1ebb 969d ca3b 5da7 a33c e71a 983c

root.left_child.left_child.local_expert.fc1.bias f4 [64]
-0.041341603 -0.073022485 -0.010358734 -0.027998086 -0.035995826 -0.09946173 0.0122427745 -0.01568695
-0.038881954 0.064434335 -0.027157307 0.04400184 0.021264108 0.080031656 0.05625303 -0.02493847
-0.042012557 -0.008268224 0.000645761 0.05092345 -0.0024245644 0.0014950975 0.057912752 -0.008204497
-0.039863516 -0.024441507 0.002979964 -0.018470751 -0.018454574 0.005550063 -0.049906805 0.011094129
-0.04456649 -0.0029374992 -0.042040877 0.006027294 0.012793052 0.020312434 -0.030549228 -0.07860734
0.028060596 -0.015687104 -0.03819565 0.02023592 -0.026885035 0.018953346 0.053642306 -0.066394255
-0.059379887 -0.06963639 -0.03071754 0.006366199 0.035362624 -0.02176958 -0.017428 0.016209573
-0.00024253795 -0.018471535 -0.045935936 -0.004605121 -0.019966451 -0.060239285 -0.029029468 0.010087257
00000000: d055 29bd d08c 95bd aeb7 29bc 3e5c e5bc
00000010: 5c70 13bd 97b2 cbbd eb95 483c eb81 80bc
00000020: af42 1fbd 26f6 833d 0079 debc 463b 343d
00000030: 1132 ae3c a3e7 a33d 9469 663d c34b ccbc
00000040: 5c15 2cbd 7277 07bc 4a48 293a 1c95 503d
00000050: 71e5 1ebb 26f7 c33a ec35 6d3d 286c 06bc
00000060: ed47 23bd 8e39 c8bc 804b 433b f94f 97bc
00000070: 0c2e 97bc 4edd b53b 146b 4cbd 26c4 353c
00000080: 5a8b 36bd 0f83 40bb 0e33 2cbd 9b80 c53b
00000090: f399 513c 4366 a63c 6042 fabc e3fc a0bd
000000a0: 56df e53c 3e82 80bc 0b73 1cbd cdc5 a53c
000000b0: 013e dcbc 0c44 9b3c 09b8 5b3d b6f9 87bd
000000c0: 5338 73bd 869d 8ebd 5aa3 fbbc 8c9b d03b
000000d0: 66d8 103d 1e56 b2bc 2ac5 8ebc f0c9 843c
000000e0: c951 7eb9 9e51 97bc 5227 3cbd 8ee6 96bb
000000f0: af90 a3bc 78bd 76bd 35cf edbc 0645 253c

root.left_child.left_child.local_expert.fc2.weight f4 [2, 64]
0.007182593 0.13496916 0.06847705 -0.05324683 -0.012868088 0.08082018 -0.05715678 0.098869644
0.063060805 -0.07806756 0.06575058 -0.035501797 0.0030250815 -0.114452176 -0.12548444 -0.00091403123
0.10321963 0.11386164 0.015366001 -0.036843132 0.1295372 0.09264222 -0.12245423 0.059517115
-0.08690765 -0.09909701 0.062140338 0.038459226 -0.12124278 -0.089561194 0.0077058035 -0.04908031
0.11806211 -0.102566 0.03664423 -0.00074460177 -0.08465595 0.033289704 -0.1306452 0.12938848
-0.07515948 0.09083648 -0.06569696 0.09346452 -0.009973254 -0.12335393 -0.036184017 0.12612605
0.072075434 0.017884986 -0.005073891 -0.03979698 -0.040817376 -0.027632512 0.09061194 -0.046749745
0.049921885 0.0091116605 -0.02426147 -0.031430837 -0.09398659 0.08981266 0.084870435 -0.025416275
-0.0042485213 0.04353091 0.00780625 0.007968797 -0.040684365 -0.025657978 0.055506554 -0.09730956
-0.08258451 -0.025083441 -0.03754284 0.03518101 -0.09234883 0.066617645 0.06802636 -0.051417142
-0.066911116 -0.11542939 -0.13092667 0.028624224 0.065512866 0.124011055 0.12031949 0.058518533
-0.03312328 -0.093656994 -0.087937154 0.09944713 -0.11451857 0.10097028 -0.111793324 0.06361533
-0.12373746 0.08552669 0.08324616 -0.051824406 0.105707355 -0.069046095 0.081887975 -0.07670309
0.0783712 0.037327077 -0.113331825 -0.0766926 0.008502035 0.007430818 -0.011882819 0.0050188033
-0.014519912 -0.11913215 0.048939724 -0.10681964 0.00076516747 0.11081583 0.000687912 0.082327984
-0.053568505 -0.1293939 -0.115462065 0.09031509 -0.1269372 0.0017722121 -0.09683647 0.058248524
00000000: f55b eb3b 5b35 0a3e b23d 8c3d 5919 5abd
00000010: acd4 52bc 0d85 a53d 3a1d 6abd 2b7c ca3d
00000020: 0626 813d e3e1 9fbd 3da8 863d 556a 11bd
00000030: 7240 463b e765 eabd fe7e 00be 999b 6fba
00000040: d064 d33d 4b30 e93d aec1 7b3c d3e8 16bd
00000050: 66a5 043e 34bb bd3d 49c9 fabd 38c8 733d
00000060: a3fc b1bd 60f3 cabd de86 7e3d 6c87 1d3d
00000070: 224e f8bd dc6b b7bd f780 fc3b 6f08 49bd
00000080: 8cca f13d 1f0e d2bd 4318 163d 6131 43ba
00000090: 1960 adbd c95a 083d dbc7 05be 6a7e 043e
000000a0: 37ed 99bd 7a08 ba3d 218c 86bd 546a bf3d
000000b0: dc66 23bc fca0 fcbd b135 14bd 3027 013e
000000c0: 499c 933d 8983 923c e242 a6bb 2802 23bd
000000d0: 1f30 27bd 945d e2bc c192 b93d a97c 3fbd
000000e0: e47a 4c3d 1349 153c febf c6bc 9fbd 00bd
000000f0: 0b7c c0bd b3ef b73d 8dd0 ad3d cb35 d0bc
00000100: 2e37 8bbb 784d 323d 92cb ff3b 8f8f 023c
00000110: a6a4 26bd ae30 d2bc d75a 633d 3c4a c7bd
00000120: 1122 a9bd ca7b cdbc 85c6 19bd f619 103d
00000130: 6221 bdbd d56e 883d 6751 8b3d c89a 52bd
00000140: b208 89bd 3e66 ecbd a411 06be 597d ea3c
00000150: 9c2b 863d 82f9 fd3d 116a f63d 21b1 6f3d
00000160: 47ac 07bd 3dcf bfbd 6518 b4bd f0aa cb3d
00000170: b688 eabd 82c9 ce3d e6f3 e4bd c148 823d
00000180: 116a fdbd 9e28 af3d f67c aa3d d445 54bd
00000190: 197d d83d 0a68 8dbd e2b4 a73d 8216 9dbd
000001a0: 1481 a03d 47e4 183d 841a e8bd 0311 9dbd
000001b0: 1f4c 0b3c 387e f33b 28b0 42bc c674 a43b
000001c0: ede4 6dbc 8ffb f3bd 0575 483d 41c4 dabd
000001d0: 8595 483a 69f3 e23d fe54 343a 939b a83d
000001e0: a66a 5bbd d67f 04be 6077 ecbd 1ef7 b83d
000001f0: d3fb 01be 9249 e83a 3352 c6bd 0196 6e3d

root.left_child.left_child.local_expert.fc2.bias f4 [2]
0.059024375 -0.021623438
00000000: 8bc3 713d a323 b1bc

root.left_child.right_child.w f4 [437]
2.5962805e-07 2.5260023e-19 -9.6119e-41 2.4446783e-36 2.1463888e-27 -1.261493e-16 9.1251e-41 1.0068096e-16
9.1121e-41 -3.6003322e-37 0.0026690555 0.0027216175 -0.0003602939 -9.3196e-41 9.617435e-07 1.9648864e-07
2.0749296e-15 1.1453937e-13 -1.202795e-07 1.05734e-40 -4.929515e-05 -1.1473891e-13 9.1108e-41 -0.009303639
-2.0396959e-13 1.429753e-22 1.0500672e-10 3.4691852e-16 7.865472e-10 -1.781245e-12 -9.7707e-41 0.00048712693
-0.004483414 9.2306e-41 1.1595598e-29 -9.1267e-41 1.19507e-40 1.9623374e-07 -2.5502536e-12 2.4948492e-06
2.2870013e-06 6.7354513e-06 -5.2171632e-05 -9.348e-41 1.19182e-40 -2.4930182e-07 -5.6944213e-08 -7.043977e-14
-9.3837e-41 8.442509e-05 -9.309e-41 1.05668e-40 -8.923846e-10 -9.3967e-41 -4.55353e-40 9.2023e-41
5.512291e-22 -2.9434098e-06 3.2195105e-10 -1.0839138e-06 9.4526e-41 3.9146898e-13 0.00070819736 -4.0902021e-25
2.417373e-12 1.19629e-40 9.1971e-41 -1.05635e-40 -0.00034548924 4.9208165e-07 2.653192e-13 -1.47274e-13
-2.3682641e-37 -6.73497e-08 0.0016974224 -9.1126e-41 2.6670927e-05 1.05058e-40 1.075339e-06 2.7283472e-30
-0.0016280905 -1.1268071e-08 1.74676e-40 -5.500116e-06 -4.3552965e-15 -7.47257e-13 -1.05224e-40 3.15676e-40
-9.239e-41 -5.311629e-13 -0.0013930991 -4.083368e-10 1.6839359e-32 1.19224e-40 0.004204952 2.2880532e-26
-7.3106694e-23 5.088616e-07 -1.00292e-40 -0.0002066092 -4.3210416e-10 -9.19e-41 -1.063139e-07 -5.9888543e-09
-0.0014242581 -6.876022e-08 1.05668e-40 1.3864761e-05 2.602549e-13 -9.2772e-41 -2.2167508e-06 3.163512e-07
-9.187208e-33 1.3077717e-09 9.1552e-41 -9.1297e-41 5.400393e-15 4.8538844e-24 -1.00868e-40 1.05857e-40
9.1391e-41 9.3345e-41 -1.9790123e-30 4.8110337e-26 -0.0005241582 -1.0602e-40 -1.12324e-40 9.134005e-16
1.3281e-40 1.05563e-40 9.9847e-41 -0.000165486 -6.299486e-10 -2.3678213e-09 3.035749e-10 -0.010838027
8.0765486e-19 1.0376206e-14 -0.00026067594 -1.3690948e-10 3.1319947e-09 -9.359e-41 -0.0003183201 9.1663e-41
-1.0063766e-28 5.0488416e-07 2.4947454e-28 1.05912e-40 -9.2304e-41 9.5794e-41 1.19155e-40 -1.05727e-40
9.123e-41 -4.5929442e-05 0.001663249 -7.961131e-30 -9.1112e-41 4.4158648e-07 1.10019e-40 9.7638e-41
0.00033274657 5.0068443e-14 7.4202495e-07 0.0022818171 -5.0423813e-07 1.7603397e-06 -9.1387e-41 -4.03727e-06
4.4111134e-06 4.6218484e-15 4.757021e-05 -1.19206e-40 -4.0127663e-08 -1.1923e-40 -1.06384e-40 1.7272436e-23
-1.20076e-40 4.491141e-29 -1.1832022e-06 -9.3073e-41 1.5689457e-13 2.3743391e-06 -2.5407297e-07 4.4091847e-17
-2.7159098e-14 -1.1984e-40 7.493332e-27 0.00014726043 3.753133e-16 1.19231e-40 1.05893e-40 3.7440788e-07
-1.05804e-40 -2.4491199e-05 -9.9829e-41 -9.215e-41 4.255565e-13 1.05238e-40 -3.1017826e-13 -1.05351e-40
1.4950047e-10 -1.2373129e-06 -5.5769085e-08 -9.2496e-41 -1.5893231e-09 -2.5891159e-05 0.00013013194 -4.8577624e-14
-1.0286556e-11 1.0077e-40 -1.05281e-40 0.0004579798 -0.00071461627 -9.2568e-41 -1.8618358e-09 -4.0555553e-13
2.5567888e-07 1.6531486e-10 -0.00018221539 -0.003007965 9.1438e-41 -1.4162245e-05 -0.00095321256 1.05711e-40
-1.4286242e-07 -3.8548368e-08 8.655493e-15 1.19215e-40 -1.7965922e-11 1.8695938e-07 2.6854359e-11 -9.2124e-41
-6.803942e-12 1.4209639e-05 -0.000101788464 -9.2411e-41 0.001726383 7.4692413e-10 1.05141e-40 9.1182e-41
4.0335283e-31 -2.3335642e-07 -2.7298913e-08 -8.364942e-07 2.435783e-09 -0.011937662 -9.8863e-41 -1.0566e-40
-0.000121989666 -9.2617e-41 -9.7522e-41 -2.6454072e-06 5.0937597e-05 -9.2546e-41 1.1199848e-05 -2.2118624e-13
00000000: 0263 8b34 de1b 9520 f10b 0180 61f8 4f04
00000010: f00d 2a13 b470 11a5 5ffe 0000 8d27 e824
00000020: 02fe 0000 a206 f582 52eb 2e3b 2a5d 323b
00000030: d4e5 bcb9 cb03 0180 4115 8135 63fa 5234
00000040: b283 1527 baf5 002a 2d26 01b4 be26 0100
00000050: 44c2 4eb8 3d2f 01aa f9fd 0000 4a6e 18bc
00000060: 3ba6 65aa b6d8 2c1b 87e9 e62e 23fc c725
00000070: 5734 5830 1db0 faab 5e10 0180 1265 ff39
00000080: 9ae9 92bb 5001 0100 c92f 6b0f 6afe 0080
00000090: 234d 0100 52b4 5234 4975 33ac 2f6d 2736
000000a0: 627a 1936 1601 e236 ddd2 5ab8 9604 0180
000000b0: 3b4c 0100 c8d7 85b4 d392 74b3 c39d 9ea9
000000c0: 9405 0180 600d b138 7f03 0180 8f26 0100
000000d0: fc4b 75b0 f105 0180 57f5 0480 8600 0100
000000e0: 4999 261c 6587 45b6 95fe b02f ff7a 91b5
000000f0: 8007 0100 a060 dc2a 52a6 393a d72b fd96
00000100: 851b 2a2c 7a4d 0100 6100 0100 7826 0180
00000110: c822 b5b9 9817 0435 875c 952a d7d0 25aa
00000120: fb2c a182 e4a1 90b3 0b7c de3a 06fe 0080
00000130: 61bb df37 dc24 0100 5e54 9035 8e59 5d0e
00000140: a765 d5ba 8095 41b2 ede6 0100 a38d b8b6
00000150: 85ea 9ca7 8b55 52ab 5225 0180 fa6f 0300
00000160: 8c01 0180 5282 15ab a698 b6ba 4c7c e0af
00000170: b2de ae0a 594c 0100 b2c9 893b 0a99 e214
00000180: dac2 b09a b498 0835 9317 0180 3ca5 58b9
00000190: 418d edaf 2e00 0180 af4e e4b3 85c6 cdb1
000001a0: 2cae baba 55a9 93b3 8f26 0100 b29c 6837
000001b0: af82 922a 9c02 0180 7dc3 14b6 fad6 a934
000001c0: 94cf 3e8a 20bd b330 36ff 0000 80fe 0080
000001d0: d591 c227 8bc6 bb18 2e19 0180 1627 0100
000001e0: c3fe 0000 3504 0100 7a8e 208e 193b 6e15
000001f0: a967 09ba 8a27 0180 1d39 0180 88a2 8326
00000200: 3872 0100 4426 0100 5516 0100 4f86 2db9
00000210: b128 2db0 27b7 22b1 5ee4 a62f fb91 31bc
00000220: ad60 6e21 ceeb 3a28 55ab 88b9 9888 16af
00000230: a23a 5731 e404 0180 33e4 a6b9 85ff 0000
00000240: 9325 ff90 6087 0735 8f1f 9e11 3d27 0100
00000250: 4e01 0180 090b 0100 284c 0100 b926 0180
00000260: 50fe 0000 5da4 40b8 6001 da3a 8e78 218f
00000270: fcfd 0080 2f13 ed34 b032 0100 2d10 0100
00000280: 7d74 ae39 fc7c 6129 912f 4735 8a8a 153b
00000290: fb5a 07b5 d044 ec35 c0fe 0080 e377 87b6
000002a0: 2d03 9436 0785 a627 2086 4738 4c4c 0180
000002b0: d558 2cb3 5d4c 0180 8e28 0180 7b0c a719
000002c0: b94e 0180 58ba 6310 85ce 9eb5 7303 0180
000002d0: c8a5 302a d656 1f36 8667 88b4 7756 4b24
000002e0: 9ea0 f4a8 114e 0180 b56b 1414 ec69 1a39
000002f0: 785a d825 5e4c 0100 3027 0100 3a02 c934
00000300: f026 0180 7372 cdb7 4816 0180 e000 0180
00000310: 2891 ef2a 5c25 0100 669d aeaa ad25 0180
00000320: a460 242f bf11 a6b5 c286 6fb3 d701 0180
00000330: 566f dab0 d730 d9b7 0774 0839 30c6 5aa9
00000340: 88f6 34ad e818 0100 7b25 0180 021d f039
00000350: 1655 3bba 0b02 0180 86e3 ffb0 b64e e4aa
00000360: 3d44 8934 ffc3 352f 1211 3fb9 4721 45bb
00000370: e4fe 0000 619a 6db7 03e1 79ba ae26 0100
00000380: b965 19b4 6190 25b3 6bec 1b28 534c 0100
00000390: a907 9ead 01bf 4834 a436 ec2d ce00 0180
000003a0: 7664 efac ef65 6e37 4477 d5b8 9b01 0180
000003b0: cd47 e23a 1d50 4d30 1725 0100 2efe 0000
000003c0: 3ee5 020d 8690 7ab4 f27e eab2 728b 60b5
000003d0: bf62 2731 2f96 43bc 9713 0180 8926 0180
000003e0: b4d4 ffb8 2e02 0180 da0f 0180 c087 31b6
000003f0: d4a5 5538 fb01 0180 fbe6 3b37 9808 79aa

root.left_child.right_child.feature_selector.logit_phi f4 [437]
-0.58761686 -0.5876158 -0.5876158 -0.5876135 -0.58761454 -0.5876133 -0.58761656 -0.58761775
-0.5876176 -0.5876178 -0.5876098 -0.58761376 -0.5876165 -0.58761597 -0.5876132 -0.5876173
-0.58761245 -0.5876149 -0.58761543 -0.5876135 -0.58761483 -0.5876146 -0.58761615 -0.5876182
-0.58761495 -0.58761716 -0.5876153 -0.58761185 -0.58761525 -0.58761656 -0.5876172 -0.5876178
-0.5876158 -0.58761704 -0.58761644 -0.5876142 -0.5876153 -0.58761936 -0.5876157 -0.5876175
-0.5876167 -0.58761525 -0.5876147 -0.5876138 -0.58761406 -0.5876157 -0.58761287 -0.5876171
-0.58761513 -0.58761925 -0.58761686 -0.58761543 -0.58761567 -0.5876177 -0.58761495 -0.58761406
-0.58761925 -0.58761424 -0.5876175 -0.5876174 -0.5876151 -0.58761597 -0.58761835 -0.5876156
-0.5876148 -0.5876177 -0.5876162 -0.58761513 -0.587609 -0.58761543 -0.5876176 -0.5876164
-0.58761585 -0.58761686 -0.58761555 -0.5876227 -0.5876155 -0.5876155 -0.5876165 -0.58761376
-0.58761275 -0.58761793 -0.5876148 -0.5876157 -0.58761305 -0.58761525 -0.5876149 -0.58761674
-0.58761823 -0.587615 -0.58761334 -0.5876156 -0.5876151 -0.58761793 -0.5876147 -0.58761734
-0.5876167 -0.58761805 -0.5876151 -0.58761734 -0.5876182 -0.58761555 -0.58761656 -0.5876185
-0.5876152 -0.5876174 -0.5876164 -0.58761513 -0.58761644 -0.58761585 -0.5876147 -0.5876179
-0.5876135 -0.58761585 -0.587615 -0.5876156 -0.58761656 -0.5876137 -0.58761483 -0.5876149
-0.58761424 -0.5876146 -0.58761525 -0.5876132 -0.587617 -0.5876154 -0.5876145 -0.587615
-0.5876155 -0.58761644 -0.58761275 -0.58761686 -0.5876142 -0.58761764 -0.5876036 -0.58761364
-0.58761656 -0.5876142 -0.58761334 -0.5876151 -0.587616 -0.58761823 -0.5876163 -0.5876158
-0.58761615 -0.5876145 -0.5876159 -0.58761764 -0.5876122 -0.5876174 -0.5876147 -0.58761704
-0.5876145 -0.5876207 -0.58761513 -0.58761704 -0.5876153 -0.58761555 -0.58761716 -0.587616
-0.58761656 -0.587613 -0.58761275 -0.5876179 -0.5876159 -0.5876182 -0.58761376 -0.58761525
-0.587615 -0.5876179 -0.58761597 -0.58761746 -0.5876164 -0.5876162 -0.58761424 -0.5876167
-0.587617 -0.58761793 -0.58761746 -0.5876129 -0.58761495 -0.5876213 -0.5876158 -0.58761734
-0.58761483 -0.5876165 -0.5876176 -0.5876173 -0.5876158 -0.5876126 -0.5876157 -0.587616
-0.58761704 -0.58761513 -0.58761674 -0.5876128 -0.5876148 -0.5876167 -0.58761626 -0.58761907
-0.5876162 -0.5876161 -0.58761907 -0.5876163 -0.5876166 -0.587617 -0.5876159 -0.58761746
-0.58761513 -0.5876152 -0.5876147 -0.5876143 -0.58761674 -0.58761513 -0.58761543 -0.5876152
-0.58761674 -0.587616 -0.58761793 -0.58761615 -0.5876155 -0.5876172 -0.58761305 -0.5876124
-0.58761626 -0.5876168 -0.5876172 -0.5876168 -0.5876157 -0.5876174 -0.58761525 -0.58761674
-0.58761626 -0.58761734 -0.58761674 -0.58761305 -0.5876132 -0.58761466 -0.5876167 -0.5876163
-0.5876155 -0.5876192 -0.5876142 -0.58761466 -0.5876168 -0.5876146 -0.58761686 -0.58761716
-0.5876179 -0.5876167 -0.58762026 -0.5876151 -0.5876158 -0.587616 -0.58761597 -0.5876153
00000000: 0f6e 16bf fd6d 16bf fd6d 16bf d76d 16bf
00000010: e86d 16bf d36d 16bf 0a6e 16bf 1e6e 16bf
00000020: 1b6e 16bf 1f6e 16bf 996d 16bf db6d 16bf
00000030: 096e 16bf 006e 16bf d26d 16bf 166e 16bf
00000040: c56d 16bf ee6d 16bf f76d 16bf d76d 16bf
00000050: ed6d 16bf e96d 16bf 036e 16bf 256e 16bf
00000060: ef6d 16bf 146e 16bf f56d 16bf bb6d 16bf
00000070: f46d 16bf 0a6e 16bf 156e 16bf 1f6e 16bf
00000080: fd6d 16bf 126e 16bf 086e 16bf e26d 16bf
00000090: f56d 16bf 396e 16bf fc6d 16bf 1a6e 16bf
000000a0: 0c6e 16bf f46d 16bf eb6d 16bf dc6d 16bf
000000b0: e06d 16bf fc6d 16bf cc6d 16bf 136e 16bf
000000c0: f26d 16bf 376e 16bf 0f6e 16bf f76d 16bf
000000d0: fb6d 16bf 1d6e 16bf ef6d 16bf e06d 16bf
000000e0: 376e 16bf e36d 16bf 1a6e 16bf 186e 16bf
000000f0: f16d 16bf 006e 16bf 286e 16bf fa6d 16bf
00000100: ec6d 16bf 1d6e 16bf 046e 16bf f26d 16bf
00000110: 8b6d 16bf f76d 16bf 1b6e 16bf 076e 16bf
00000120: fe6d 16bf 0f6e 16bf f96d 16bf 716e 16bf
00000130: f86d 16bf f86d 16bf 096e 16bf db6d 16bf
00000140: ca6d 16bf 216e 16bf ec6d 16bf fc6d 16bf
00000150: cf6d 16bf f46d 16bf ee6d 16bf 0d6e 16bf
00000160: 266e 16bf f06d 16bf d46d 16bf fa6d 16bf
00000170: f16d 16bf 216e 16bf eb6d 16bf 176e 16bf
00000180: 0c6e 16bf 236e 16bf f16d 16bf 176e 16bf
00000190: 256e 16bf f96d 16bf 0a6e 16bf 2b6e 16bf
000001a0: f36d 16bf 186e 16bf 076e 16bf f26d 16bf
000001b0: 086e 16bf fe6d 16bf eb6d 16bf 206e 16bf
000001c0: d76d 16bf fe6d 16bf f06d 16bf fa6d 16bf
000001d0: 0a6e 16bf da6d 16bf ed6d 16bf ee6d 16bf
000001e0: e36d 16bf e96d 16bf f46d 16bf d26d 16bf
000001f0: 116e 16bf f66d 16bf e76d 16bf f06d 16bf
00000200: f86d 16bf 086e 16bf ca6d 16bf 0f6e 16bf
00000210: e26d 16bf 1c6e 16bf 316d 16bf d96d 16bf
00000220: 0a6e 16bf e26d 16bf d46d 16bf f16d 16bf
00000230: 016e 16bf 266e 16bf 066e 16bf fd6d 16bf
00000240: 036e 16bf e76d 16bf ff6d 16bf 1c6e 16bf
00000250: c16d 16bf 186e 16bf eb6d 16bf 126e 16bf
00000260: e76d 16bf 4f6e 16bf f26d 16bf 126e 16bf
00000270: f56d 16bf f96d 16bf 146e 16bf 016e 16bf
00000280: 0a6e 16bf ce6d 16bf ca6d 16bf 206e 16bf
00000290: ff6d 16bf 256e 16bf db6d 16bf f46d 16bf
000002a0: f06d 16bf 206e 16bf 006e 16bf 196e 16bf
000002b0: 076e 16bf 046e 16bf e36d 16bf 0c6e 16bf
000002c0: 116e 16bf 216e 16bf 196e 16bf cd6d 16bf
000002d0: ef6d 16bf 596e 16bf fd6d 16bf 176e 16bf
000002e0: ed6d 16bf 096e 16bf 1b6e 16bf 166e 16bf
000002f0: fd6d 16bf c86d 16bf fc6d 16bf 016e 16bf
00000300: 126e 16bf f26d 16bf 0d6e 16bf cb6d 16bf
00000310: ec6d 16bf 0c6e 16bf 056e 16bf 346e 16bf
00000320: 046e 16bf 026e 16bf 346e 16bf 066e 16bf
00000330: 0b6e 16bf 116e 16bf ff6d 16bf 196e 16bf
00000340: f26d 16bf f36d 16bf eb6d 16bf e46d 16bf
00000350: 0d6e 16bf f26d 16bf f76d 16bf f36d 16bf
00000360: 0d6e 16bf 016e 16bf 216e 16bf 036e 16bf
00000370: f86d 16bf 156e 16bf cf6d 16bf c46d 16bf
00000380: 056e 16bf 0e6e 16bf 156e 16bf 0e6e 16bf
00000390: fc6d 16bf 186e 16bf f46d 16bf 0d6e 16bf
000003a0: 056e 16bf 176e 16bf 0d6e 16bf cf6d 16bf
000003b0: d26d 16bf ea6d 16bf 0c6e 16bf 066e 16bf
000003c0: f86d 16bf 366e 16bf e26d 16bf ea6d 16bf
000003d0: 0e6e 16bf e96d 16bf 0f6e 16bf 146e 16bf
000003e0: 206e 16bf 0c6e 16bf 486e 16bf f16d 16bf
000003f0: fd6d 16bf 016e 16bf 006e 16bf f56d 16bf
