checkpoints/trial_1_alpha0.468_beta0.112_lr0.003depth1_mlpTrue_hdim128/checkpoint.pth (torch, 520482 bytes, 15 tensors)

root.gating.0.weight f4 [32, 437]
000000 1d 23 af 3c 06 29 c3 3c 35 d5 49 3d 81 d6 8a 3c
       0.021379048 0.023823272 0.049275596 0.016947987
000010 6b 6d ff 3b 29 09 ad 3c 77 2f c8 3c c9 80 c4 3c
       0.007795026 0.021122532 0.024436696 0.02398719
000020 3d 8b c2 3c a8 17 06 3c cb e8 d5 3c bd 3d c6 3c
       0.023748035 0.008184351 0.02611198 0.024199361
000030 d5 bf bf 3c 5c e0 6f 3d a2 1b 95 3c 81 8c ed 3b
       0.023406902 0.058563575 0.018201653 0.0072494154
000040 40 c6 35 3d cd e4 bc 3c 95 0f b5 3c 79 63 ce 3c
       0.04437852 0.02305832 0.022102157 0.025193917
000050 5c 42 9a 3b b9 63 56 3c 70 fb a5 3c 6d 3b d2 3c
       0.0047076177 0.013085299 0.020261496 0.025663102
000060 f9 ca 3e 3d 7e 52 48 3c e6 a6 c3 3a d5 fe 03 3d
       0.04658029 0.012226699 0.0014927059 0.03222545
000070 2a 5a c3 3c b6 47 bd 3c d6 04 ae 3c 59 92 10 3b
       0.023846705 0.023105484 0.02124254 0.0022059886
000080 52 01 cc 3b 5e e5 b6 3c 8c c1 cf 3c 73 8d 31 3d
       0.0062257433 0.022326168 0.025360845 0.043347787
000090 0f 8a 3e 3c 85 eb a7 bb 22 ca 32 3c 83 68 b7 3c
       0.011629595 -0.0051245117 0.01091245 0.022388702
0000a0 ad 5d a8 3c da 1b c0 3c 7a 0c b9 bb 79 4e c7 3b
       0.02055248 0.02345078 -0.0056472393 0.0060823527
0000b0 97 55 c0 3c 57 d8 c9 3c bf 04 3b 3d f0 b5 10 3c
       0.023478312 0.024639292 0.045658823 0.00883244
0000c0 6b 93 1b 3b ec 23 38 3c 76 ad bc 3c 78 84 af 3c
       0.002373899 0.011239033 0.023031931 0.02142547
0000d0 12 b2 c0 3c 52 d6 43 3b 0d f4 35 3c 23 5f b5 3c
       0.02352241 0.0029882384 0.0111055495 0.022140091
0000e0 a6 7a c0 3c 4e ff a4 3c 04 58 aa bb 8e 06 33 3a
       0.023495983 0.02014127 -0.0051984806 0.0006829285
0000f0 c2 03 8d 3c 2e d5 bd 3c d4 ed bc 3c 78 4e b8 3c
       0.017213706 0.023172941 0.023062624 0.022498354
000100 f8 33 5a 39 28 a2 13 3c d8 d8 d4 3c 10 a3 bb 3c
       0.0002080946 0.009010829 0.025982305 0.022904903
000110 6b ab e9 3c c7 48 52 3c a4 16 00 3c c8 a0 f4 3b
       0.028524121 0.012834734 0.007817898 0.0074654557
000120 23 ae c3 3c 55 54 c2 3c e7 54 a4 3c cf a5 f5 3b
       0.023886746 0.023721853 0.020060016 0.0074965726
000130 04 19 1d 3c 99 9e b7 3c 11 6c b9 3c 44 f7 81 3c
       0.009588484 0.022414492 0.022634538 0.015864976
000140 f9 10 69 bc be 4e 02 3c 4a c8 37 3c c3 2f b5 3c
       -0.014225238 0.007953344 0.011217186 0.022117501
000150 7f 12 d0 3c e4 4c ac 3c 0e 26 04 3c d5 c1 e8 3b
       0.025399445 0.021032758 0.008065714 0.0071031847
000160 8d 54 c9 3c 64 fc b0 3c d8 ec e0 3c 76 6a d9 bb
       0.02457645 0.021604724 0.027456686 -0.0066350056
000170 bd 9f 4d 3b fa de 17 3c 3b 02 c4 3c 1a 3d ba 3c
       0.003137573 0.00926947 0.023926845 0.022734214
000180 28 5f c4 3c 86 b3 58 3b 9a ea f1 3b a2 4e cf 3c
       0.023971155 0.0033065989 0.007382703 0.02530605
000190 a2 73 d2 3c b3 df 10 3d 53 a7 2b 3c b3 9d ea 3b
       0.025689904 0.035369586 0.010476905 0.0071599125
0001a0 e0 aa 82 3c 86 b2 c3 3c 8f 00 be 3c a2 11 bd 3c
       0.01595062 0.023888838 0.023193626 0.023079697
0001b0 a1 e9 1e 3c a4 43 f0 3b 81 c9 d1 3c 18 f3 c9 3c
       0.009699256 0.007332282 0.02560878 0.024652049
0001c0 4d 4d 0e 3d c0 fd af 3b 76 9a f6 3b ae 4e a8 3c
       0.03474169 0.0053708255 0.0075257374 0.02054533
0001d0 2e 9e b2 3c d6 3d ca 3c c2 46 bf 3c 06 2e 05 3c
       0.021803942 0.024687689 0.02334917 0.008128649
0001e0 7b de ee 3b 6d 72 bf 3c 56 4c b2 3c 03 dc 1d 3d
       0.0072897053 0.023369992 0.021764915 0.038539898
0001f0 57 85 1c 3c 26 81 16 3c 41 6b 9c 3c 68 42 d2 3c
       0.009553275 0.009186065 0.019094111 0.02566643
000200 a9 cc c5 3c 76 5d ba 3c bc 2c 16 3c f8 8f 0e 3c
       0.024145441 0.022749644 0.009165939 0.008701317
000210 66 9a bc 3c 14 0d c2 3c 2a 46 6f 3c a4 87 78 bc
       0.023022842 0.023687877 0.014604131 -0.015169058
000220 e1 db 4a 3b 07 4d 9e 3c d8 a4 ca 3c 66 8d ba 3c
       0.0030953812 0.019323839 0.024736807 0.022772502
000230 7c 7b b4 3c c0 82 6c 3b 3f f4 17 3c de e9 c9 3c
       0.022031538 0.0036088675 0.009274541 0.02464765
000240 72 53 c6 3c c1 80 fd 3c 64 1b 9b 3b 7b 0a a2 3b
       0.024209712 0.030945184 0.00473349 0.004945097
000250 de 00 9d 3c 7f 78 c7 3c c4 73 d1 3c 54 82 c2 3c
       0.019165453 0.02434945 0.025567897 0.023743786
000260 a2 e6 c8 3b f5 da 2d 3c b4 a0 ae 3c 34 30 d1 3c
       0.006131009 0.010611285 0.021316864 0.02553568
000270 fa 44 57 3d bd 8a be 3c 98 e5 32 3c 98 fd a7 3c
       0.052556016 0.023259515 0.010918997 0.020506665
000280 20 18 c2 3c b2 44 bd 3c 69 97 ce 3c da fa 2e 3c
       0.023693144 0.023104046 0.025218682 0.010679925
000290 46 3c 8d 3c 41 fd af 3c 9a 74 cb 3c 92 a3 60 3d
       0.017240655 0.021483066 0.024835873 0.054843493
0002a0 1f c7 a8 3c c5 98 56 3c 66 a8 bf 3c 13 10 c8 3c
       0.02060276 0.0130979465 0.023395728 0.024421727
0002b0 7e cb ca 3c aa 51 c8 3c f7 1f 63 3c 21 f2 97 3c
       0.024755236 0.024453003 0.0138626015 0.018548073
0002c0 73 7a cd 3c d8 ab d0 3c 8c 93 8d 3d 52 c4 e0 3c
       0.025082802 0.025472566 0.06912908 0.027437363
0002d0 fc f1 8d 3c 22 b4 e3 3c 24 13 b8 3c 93 dc b4 3c
       0.017327301 0.027795855 0.022470064 0.022077834
0002e0 b1 b9 b6 3c ce bf 90 3c 9f 07 c4 3c 94 62 ca 3c
       0.022305341 0.017669585 0.023929415 0.024705209
0002f0 a2 39 cd 3c 92 f1 3f 3d 6c 32 8d 3c 75 e7 97 3c
       0.025051896 0.04686124 0.017235957 0.018542985
000300 40 a2 f1 3c 7d 95 c4 3c 5b 54 c5 3c fc 50 bf 3c
       0.029496312 0.023997063 0.024088075 0.023354046
000310 04 23 94 3c a5 8a ce 3c a1 10 d4 3c 5e 20 c5 3c
       0.018083103 0.025212595 0.025886836 0.024063285
000320 d4 33 39 3d 49 54 40 3c 67 27 ad 3c 01 da 11 3d
       0.045215443 0.011738845 0.021136953 0.035608295
000330 78 29 b0 3c bc 93 b9 3c 4d 39 c6 3c 9b ba a4 3c
       0.021504149 0.022653453 0.024197245 0.020108512
000340 02 99 ba 3c d6 ba b6 3c 46 40 bf 3c fe b5 1f 3d
       0.022778038 0.022305887 0.023346078 0.03899192
000350 81 64 f0 3b 66 f2 69 3c c0 e4 19 3d 97 d1 c5 3c
       0.0073361997 0.014278984 0.03757167 0.024147792
000360 c4 37 a7 3c bd b0 b8 3c 9b b4 53 3c 75 ef b1 3c
       0.020412333 0.022545213 0.012921478 0.021720627
000370 f7 e1 b2 3c 97 80 bc 3c 2b f2 0c 3d b0 ca 48 bb
       0.021836264 0.023010535 0.034410637 -0.003063839
000380 3c a4 46 3c cc 1b 15 3d 5c c9 b6 3c c7 18 bb 3c
       0.012124117 0.036403462 0.022312813 0.022838963
000390 8e 6d bf 3c a4 5f 39 3c fd f4 9c 3c 25 c7 bf 3c
       0.02336767 0.011314306 0.019159788 0.02341039
0003a0 4c 39 c8 3c 3f e3 43 3d cc 4e c3 3b ca 36 3f 3c
       0.024441384 0.04782414 0.005960321 0.011670778
0003b0 4f c5 11 3d e1 21 c8 3c a0 28 bb 3c 31 6a b4 3c
       0.03558856 0.024430217 0.02284652 0.022023292
0003c0 45 f3 33 3c 99 0c 98 3c 70 bc c2 3c b1 fc b3 3c
       0.010983293 0.018560695 0.023771495 0.021971079
0003d0 b0 fd 7a 3d f9 07 8c 3c d9 d1 7b 3c 13 2a 18 3d
       0.06127709 0.017093645 0.015369856 0.0371495
0003e0 45 c8 ba 3c 09 9e a1 3c dd c3 b8 3c 8a 59 7d 3c
       0.022800574 0.019728677 0.022554332 0.015463242
0003f0 81 2d be 3c 6b 0c cb 3c b0 49 c9 3c cb 11 89 3d
       0.023215057 0.024786195 0.02457127 0.06692847

root.gating.0.bias f4 [32]
000000 dd 4d 61 3d e6 55 33 bb c2 a1 a1 bc 6d a9 8b bd
       0.055005897 -0.0027364432 -0.019730452 -0.06819425
000010 f6 ac 35 3c a6 2c 4f 3b 73 44 47 3c 0a d8 00 bb
       0.0110886 0.0031612306 0.012162316 -0.001966002
000020 d2 3a e2 bc a6 c4 b2 bb 22 a7 be ba 72 96 86 3b
       -0.027615938 -0.005455571 -0.0014545659 0.00410729
000030 15 2f 73 bc de 01 94 bd 8b 42 11 3d ef 29 ce ba
       -0.014842768 -0.07226919 0.03546385 -0.001572905
000040 28 38 01 3d aa 2c a1 3c 63 a1 43 3c 8f fe bb bc
       0.031547695 0.019674618 0.011940333 -0.022948531
000050 f3 5a df 3b 8a 61 9e 3c 0a 15 72 bd 67 6b 62 3c
       0.006816262 0.01933362 -0.059102096 0.013819552
000060 b0 f4 64 3c dd 65 20 ba b5 3f c7 bb 98 97 8a bc
       0.013974354 -0.00061186944 -0.0060805925 -0.016917989
000070 9d 9d ec bb 62 83 21 3d 96 bf 0d bd a7 11 22 bd
       -0.0072209374 0.039431937 -0.03460654 -0.039567616

root.gating.2.weight f4 [1, 32]
000000 50 2d 91 be 7e fb 0e 3d d7 54 d6 be 6c d0 c1 3e
       -0.28354883 0.03490781 -0.41861603 0.37854326
000010 c7 15 fb 3e 6a db 99 3e 0a fd 7a be f2 3f 28 3d
       0.49040052 0.30050212 -0.24510589 0.041076608
000020 87 64 b8 be 95 a7 33 3d b7 eb dd 3d f5 3a 86 bd
       -0.36014196 0.04386099 0.10835975 -0.06554214
000030 7a 1f c3 3e b7 21 c4 3e 82 71 b3 be e7 ac 04 3e
       0.38109952 0.38306972 -0.35047537 0.12956582
000040 24 c5 25 be 24 a3 12 bf 70 e8 88 bd eb 06 6f 3e
       -0.16188484 -0.5728018 -0.06684959 0.23342483
000050 a4 08 31 bd 36 d8 b2 be a0 26 2f 3e 1f 5d 19 be
       -0.04322113 -0.3493058 0.17104578 -0.14976929
000060 70 7a c6 bd 41 3c 1f 3c 5a e2 4d bd 5c ce 3e 3e
       -0.09691322 0.0097189555 -0.050264694 0.18633407
000070 b0 ac 51 3e 72 7f 99 3e b2 91 9e 3e b0 3c eb be
       0.20476031 0.29980046 0.30970532 -0.45944738

root.left_child.w f4 [437]
000000 7a be 1b 86 89 66 ee 03 56 74 2a 86 e1 c1 ab 85
       -2.92922e-35 1.4011924e-36 -3.2058916e-35 -1.6151983e-35
000010 5e 2a ac 85 1a f1 48 83 3e c4 2b 04 21 3d 0b 86
       -1.6190366e-35 -5.905149e-37 2.0191063e-36 -2.6187905e-35
000020 33 c7 8e 82 91 83 dc 04 97 0e 01 05 26 61 3d 03
       -2.097936e-37 5.1842576e-36 6.0682306e-36 5.565363e-37
000030 e9 49 49 03 c3 f4 a4 07 77 c4 2d 03 8b 6a a5 84
       5.9153436e-37 2.4819835e-34 5.106566e-37 -3.8889158e-36
000040 bb 5b 96 85 e8 e3 15 05 77 ab 87 06 e2 d0 34 05
       -1.4139629e-35 7.047806e-36 5.10333e-35 8.501925e-36
000050 f7 04 1f 82 d7 ed d7 05 18 b5 2b 86 15 fe cd 04
       -1.16829e-37 2.0305871e-35 -3.2294572e-35 4.8428606e-36
000060 8b 38 35 82 d3 7b 26 85 c8 2b fd 04 4b 8c 51 05
       -1.3314007e-37 -7.8280254e-36 5.952022e-36 9.8529005e-36
000070 a3 40 6e 86 fe 62 58 05 a1 e4 8f 85 78 7c 39 84
       -4.4810312e-35 1.0174453e-35 -1.353164e-35 -2.1803799e-36
000080 ce 91 23 82 08 50 4f 05 bc 8c ff 05 93 55 ed 05
       -1.2017193e-37 9.747793e-36 2.4031782e-35 2.2318808e-35
000090 dc df b4 06 30 9b 83 84 e4 21 b4 83 1a e8 9f 05
       6.8037406e-35 -3.094047e-36 -1.058723e-36 1.5037549e-35
0000a0 b4 0a 8f 08 29 14 2c 07 fc 0b 4d 85 bc bb a9 05
       8.609016e-34 1.2945766e-34 -9.641255e-36 1.5961646e-35
0000b0 e6 b1 1b 86 a8 58 2e 86 88 34 cb 04 43 40 f9 05
       -2.928296e-35 -3.2790897e-35 4.7773313e-36 2.3439453e-35
0000c0 ff 83 ab 05 bc 2e 4e 84 5b 3b 26 03 c2 8b 26 05
       1.612925e-35 -2.4236643e-36 4.8851152e-37 7.830952e-36
0000d0 63 87 01 84 04 6d 5a 05 7a 89 07 86 67 a0 18 05
       -1.5226044e-36 1.0270334e-35 -2.549168e-35 7.176467e-36
0000e0 28 f1 24 87 fe 61 6c 84 17 92 66 04 f6 3e 85 05
       -1.2408858e-34 -2.7786662e-36 2.7103451e-36 1.2530388e-35
0000f0 1e 2c 4f 05 9f 9f b8 05 48 ab a5 85 3c 8a c1 85
       9.741196e-36 1.7361912e-35 -1.5579444e-35 -1.8200412e-35
000100 ec bd 5b 06 09 1c 82 83 e0 89 63 84 dd fb 3a 84
       4.1328855e-35 -7.64715e-37 -2.674703e-36 -2.1979845e-36
000110 e5 96 70 82 73 d6 23 86 19 6d a6 83 27 a7 8e 83
       -1.767572e-37 -3.0814445e-35 -9.781651e-37 -8.384386e-37
000120 29 df 43 07 16 d0 07 86 90 ec c0 85 96 e4 34 85
       1.473575e-34 -2.5543555e-35 -1.8142493e-35 -8.505544e-36
000130 5a 29 3f 03 62 5f 15 86 d7 f2 df 85 8c ff 26 03
       5.6177325e-37 -2.8093862e-35 -2.1060024e-35 4.907637e-37
000140 19 c5 e5 03 97 98 f4 81 4e 70 2a 83 01 d7 1f 06
       1.3504662e-36 -8.98504e-38 -5.008743e-37 3.0062536e-35
000150 c4 37 14 87 38 5a d8 83 d0 dc db 85 f8 10 c8 04
       -1.115067e-34 -1.2716052e-36 -2.0675775e-35 4.7035357e-36
000160 fe 1d 99 85 bb 12 c2 81 de a8 9b 06 f0 2a ab 85
       -1.4399068e-35 -7.129122e-38 5.855265e-35 -1.6096535e-35
000170 52 a6 88 85 9d 84 99 85 2d 69 c3 86 3a 4f ed 85
       -1.2850475e-35 -1.4436765e-35 -7.350539e-35 -2.2316476e-35
000180 9f 8f 1d 84 9d e7 8c 06 ec 86 82 85 66 91 aa 83
       -1.8521209e-36 5.300247e-35 -1.2274704e-35 -1.0025084e-36
000190 f1 49 18 86 45 c3 09 85 25 c8 f1 02 78 a1 0c 04
       -2.8642346e-35 -6.4775744e-36 3.5526645e-37 1.6531064e-36
0001a0 36 f1 06 84 5e cb 6f 84 a8 c0 fe 06 b4 eb 81 86
       -1.5862383e-36 -2.8187697e-36 9.5827264e-35 -4.887074e-35
0001b0 1f e4 c2 85 0d aa 70 06 8b ed 47 85 1f 9a 1f 85
       -1.8327471e-35 4.5263917e-35 -9.400565e-36 -7.504452e-36
0001c0 99 32 0f 04 e4 9b 28 85 1a 6d 0b 86 31 2f 82 04
       1.6832803e-36 -7.9279546e-36 -2.622315e-35 3.060619e-36
0001d0 20 a2 31 06 75 46 04 07 bf 25 6e 07 ff 30 74 86
       3.340911e-35 9.951282e-35 1.7916223e-34 -4.5927296e-35
0001e0 02 fa aa 04 fa 05 85 85 3e 9e cf 85 0a c6 12 84
       4.0196404e-36 -1.2509455e-35 -1.9524315e-35 -1.7253153e-36
0001f0 91 30 6c 04 60 ae cb 04 35 ca 59 83 50 11 1a 87
       2.7763967e-36 4.788521e-36 -6.400269e-37 -1.159076e-34
000200 35 87 97 85 91 8b 2c 05 0c 4b 11 85 a2 5f 86 03
       -1.4249639e-35 8.1130354e-36 -6.831651e-36 7.897768e-37
000210 2b cb 8f 03 e1 78 b1 84 7c 3a 56 05 9f 42 3e 06
       8.45143e-37 -4.172351e-36 1.00729735e-35 3.5783974e-35
000220 fa a4 91 85 57 49 62 08 76 38 2a 85 b2 a0 86 04
       -1.3696337e-35 6.809561e-34 -8.003732e-36 3.1650824e-36
000230 f7 01 43 06 a3 33 1c 06 a1 cf 7d 86 92 a8 42 05
       3.6676867e-35 2.9378276e-35 -4.7736553e-35 9.1527976e-36
000240 e0 5c ac 05 d4 59 56 05 8e eb b4 04 46 05 64 04
       1.6208919e-35 1.00787305e-35 4.253412e-36 2.6803693e-36
000250 9e 43 60 85 72 b6 a4 85 3f 47 ca 84 43 b9 b6 86
       -1.0544849e-35 -1.5489506e-35 -4.75554e-36 -6.873301e-35
000260 17 07 29 86 d7 2f c1 04 1e e9 2d 86 7b 15 8b 04
       -3.1790576e-35 4.5418016e-36 -3.270895e-35 3.269847e-36
000270 37 e0 94 84 c3 4c 41 87 6e 46 08 03 83 86 d2 04
       -3.500054e-36 -1.4542264e-34 4.0047657e-37 4.9494292e-36
000280 04 8e c3 86 37 03 8d 85 f1 34 df 0b e4 20 72 85
       -7.355952e-35 -1.3260757e-35 8.597613e-32 -1.13848264e-35
000290 5f 53 a5 04 50 11 d2 05 6d 88 13 06 19 da 92 04
       3.8867878e-36 1.9754665e-35 2.7747857e-35 3.4524726e-36
0002a0 46 2e db 83 0f 3c d9 04 18 b3 e5 83 e8 dc 12 84
       -1.2882287e-36 5.107161e-36 -1.3500528e-36 -1.7263653e-36
0002b0 39 a0 b0 05 84 df fa 05 d0 bb 48 85 d0 2f 0f 05
       1.6609817e-35 2.3591994e-35 -9.4384505e-36 6.7326095e-36
0002c0 e1 65 48 04 9b fb a2 85 75 4d e8 86 81 b0 7b 05
       2.3556668e-36 -1.5326832e-35 -8.7382513e-35 1.1834382e-35
0002d0 e2 2c 0b 85 13 44 1a 85 b4 5c 7a 87 8c a2 13 05
       -6.543992e-36 -7.2535485e-36 -1.8835153e-34 6.941762e-36
0002e0 e4 84 c2 85 b4 58 86 06 8b 28 b2 87 61 01 05 86
       -1.8292489e-35 5.0535535e-35 -2.6806292e-34 -2.5015533e-35
0002f0 ed 11 4e 05 47 6e 8c 85 9a cf d7 04 25 1c 62 05
       9.689366e-36 -1.3206046e-35 5.073691e-36 1.0631638e-35
000300 8e 2b 68 86 5a 61 b0 82 d9 22 b3 85 95 4b fb 07
       -4.366635e-35 -2.5916753e-37 -1.684588e-35 3.7810706e-34
000310 20 cb 01 88 18 96 e1 84 2c 61 0f 86 9c 6b a7 04
       -3.90583e-34 -5.3035085e-36 -2.69667e-35 3.9360335e-36
000320 8a d3 1c 06 45 89 95 04 a4 ba 82 05 db ee ad 06
       2.9495753e-35 3.5155794e-36 1.2293702e-35 6.5426334e-35
000330 f4 3e 9a 05 20 b2 5b 06 ce 2d 4e 88 cd ba 6b 82
       1.4505216e-35 4.1320188e-35 -6.2044713e-34 -1.7318682e-37
000340 96 1f 16 07 11 07 4d 85 13 22 9a 85 e9 9c 79 81
       1.1294028e-34 -9.6403516e-36 -1.4494607e-35 -4.5846655e-38
000350 c2 88 cd 84 a7 99 10 07 d1 3c 4c 04 fa e6 48 07
       -4.832086e-36 1.087851e-34 2.400801e-36 1.5114206e-34
000360 e9 a5 9f 85 90 24 81 05 d1 8d e1 05 e7 ea ac 84
       -1.5013234e-35 1.2144533e-35 2.1210993e-35 -4.065273e-36
000370 1b b4 b8 05 b0 b8 17 85 5e d4 85 84 7a fd 33 04
       1.7369437e-35 -7.1339076e-36 -3.1463178e-36 2.115774e-36
000380 c9 1b b2 05 c8 f3 60 86 be 53 e7 07 22 07 4c 84
       1.6749246e-35 -4.230882e-35 3.4806236e-34 -2.398336e-36
000390 b8 55 73 86 f7 ed c7 84 eb a6 0d 86 01 bc ad 05
       -4.5766197e-35 -4.700321e-36 -2.6641785e-35 1.6337904e-35
0003a0 41 17 9d 04 8e 68 15 85 94 aa ce 84 c2 32 16 06
       3.6931878e-36 -7.02515e-36 -4.858702e-36 2.8249155e-35
0003b0 77 ef b6 85 73 83 ca 06 cd 11 2b 04 93 40 5b 04
       -1.7203163e-35 7.61771e-35 2.0109127e-36 2.5772977e-36
0003c0 d9 e3 1f 86 a7 ac 66 84 cd f9 47 86 08 1d e6 84
       -3.0071972e-35 -2.7115648e-36 -3.7611265e-35 -5.40994e-36
0003d0 37 6b 90 86 4e 0a dc 85 53 17 f2 06 24 0d 19 87
       -5.432432e-35 -2.0692486e-35 9.1064554e-35 -1.1514302e-34
0003e0 86 8e 99 05 3a e0 6d 05 ac bd 9d 03 04 2f 8c 05
       1.4440406e-35 1.11848704e-35 9.271177e-37 1.3182808e-35
0003f0 38 fb 9a 85 37 a4 11 86 43 5b d8 05 22 1e 28 86
       -1.4574374e-35 -2.7392115e-35 2.0346067e-35 -3.1619426e-35

root.left_child.feature_selector.logit_phi f4 [437]
000000 ab 5d ae 40 60 a8 ae 40 ce 82 ae 40 56 88 ae 40
       5.448934 5.4580536 5.4534674 5.4541426
000010 f9 40 ae 40 70 76 ae 40 bb ac ae 40 05 95 ae 40
       5.445431 5.4519577 5.4585853 5.455691
000020 3f 81 ae 40 ee 72 ae 40 fa 53 ae 40 7f 83 ae 40
       5.453277 5.4515295 5.447751 5.453552
000030 97 11 ae 40 b5 80 ae 40 e4 71 ae 40 0c 94 ae 40
       5.439647 5.4532113 5.4514027 5.455572
000040 8f 83 ae 40 63 b2 ae 40 53 4c ae 40 9b 87 ae 40
       5.4535594 5.4592757 5.446817 5.4540534
000050 4b a2 ae 40 2f 9a ae 40 9d 3a ae 40 07 8b ae 40
       5.457311 5.4563212 5.444655 5.454471
000060 e5 42 ae 40 50 9e ae 40 73 99 ae 40 60 47 ae 40
       5.445666 5.4568253 5.4562316 5.446213
000070 3d 61 ae 40 88 8b ae 40 12 9d ae 40 2e 80 ae 40
       5.44937 5.4545326 5.4566736 5.453147
000080 4e 94 ae 40 89 3c ae 40 d5 98 ae 40 f0 90 ae 40
       5.4556036 5.4448895 5.4561563 5.4551926
000090 df 80 ae 40 0c 7d ae 40 db 7a ae 40 09 4d ae 40
       5.4532313 5.4527645 5.452497 5.4469037
0000a0 01 6b ae 40 70 89 ae 40 5a 46 ae 40 97 8d ae 40
       5.450562 5.454277 5.446088 5.454784
0000b0 66 b7 ad 40 39 63 ae 40 4a 73 ae 40 4c 55 ae 40
       5.4286375 5.449612 5.4515734 5.447912
0000c0 aa 93 ae 40 33 3f ae 40 d9 6f ae 40 8a 4f ae 40
       5.4555254 5.4452147 5.4511533 5.4472094
0000d0 55 93 ae 40 87 a2 ae 40 42 b1 ae 40 83 41 ae 40
       5.455485 5.45734 5.459138 5.445497
0000e0 fa 77 ae 40 8b 79 ae 40 9a 90 ae 40 8e 9d ae 40
       5.4521456 5.452337 5.4551516 5.4567327
0000f0 00 85 ae 40 6c 06 ae 40 19 77 ae 40 df 89 ae 40
       5.4537354 5.438284 5.4520383 5.45433
000100 c2 99 ae 40 fa a3 ae 40 5e 54 ae 40 08 89 ae 40
       5.4562693 5.4575167 5.4477987 5.4542274
000110 db 8c ae 40 6f ae ae 40 1f 90 ae 40 1a 96 ae 40
       5.4546943 5.458793 5.455093 5.455823
000120 74 6e ae 40 50 6d ae 40 e4 98 ad 40 05 92 ae 40
       5.450983 5.450844 5.4249134 5.4553246
000130 21 9d ae 40 6a 8c ae 40 80 99 ae 40 59 b6 ae 40
       5.456681 5.4546404 5.456238 5.459759
000140 62 a8 ae 40 a8 76 ae 40 d0 a9 ae 40 a3 47 ae 40
       5.4580545 5.4519844 5.458229 5.4462447
000150 7e ca ad 40 04 68 ae 40 b6 1e ae 40 15 7d ae 40
       5.4309683 5.450197 5.441249 5.452769
000160 9e 70 ae 40 ce 72 ae 40 50 b4 ae 40 df 75 ae 40
       5.451247 5.4515142 5.459511 5.4518886
000170 98 9a ae 40 05 b0 ae 40 d4 2f ae 40 7b d5 ad 40
       5.4563713 5.4589868 5.4433384 5.4323096
000180 a0 6e ae 40 20 ab ae 40 f9 b3 ae 40 b9 a8 ae 40
       5.451004 5.4583893 5.4594693 5.458096
000190 bd 5f ae 40 9c a6 ae 40 99 94 ae 40 a9 71 ae 40
       5.449187 5.457838 5.4556394 5.4513745
0001a0 e4 96 ae 40 19 a9 ae 40 dc 91 ae 40 5f 94 ae 40
       5.4559193 5.458142 5.455305 5.4556117
0001b0 26 64 ae 40 a1 74 ae 40 81 77 ae 40 85 83 ae 40
       5.449725 5.451737 5.452088 5.4535546
0001c0 c0 99 ae 40 bc 9d ae 40 d8 99 ae 40 32 a8 ae 40
       5.4562683 5.4567547 5.4562798 5.4580317
0001d0 43 86 ae 40 0e 84 ae 40 5d 6c ae 40 ad 85 ae 40
       5.4538894 5.45362 5.450728 5.453818
0001e0 bc 79 ae 40 e4 57 ae 40 3a 06 ae 40 0a 74 ae 40
       5.45236 5.448229 5.43826 5.451665
0001f0 56 af ae 40 9b 54 ae 40 91 b0 ae 40 3d 8a ae 40
       5.4589033 5.447828 5.4590535 5.454375
000200 3b 2b ae 40 d6 3b ae 40 f4 89 ae 40 33 91 ae 40
       5.442777 5.444804 5.45434 5.4552245
000210 f7 74 ae 40 12 e9 ad 40 d2 9a ae 40 40 92 ae 40
       5.451778 5.434701 5.456399 5.455353
000220 d6 94 ae 40 04 7c ae 40 87 85 ae 40 e8 2f ae 40
       5.4556684 5.4526386 5.4537997 5.443348
000230 94 5a ae 40 bd ac ae 40 63 82 ae 40 14 82 ae 40
       5.448557 5.458586 5.4534163 5.4533787
000240 ce 77 ae 40 48 7b ae 40 c4 aa ae 40 c1 57 ae 40
       5.4521246 5.452549 5.4583454 5.448212
000250 f4 a8 ae 40 f4 81 ae 40 0a 6f ae 40 84 3b ae 40
       5.458124 5.4533634 5.4510546 5.444765
000260 bd 84 ae 40 d3 75 ae 40 e3 8b ae 40 d7 90 ae 40
       5.4537034 5.451883 5.454576 5.4551806
000270 6c a0 ae 40 f5 8e ae 40 80 b9 ae 40 03 b0 ae 40
       5.4570827 5.454951 5.460144 5.458986
000280 aa a0 ae 40 a1 18 ae 40 d8 6d ae 40 c7 9b ae 40
       5.4571123 5.4405065 5.4509087 5.456516
000290 71 2d ae 40 1c b5 ae 40 60 93 ae 40 87 8c ae 40
       5.443047 5.459608 5.45549 5.454654
0002a0 fa 96 ae 40 48 b4 ae 40 63 63 ae 40 76 81 ae 40
       5.4559298 5.459507 5.449632 5.4533033
0002b0 9c 88 ae 40 ef 50 ae 40 a4 3d ae 40 c7 c2 ae 40
       5.454176 5.4473796 5.4450245 5.4612765
0002c0 03 35 ae 40 d0 56 ae 40 7e 9b ae 40 0d b2 ae 40
       5.443971 5.448097 5.456481 5.4592347
0002d0 c1 a6 ae 40 a0 64 ae 40 07 74 ae 40 98 7d ae 40
       5.4578557 5.4497833 5.4516635 5.4528313
0002e0 a8 9a ae 40 c6 be ae 40 42 8a ae 40 ac 17 ae 40
       5.456379 5.460788 5.454377 5.4403896
0002f0 6d 49 ae 40 20 9a ae 40 45 92 ae 40 91 bb ae 40
       5.446463 5.456314 5.455355 5.4603963
000300 5b a8 ae 40 83 64 ae 40 eb 63 ae 40 15 74 ae 40
       5.458051 5.4497695 5.449697 5.45167
000310 cc a4 ae 40 40 3e ae 40 fd 69 ae 40 f7 ae ae 40
       5.457617 5.445099 5.450438 5.458858
000320 56 98 ae 40 d4 bf ae 40 14 93 ae 40 9e 9a ae 40
       5.4560957 5.4609165 5.455454 5.456374
000330 2b 98 ae 40 b2 b9 ad 40 d2 59 ae 40 c1 ac ae 40
       5.456075 5.428918 5.4484644 5.458588
000340 2e 97 ae 40 36 76 ae 40 71 0e ae 40 a1 8f ae 40
       5.4559546 5.45193 5.439263 5.455033
000350 58 99 ae 40 2b 93 ae 40 79 93 ae 40 69 9b ae 40
       5.4562187 5.455465 5.455502 5.456471
000360 ef 7c ae 40 ab 58 ae 40 d8 a6 ae 40 72 8b ae 40
       5.4527507 5.4483237 5.4578667 5.454522
000370 ff a1 ae 40 81 85 ae 40 84 a0 ae 40 d2 a9 ae 40
       5.457275 5.453797 5.457094 5.45823
000380 6b be ae 40 5d 99 ae 40 63 98 ac 40 a9 84 ae 40
       5.4607444 5.456221 5.393602 5.453694
000390 9e 5a ae 40 88 82 ae 40 6b b5 ae 40 93 89 ae 40
       5.4485617 5.453434 5.4596457 5.4542937
0003a0 a2 e6 ad 40 ed 24 ae 40 81 9d ae 40 de 51 ae 40
       5.4344034 5.4420075 5.4567266 5.4474936
0003b0 08 b3 ae 40 c0 61 ae 40 49 3f ae 40 34 5a ae 40
       5.4593544 5.4494324 5.4452252 5.448511
0003c0 b0 7c ae 40 c3 b6 ae 40 eb b8 ad 40 85 91 ae 40
       5.4527206 5.45981 5.428823 5.4552636
0003d0 7a 8f ae 40 5b 99 ae 40 76 a4 ae 40 67 be ae 40
       5.455014 5.45622 5.457576 5.4607425
0003e0 80 8b ae 40 c8 9a ae 40 99 3a ae 40 5f 60 ae 40
       5.454529 5.456394 5.444653 5.449264
0003f0 d8 b3 ae 40 05 7a ae 40 90 8f ae 40 e5 61 ae 40
       5.4594536 5.452395 5.4550247 5.44945

root.left_child.local_expert.fc1.weight f4 [128, 437]
000000 fa f7 db 3c 8c d0 7e 3d 5d 32 88 bd c3 ad a0 bd
       0.026851643 0.062210605 -0.06650231 -0.078456424
000010 f6 8f 95 bd 82 81 81 bd 21 98 0e 3d f2 78 22 3d
       -0.07302849 -0.0632353 0.03481305 0.039666124
000020 c5 a2 98 3a 20 d8 77 bd a3 f4 81 bc db dc 9e 3d
       0.0011645189 -0.060508847 -0.015863722 0.077569686
000030 ff 01 70 3d 89 40 3c bd 8f 4a 29 be 55 25 10 be
       0.058595654 -0.045959983 -0.16532348 -0.14076741
000040 b5 f3 c0 3c dc 23 a1 3c d9 0a df 3d 21 42 76 3d
       0.023553709 0.01967042 0.10890741 0.06012166
000050 bf 6f cd bd 3c b7 90 bd d3 85 75 3d bb e5 3c bc
       -0.100310795 -0.07066199 0.059942078 -0.011529381
000060 aa c1 90 3c 14 ce 46 bd 0c 92 a1 bd 9e 45 a6 bc
       0.017670471 -0.048536375 -0.07889184 -0.020296868
000070 e0 4c 0f 3d e9 64 3a 3d 02 f1 8c 3d 65 22 ce bd
       0.034985423 0.04550639 0.06881906 -0.10065154
000080 bb ab 81 bc 2d a7 39 3d a1 f8 88 3d 0c c7 7b bd
       -0.015828958 0.045325447 0.06688047 -0.061469123
000090 7e 26 85 bc e9 43 7f bd b1 48 91 bd 51 ae a9 3c
       -0.016253706 -0.062320624 -0.07093943 0.020713003
0000a0 2b 11 a3 3d 39 a3 1a 3c b0 22 80 bd 02 5a a5 bd
       0.07962259 0.009438329 -0.06256616 -0.08073808
0000b0 c0 4d 3d 3c 30 1c 5b 3d d5 07 fa bd c3 54 e6 bc
       0.011554182 0.05349368 -0.12208525 -0.02811659
0000c0 94 0f fc bd d0 5f fd bd 06 9e 02 3d ef 67 aa 3b
       -0.12307659 -0.123717904 0.031888984 0.005200378
0000d0 73 0e 4c 3b ed ff c2 bd f0 4a 6a 3c 45 21 98 3c
       0.0031136542 -0.0952147 0.014300093 0.018570552
0000e0 b1 24 a6 3c 8a 3e e8 bb 27 0a cc 3d df 44 2c bd
       0.020281168 -0.0070875334 0.09962874 -0.042057868
0000f0 a1 74 af bd 8b d8 93 3b af ec 8d 3d b5 bd a3 3d
       -0.08567167 0.004511898 0.069299094 0.07995168
000100 b1 26 19 bd f1 93 24 3d 5a 98 81 3c 41 32 a0 3c
       -0.037390415 0.04018015 0.015819717 0.019555213
000110 de b2 02 bd 14 22 70 bc d5 ba c3 bd 20 9b 58 bd
       -0.031908862 -0.014656562 -0.0955712 -0.052882314
000120 8f 2d 17 3c 6d 47 ab 3c 4b ec a5 3d 11 a1 b1 bd
       0.009227171 0.020908082 0.0810171 -0.08673299
000130 bd bc 75 3d f7 20 77 3d a8 1b 3c 3d 9d 6f 9e bd
       0.059994448 0.060334172 0.045924813 -0.07736132
000140 df 25 38 bd 05 28 2c bc d1 20 0b 3b d5 6e ad ba
       -0.04495799 -0.010507588 0.0021229277 -0.0013231883
000150 90 b8 8c b8 38 c5 ae 3c 6e 2c 80 bd 69 9b 99 bc
       -6.710098e-05 0.021334276 -0.06258474 -0.018750863
000160 ff b1 35 3d 48 13 62 3b ea 2c 21 bd 01 81 a8 3c
       0.044359203 0.0034496356 -0.039349474 0.020569326
000170 0a 01 16 3c f3 e9 78 bd ec f9 9e 3d 73 0f 89 3c
       0.009155521 -0.060769986 0.077625126 0.016731
000180 bb c5 80 3d ba 2e 8f bd d7 f2 00 bd de 99 82 3d
       0.06287714 -0.06991334 -0.03148159 0.06377004
000190 59 82 8e 3d 77 9b 52 bd b9 b8 8e 3b c1 df 4b bd
       0.069584556 -0.051417794 0.0043555168 -0.049773935
0001a0 4f 98 59 bd 58 ef 30 3d 9d 05 84 3d 39 28 43 3d
       -0.05312377 0.043197006 0.06446383 0.04764578
0001b0 b9 45 4f bd f5 75 84 38 3b 5d b8 3d bd bb 73 3d
       -0.050603602 6.316222e-05 0.09002157 0.059505213
0001c0 32 01 4a 3d 9b 18 1a 3e 76 6e 7b bd 0c b4 a7 bd
       0.049317546 0.15048449 -0.06138464 -0.08188638
0001d0 f8 33 9e 3d 50 90 52 3d fa 63 fc 3c 38 7c be bc
       0.07724756 0.05140716 0.030809391 -0.023252591
0001e0 e7 7c 44 bc 40 e6 b3 3d 4b fb 1a 3d cb 75 8a 3d
       -0.01199267 0.08784151 0.037837308 0.067607485
0001f0 2e 8c 54 3d a9 1f 10 bd 12 b7 39 bd 24 df 5f 3d
       0.0518915 -0.035186443 -0.045340605 0.054656163
000200 69 25 b6 3d fc 1b 99 3d 21 c0 82 bd 55 12 a3 3c
       0.08893854 0.07476041 -0.06384302 0.019906202
000210 50 a3 d7 3d 8f 57 b0 3c 8c b1 97 ba 59 4a ba 3c
       0.10529196 0.021526126 -0.0011573299 0.02274053
000220 d0 b3 eb bc 80 b0 99 bd 3a b2 32 ba 26 0c 9b 3d
       -0.028772265 -0.07504368 -0.0006816719 0.075706765
000230 57 52 4e 3c d5 4e 88 bd f5 6b 5a 3b ad 0d 48 bc
       0.012592874 -0.06655661 0.0033328508 -0.012210292
000240 47 a3 5a 3d 77 5d 28 bd 3e e1 7f 3b b5 c8 a5 bd
       0.05337837 -0.04110476 0.0039044167 -0.080949225
000250 32 6c 00 bd 86 3c 96 3d df 00 fc 3c 40 d8 74 3c
       -0.031353183 0.07335763 0.030762134 0.014944136
000260 81 ec e3 bd 62 99 97 3d ae 71 6b 3d a9 ff 66 3c
       -0.11129094 0.07402302 0.05748146 0.01409904
000270 98 36 84 bd 28 d8 f2 bb 5d e9 64 bd db 29 7e bd
       -0.064557254 -0.0074110217 -0.055886615 -0.062051635
000280 ae a2 7f 3d cd 9f 15 3d 68 8d 3c 3d 9f 94 91 bb
       0.062411003 0.03652935 0.046033293 -0.004442766
000290 c3 57 21 3c 1d 3c 9f 3d 7f 1c 58 3d c6 4b 8e bc
       0.009847584 0.077751376 0.05276155 -0.017370116
0002a0 4a ed b4 bb 57 87 93 bd c8 4b 78 bd e5 fc cd 3d
       -0.005521451 -0.072035484 -0.060619146 0.100580014
0002b0 43 c4 b2 bc 12 d7 e1 3c b6 c0 a7 bd 1f 3b 2e bc
       -0.0218221 0.027568374 -0.081910536 -0.010634213
0002c0 ed 21 71 3b ce f7 56 ba 0d 84 82 3d 4a 32 b6 3d
       0.0036793903 -0.0008200378 0.06372843 0.088963106
0002d0 4f f9 bc bc 23 c1 a7 3c 21 f0 a2 3d 33 6f f6 bb
       -0.023068098 0.020477837 0.07955957 -0.00752058
0002e0 fb c5 cf 3c 2d 38 1d bd b2 71 eb 3b 30 47 57 bc
       0.02536296 -0.03838365 0.0071851844 -0.013139531
0002f0 c8 36 b9 3d d8 dd d4 3c 31 51 9b 3c 9e b5 7e bc
       0.09043652 0.02598469 0.018959614 -0.015546231
000300 11 af 32 3d 58 96 7b b9 a3 20 ca 3c 24 93 ce 3c
       0.043623988 -0.00023993233 0.024673766 0.025216646
000310 8f 04 26 bb 44 ec a6 3d ad 32 a8 3d a4 5c 93 3d
       -0.0025332307 0.08150533 0.08212791 0.07195404
000320 34 fb d4 bc a2 a5 0c 3d d3 12 0f bd 51 ad ae 3c
       -0.02599869 0.034337647 -0.03493006 0.021322878
000330 3c d5 30 3d f0 f8 67 3d 1f 8d 1f 3c ff 92 2e bc
       0.043172106 0.05663389 0.009738236 -0.010655164
000340 fa 50 bf 3c 82 3e e4 3d c1 71 a8 3c 6e 2f 62 bd
       0.023354042 0.11144735 0.020562055 -0.055221014
000350 cd f6 63 bd a5 00 29 bd 10 22 87 bc 00 d8 17 3d
       -0.05565529 -0.04126038 -0.016495734 0.037071228
000360 1c 04 a0 3d 8c 7c ad 3d 94 69 f9 bc 92 fa 42 bd
       0.07813284 0.08471021 -0.030445851 -0.047602244
000370 7d 21 9e 3d d4 dc 02 3b a9 20 4c bd 1e f3 72 bd
       0.07721231 0.001996805 -0.049835835 -0.059313886
000380 84 c5 0c bd d5 a7 05 3d 84 3e 40 3c 1e 60 18 3d
       -0.034368053 0.03263076 0.011733655 0.03720104
000390 dc df ca 3d 72 17 a6 bd 67 b3 b7 bc cd a6 cb 3d
       0.09905979 -0.081099406 -0.022424413 0.09943924
0003a0 c3 b2 a6 3d ad f4 ae bd 2a 22 74 bd 03 85 91 bd
       0.08139565 -0.08542762 -0.059602894 -0.07105448
0003b0 55 b3 66 bc 2e ac be 3c 26 75 97 3b de 3a 17 3d
       -0.014080842 0.023275461 0.0046221195 0.036921374
0003c0 da b4 a3 bd ae 25 dd bc 5a 8c fe bb 35 ca 0e 3d
       -0.07993479 -0.026995506 -0.007768196 0.03486081
0003d0 8c 87 83 bb a2 b4 3f bc e6 a2 be bd 6a 47 09 3d
       -0.004013961 -0.011700781 -0.09308414 0.03351537
0003e0 b6 d7 17 3d cc cc bd ba 9e 98 4c 3d 71 76 d7 bc
       0.037070952 -0.001448059 0.049950235 -0.026301594
0003f0 fa 3b cc 3c d2 bf 76 3d ab 60 c8 b9 64 86 bf 3c
       0.024930943 0.060241528 -0.00038218996 0.023379512

root.left_child.local_expert.fc1.bias f4 [128]
000000 de a4 2b be 32 10 b6 be ab 05 3b be cd 0b 55 be
       -0.1676211 -0.3555923 -0.18263881 -0.20805283
000010 83 16 23 be aa 49 8d be 6e 34 a2 bd 09 f0 ad be
       -0.15926556 -0.27595264 -0.079201564 -0.33972195
000020 77 47 16 be 64 72 8e be 7e db 63 be 6a 02 ab bd
       -0.14675699 -0.27821648 -0.22251698 -0.0835007
000030 59 69 0e bf d8 d4 b9 be c5 3c 8d be 2c 99 83 bd
       -0.556295 -0.362952 -0.27585426 -0.064256996
000040 10 bc 6e be 1e 8e c6 be ef ee 33 be f6 73 04 bf
       -0.23313928 -0.38780302 -0.17571615 -0.5173944
000050 06 e6 0e be 32 5c c0 be 5a d8 9f be 1e bc 55 be
       -0.13954934 -0.3757034 -0.3121975 -0.20872542
000060 0b bf 8b be 66 54 c6 bb 44 05 bc bd ae 4f 76 be
       -0.27294192 -0.0060525415 -0.09180692 -0.24053833
000070 77 cc a7 be 38 7c 77 be db 1d a1 be b2 f7 60 be
       -0.32773182 -0.2416848 -0.3146809 -0.21969488
000080 fb 8a 23 be 30 e3 9b bd 87 74 25 be 90 2d 37 be
       -0.15970986 -0.07611692 -0.16157733 -0.17888474
000090 68 b0 00 bf bd cb 9a be 4e b9 2a be 02 15 8c be
       -0.50269175 -0.30233565 -0.1667225 -0.27359778
0000a0 fd d5 ff bd b8 6a ae be 00 1f 9c be 77 f4 ba be
       -0.12491987 -0.34065795 -0.304924 -0.36514637
0000b0 41 fa a8 be 2b 4b 89 be 8f 6d 84 be 74 a8 b1 be
       -0.3300343 -0.2681516 -0.25864837 -0.34698832
0000c0 e5 8f 42 be 6e 4e e6 bd df a9 12 be 2d a7 8f be
       -0.19000204 -0.11245428 -0.14322613 -0.28057232
0000d0 e3 fa c2 be b4 8e 02 bd 4e ed 0e be e6 57 98 be
       -0.38082036 -0.031874374 -0.13957712 -0.2975456
0000e0 08 4c 7b be 5f 95 d9 be c9 f4 88 be 84 be 59 be
       -0.24540722 -0.42496774 -0.26749256 -0.21264082
0000f0 1d 47 13 be 27 da 40 be 37 4e 08 bf 7f fb b3 be
       -0.14382596 -0.18833219 -0.53244346 -0.35152814
000100 fc 4b 84 be f3 21 2e be dc 6e ce be ac 7c 85 be
       -0.2583922 -0.17005138 -0.40318954 -0.2607168
000110 1e 89 dc bd 5b 5b 19 be 16 d6 66 be 67 f9 39 be
       -0.107683405 -0.14976256 -0.22542605 -0.18161546
000120 83 90 03 be 0f b5 66 be 6d 78 10 be 9f d8 35 be
       -0.12848096 -0.22530006 -0.14108439 -0.17758416
000130 be ab d6 be d3 25 51 bd d6 e7 03 be 05 6f b1 bd
       -0.41927904 -0.051061463 -0.12881407 -0.086637534
000140 7a 90 1c be 5c a4 ed bd d6 b7 d2 be 22 54 10 be
       -0.15289488 -0.11603615 -0.4115588 -0.14094594
000150 59 dc 04 be 9a ba a5 bd e2 27 05 bf 3f be f5 be
       -0.12974681 -0.08092232 -0.5201398 -0.4799671
000160 10 26 56 be 28 16 af be a1 7d 3a be d6 ea a6 be
       -0.20912957 -0.3419659 -0.18211986 -0.3260104
000170 c6 76 31 be 62 36 86 be 55 65 cf be c6 50 b2 be
       -0.17330465 -0.26213366 -0.40506998 -0.3482725
000180 ba e2 19 be 53 47 cb be 5e f4 ab be 3f 05 9b be
       -0.15027896 -0.39702854 -0.33584875 -0.3027744
000190 2c 7c 14 be 7c 01 10 be 15 50 6d be 45 a5 cb bd
       -0.14500493 -0.14063066 -0.2317508 -0.09943632
0001a0 8b 45 72 be 2b 29 84 be 76 37 b9 bd 16 59 94 bd
       -0.23659341 -0.2581266 -0.090437815 -0.07243554
0001b0 85 8e ae be 8e ed 50 be b2 4f 76 be 2c ec 0e be
       -0.3409311 -0.2040312 -0.24053839 -0.1395728
0001c0 13 40 f1 bc a2 77 88 be 42 e6 80 bd 0b 3a af bd
       -0.029449498 -0.26653773 -0.06293918 -0.08555993
0001d0 c9 e2 20 be 31 67 21 be 8a 97 96 bd 64 47 dd be
       -0.15711512 -0.1576202 -0.073531225 -0.4321853
0001e0 8d 3b 20 bd af fd ae bd a7 9e 7f be bb 0a 22 be
       -0.039119292 -0.0854448 -0.24962865 -0.15824406
0001f0 1a 44 31 be 61 6d 00 be 77 3c a9 be 3a d1 74 be
       -0.17311135 -0.12541725 -0.33053944 -0.23907939

root.left_child.local_expert.fc2.weight f4 [2, 128]
000000 53 ff 8e 3d d9 9c 1d bc 2c 6c 33 bd 84 61 1b 3c
       0.06982293 -0.009619915 -0.043804333 0.009483699
000010 f4 ce 9d bb f9 87 11 3d 43 5d c0 3c c4 82 79 3d
       -0.0048159305 0.035530064 0.02348197 0.060915723
000020 68 d0 97 bc 3f bc 18 3d 90 b4 8d 3c 70 41 07 bd
       -0.018531993 0.0372889 0.017298013 -0.03302139
000030 ce 98 d3 bc 84 8b 73 3c dd 32 1e 3d ab c8 e6 3c
       -0.025829699 0.014864806 0.038622726 0.028171858
000040 09 34 16 3d 52 e4 0d bd bc e8 0c 3d 1b 3f d1 39
       0.03667072 -0.03464157 0.03440164 0.00039910604
000050 3e 78 29 bd 4c 81 48 bd a1 35 af 3d 49 0e 7f 3d
       -0.041374438 -0.048951432 0.08555151 0.062269483
000060 6c c7 9a bd 8a a5 29 3c ee 76 01 3c 67 91 3a 3c
       -0.07557568 0.010354409 0.00790189 0.011387206
000070 7d b4 21 bd 29 b7 2b bd 9f d2 3a bd 9f de 04 3d
       -0.039478768 -0.041922722 -0.04561102 0.03243887
000080 e8 10 47 3d 95 b4 98 bd b4 93 79 3d 2f 0c 78 3d
       0.048600107 -0.07456318 0.060931876 0.060558494
000090 68 c8 1e bd 8d f9 3d bd 14 d8 b0 3c 70 bf 64 bd
       -0.03876534 -0.04638057 0.02158741 -0.05584663
0000a0 ed d3 8e 39 8f f9 af 3b 28 6c 03 bd b2 fe 9d 3d
       0.00027242248 0.005370326 -0.032085568 0.07714595
0000b0 86 b2 4e 3d 6b 3e 37 bd 67 f6 7b bd 8f 9b 97 bd
       0.050463222 -0.04473726 -0.061514284 -0.07402717
0000c0 b1 53 ca 3c d6 ea 59 bd 9f 9f ce 3a 82 0e 9f 3c
       0.02469811 -0.053202473 0.0015764124 0.019416098
0000d0 9f 80 8d bd 80 3e c1 bc 79 97 4f 3c 8c 49 a1 bc
       -0.06909298 -0.023589373 0.012670391 -0.01968839
0000e0 9a 5c 87 3c 85 71 53 3d 92 d4 52 3b 88 10 b0 bc
       0.016523648 0.051621933 0.0032170159 -0.021492258
0000f0 97 eb 04 3d 4d 0c c8 bc 95 72 1c b9 8a 23 79 bc
       0.03245124 -0.024419928 -0.00014920004 -0.015206227
000100 d2 65 04 3d 0a e5 d0 3c 0e 99 19 3d b4 ce f1 3c
       0.032323666 0.02549984 0.03749948 0.029517509
000110 a7 7e b4 3c c2 83 82 3c 5d 68 f0 3c 37 9d 05 3c
       0.022033049 0.015931968 0.02934664 0.008155159
000120 e9 63 c3 3c 25 1d 8f 3d de cb 02 3d 42 0b 18 bc
       0.023851352 0.06987981 0.031932704 -0.009280028
000130 55 98 80 bd 4e c1 d1 3c 06 48 81 3c 8f ae 43 3d
       -0.06279055 0.02560487 0.015781414 0.047773894
000140 5c 20 80 3b da 4c 88 3b 86 80 23 bd 2a 61 16 bd
       0.0039101075 0.004159552 -0.03991749 -0.036713757
000150 ae a9 3c bd f8 99 68 bc 4f 2c da bc c9 80 a0 3d
       -0.046060257 -0.014196865 -0.026632456 0.07837064
000160 ae 56 58 3b e4 0c 0f 3d f8 4a 82 3c f5 6d 83 3d
       0.003301065 0.034924403 0.015904889 0.06417457
000170 ca 0f 34 3d 6a 3e 0d bd 70 b5 02 bd 0e 52 a3 3d
       0.04396037 -0.03448335 -0.031911314 0.07974635
000180 23 f7 13 bd 07 d4 4d 3d d2 33 55 3d 80 45 52 bd
       -0.03612436 0.050251033 0.052051373 -0.05133581
000190 08 55 12 3c 7c e8 17 bd 1b a5 f6 bc 49 ea 67 3d
       0.008931406 -0.03708695 -0.030108025 0.056619916
0001a0 36 f6 10 3b f2 77 f6 bc e4 95 0c bb 95 73 77 bc
       0.002211941 -0.030086491 -0.0021451646 -0.0151032405
0001b0 6a ab 66 bc fb e6 92 bb 4b f2 16 3d 72 f1 13 3d
       -0.014078954 -0.0044831014 0.036852162 0.036118932
0001c0 3e 2f d2 ba 40 56 d1 bb 78 65 95 3c b9 43 fc 3c
       -0.0016035808 -0.0063884556 0.01823686 0.030794011
0001d0 25 4a 0f bb 52 70 2c bb 5f 5a 00 3c 09 5d 4b 3d
       -0.0021864262 -0.0026312065 0.007834046 0.049649272
0001e0 58 57 31 bc ff ca 0c bd 74 ec 29 bd 2a f3 12 3b
       -0.010824047 -0.03437328 -0.041485265 0.002242277
0001f0 c8 5a 2f 3d f3 6f fe 3b 6a 00 bd 3c e2 f9 59 3c
       0.042811185 0.00776481 0.023071487 0.013304206
000200 d0 15 36 3d e8 80 40 bc ac ca 58 bd fe 4c 28 3c
       0.044454396 -0.011749484 -0.052927658 0.010272263
000210 da 90 71 bc 54 cf e8 3c 98 db 9e 3c b8 33 16 3d
       -0.014744008 0.028419174 0.01939182 0.036670417
000220 f3 4c be bc b3 c8 d2 3c 71 51 ab 3c 30 62 ef 3c
       -0.023230052 0.025730466 0.020912858 0.029221624
000230 58 ed e9 bc ca fc 02 3a a8 96 80 3d 57 91 bf 3c
       -0.028555557 0.0004996775 0.062787354 0.023384733
000240 68 3d 66 3c 53 5a 36 bd 5f b9 49 3d cf 59 95 bc
       0.014052726 -0.044519734 0.04924905 -0.0182313
000250 b0 42 b5 bc 90 49 42 bd d0 cd 9a 3d 2a 3b 68 3d
       -0.022126526 -0.047433436 0.07558787 0.05669705
000260 8b 65 c2 bd 12 1e f5 3b 36 fa ff bc 73 6a 83 3b
       -0.09492024 0.0074803913 -0.03124724 0.0040104925
000270 8a 3f 93 bd 8b 88 62 bd 97 64 49 bd ed dc 01 3d
       -0.071898535 -0.055306 -0.049168196 0.031704832
000280 a8 10 49 3b 17 d4 67 3d 66 80 1a 3d c3 f1 1b 3d
       0.0030680094 0.05659875 0.037720107 0.03807236
000290 b6 72 3e bd f1 ee a9 bd 76 8a a5 3c 0a b2 8a bd
       -0.046496116 -0.082975276 0.020207625 -0.067722395
0002a0 ae 0a 0e bc 99 0f 1b 3d 97 88 1b bd 83 1d 72 3d
       -0.008669538 0.037856672 -0.03797206 0.059110176
0002b0 b3 fa 4e bd 1d f1 3a bd ae d8 69 bd 94 1f 94 bd
       -0.050532054 -0.0456401 -0.057091407 -0.072325855
0002c0 87 30 dc 3c 64 33 55 bd b7 36 16 bb 79 d7 82 3c
       0.026878608 -0.052050963 -0.0022920796 0.015971886
0002d0 b7 00 8c bd 9d fa d4 bc d5 66 53 ba 0a 94 1e bd
       -0.06836074 -0.025998408 -0.00080643344 -0.0387154
0002e0 15 3f 8b 3c e3 96 54 3d 01 a2 48 bc 52 07 1a bd
       0.016997853 0.05190171 -0.012245656 -0.037604637
0002f0 4a 12 76 3a d7 b1 41 bd 70 ab a5 bb ef 07 08 bd
       0.00093868806 -0.047288742 -0.0050558373 -0.03321069
000300 a5 61 a9 3c d8 e8 8f 3c ca ff 8a 3c 68 4e 0f bd
       0.020676443 0.017567083 0.016967673 -0.034986883
000310 8a f5 90 3c 87 be 2d bb c3 2f 92 3c f1 fe f2 3c
       0.017695207 -0.0026511268 0.01784504 0.029662581
000320 d4 40 ea 3c e1 e2 8d 3d 6b 15 17 3d 58 36 b9 3b
       0.028595366 0.06928039 0.03688566 0.0056522302
000330 5d 2a 7a bd 4a f8 d1 3b ed 39 29 3c b9 3f 00 3d
       -0.061075557 0.006407772 0.010328752 0.03131077
000340 0a db 18 bb 82 f5 aa 3b cf a2 14 bd 86 3c 5f bd
       -0.0023323917 0.005217255 -0.03628808 -0.05450108
000350 9e f2 67 bd 17 31 5b bc e1 16 03 bd 07 e4 c3 3c
       -0.056627862 -0.013378403 -0.03200424 0.023912443
000360 2c 14 b1 3c 43 f2 03 3d 7b 30 82 3c d7 b5 3e 3d
       0.021616064 0.03221346 0.015892258 0.046560135
000370 e2 e2 1b 3d ca a8 52 bd 6b 2e f1 bc 0e 69 99 3d
       0.03805817 -0.0514305 -0.02944108 0.07490741
000380 3d 57 14 bc d5 02 0b 3d 52 e0 33 3d 9d 94 7f bd
       -0.009054002 0.033938248 0.0439151 -0.062397588
000390 b6 16 29 3b fd d2 0e bd 93 63 da bc f5 66 e9 3c
       0.002580089 -0.034869183 -0.026658809 0.028491477
0003a0 75 18 54 bc c9 44 f0 bc b1 43 52 bb 5d 38 50 bc
       -0.012945284 -0.029329674 -0.0032083804 -0.012708751
0003b0 d5 5f b3 bc 00 1e be bc e2 cc ab 3c e8 f5 4e 3c
       -0.021896282 -0.023207664 0.02097172 0.012631871
0003c0 58 26 e5 3b 4c e7 17 bd b2 64 81 3c 5a b3 c4 3c
       0.0069930963 -0.037085816 0.015795086 0.024011303
0003d0 c4 27 00 3c 96 12 87 bb c8 bd 92 bc 65 4f 63 3d
       0.007821981 -0.0041220887 -0.01791276 0.05549564
0003e0 8d cd 1c 3c 45 6d e9 bc 0d 00 42 bd c4 2f 16 ba
       0.0095704915 -0.028494487 -0.04736333 -0.00057291635
0003f0 de e1 8e 3c 23 b6 31 3c 1b 10 36 bc 68 66 ef bb
       0.017441686 0.010846647 -0.011112238 -0.007305909

root.left_child.local_expert.fc2.bias f4 [2]
000000 da 55 ba bb eb 77 68 3d
       -0.005686504 0.056754988

root.right_child.w f4 [437]
000000 e5 c3 5b 05 35 d4 f7 84 e4 50 f4 07 6b 6c fc 04
       1.0333311e-35 -5.8264302e-36 3.6760583e-34 5.934448e-36
000010 9b 3e 96 06 62 05 a3 88 78 74 1b 85 9e ef 91 04
       5.651572e-35 -9.811471e-34 -7.309457e-36 3.430939e-36
000020 d7 ab 8a 83 8b 93 90 85 81 56 86 86 b6 00 81 05
       -8.1503635e-37 -1.3595894e-35 -5.0532304e-35 1.2131363e-35
000030 21 9d c3 86 b1 b8 23 87 cc b9 51 84 c0 02 80 85
       -7.358173e-35 -1.2317033e-34 -2.4653146e-36 -1.2038072e-35
000040 3c 0e 91 85 5b 33 35 04 44 4a 17 85 4d cd e3 02
       -1.3640963e-35 2.1300029e-36 -7.113626e-36 3.347249e-37
000050 e4 8a 05 04 f1 bb 13 05 f3 af 0c 05 d8 a8 ba 02
       1.569785e-36 6.946426e-36 6.615085e-36 2.7427155e-37
000060 75 23 4c 06 f2 13 dc 04 f2 da 84 06 3e e8 db 81
       3.8394185e-35 5.174007e-36 4.997459e-35 -8.0781146e-38
000070 74 67 8a 06 20 f0 74 05 53 de 6b 05 41 ce 98 85
       5.206184e-35 1.1516929e-35 1.10904814e-35 -1.4369777e-35
000080 f0 a3 ce 05 21 f0 15 85 da e5 b5 08 bb e0 66 86
       1.9432368e-35 -7.050051e-36 1.0947579e-33 -4.3423298e-35
000090 27 43 56 06 f7 1f 28 88 32 f1 03 06 de c9 8b 84
       4.0298262e-35 -5.0593236e-34 2.4815564e-35 -3.286413e-36
0000a0 0c 43 d7 03 49 2d 86 85 af 1e 33 05 59 35 65 85
       1.26519575e-36 -1.2617935e-35 8.422175e-36 -1.0777327e-35
0000b0 e5 98 0a 85 23 f6 7f 81 d1 b6 27 85 fa e3 9a 06
       -6.516811e-36 -4.7012697e-38 -7.88588e-36 5.8263343e-35
0000c0 ad 6c 2f 83 34 1a 07 06 3e bc 59 83 1b 36 90 05
       -5.155263e-37 2.540993e-35 -6.398666e-37 1.356157e-35
0000d0 ea ec c0 87 05 ec f7 02 34 af 20 84 2c 03 cb 85
       -2.9028195e-34 3.6428857e-37 -1.8888359e-36 -1.9091193e-35
0000e0 a3 8d f9 05 f2 2b ab 08 aa be f9 04 32 c8 11 06
       2.3467877e-35 1.030202e-33 5.8714716e-36 2.741855e-35
0000f0 f9 9a e2 86 83 cb 96 85 7c c5 88 86 9b fe ef 83
       -8.5239463e-35 -1.418069e-35 -5.144769e-35 -1.4105612e-36
000100 0f 04 fd 02 68 82 a6 05 51 2b f7 05 3d 72 d2 83
       3.7177338e-37 1.5658469e-35 2.324368e-35 -1.23689185e-36
000110 3b 81 34 86 56 f3 1d 85 b4 02 3c 06 01 05 02 85
       -3.394918e-35 -7.426798e-36 3.5360856e-35 -6.11349e-36
000120 a6 e8 ad 06 43 ad cb 84 a1 53 be 86 8e ef 7e 05
       6.5417213e-35 -4.7884186e-36 -7.159294e-35 1.1987022e-35
000130 eb 0e e6 85 ef ba b1 05 6d 70 37 84 f0 95 5b 05
       -2.1634576e-35 1.6713669e-35 -2.156317e-36 1.032487e-35
000140 1e b1 d9 86 1d 6b 99 83 d2 49 40 05 e6 0a ab 86
       -8.188658e-35 -9.017124e-37 9.041355e-36 -6.4339065e-35
000150 28 19 03 85 2e 05 8b 06 25 ee 82 04 fc 04 18 05
       -6.164211e-36 5.22936e-35 3.0781554e-36 7.147921e-36
000160 0b 74 0c 06 1d 47 35 86 f8 05 c4 85 42 2a da 06
       2.6416328e-35 -3.4094562e-35 -1.8433944e-35 8.206458e-35
000170 70 e6 4d 07 a9 7c 6a 04 43 c1 02 05 d9 79 05 03
       1.5490205e-34 2.7563809e-36 6.148067e-36 3.922506e-37
000180 20 74 89 04 0c 4c c2 04 b6 dd 02 04 cd a2 0d 87
       3.231519e-36 4.567902e-36 1.5383231e-36 -1.0655504e-34
000190 bf c1 8b 83 05 86 44 85 bf 91 36 05 0a 23 89 04
       -8.214168e-37 -9.240491e-36 8.584368e-36 3.2240724e-36
0001a0 78 c6 ba 81 ed ba ec 08 86 d7 58 04 db c9 69 86
       -6.86104e-38 1.4247679e-33 2.5489641e-36 -4.397073e-35
0001b0 26 49 35 85 82 08 cb 85 20 94 87 85 23 58 e2 03
       -8.524014e-36 -1.9093154e-35 -1.2749752e-35 1.3303321e-36
0001c0 40 81 20 86 77 7f c6 03 86 c5 bb 83 1f 6c 6e 04
       -3.0187613e-35 1.1666659e-36 -1.1036221e-36 2.8026412e-36
0001d0 f9 d4 4b 05 c8 2e 85 84 c9 b2 61 05 24 7b 9b 86
       9.584131e-36 -3.131111e-36 1.0612287e-35 -5.848546e-35
0001e0 a5 d3 8a 84 0d e8 7b 84 9c 4e 9f 84 49 5f 12 85
       -3.263801e-36 -2.961146e-36 -3.745291e-36 -6.882388e-36
0001f0 70 53 67 85 04 15 22 05 a9 1c 82 86 88 c0 ca 03
       -1.0876893e-35 7.621063e-36 -4.894268e-35 1.1916696e-36
000200 9e 1a b8 84 61 32 86 03 13 08 0f 85 2c 48 a7 85
       -4.3282636e-36 7.887379e-37 -6.725311e-36 -1.5731116e-35
000210 0f af ad 85 11 d4 32 03 ce d1 24 05 3a 4f 35 0c
       -1.6333148e-35 5.255294e-37 7.749778e-36 1.3967574e-31
000220 be de 27 86 0f 51 ef 84 89 00 c3 05 95 76 14 07
       -3.1572854e-35 -5.626307e-36 1.8337908e-35 1.1169131e-34
000230 60 8a 17 06 dd 08 a4 84 d9 c8 20 06 6a 83 70 84
       2.8501605e-35 -3.8564354e-36 3.0240215e-35 -2.8272207e-36
000240 41 fe 40 06 67 23 28 85 5a d6 5a 05 b5 57 af 85
       3.6297983e-35 -7.9058244e-36 1.0289681e-35 -1.648914e-35
000250 3f 43 42 85 4b cf f6 05 3c 15 b9 05 0a 35 d6 84
       -9.134187e-36 2.3209876e-35 1.7405117e-35 -5.0359867e-36
000260 b0 2e 28 05 bd 4e d8 84 8d d8 5e 05 d9 a9 80 08
       7.907897e-36 -5.0853666e-36 1.0478164e-35 7.743651e-34
000270 15 0e 9f 05 9d 8f da 04 ff 68 29 07 ea db 1e 86
       1.4957461e-35 5.138344e-36 1.2745002e-34 -2.9878065e-35
000280 4b 3e d5 05 b2 4b 9d 86 eb 21 28 05 a6 ee ad 86
       2.0053307e-35 -5.916806e-35 7.905552e-36 -6.542603e-35
000290 34 80 5b 85 30 c8 f5 85 51 c5 1d 05 40 bd 99 06
       -1.0320878e-35 -2.3113227e-35 7.418346e-36 5.783028e-35
0002a0 b0 cf d0 85 6b e4 09 87 e1 e2 99 05 89 bc f5 03
       -1.9636518e-35 -1.037386e-34 1.4471393e-35 1.4443091e-36
0002b0 3c a8 3d 84 c6 4a 16 06 ed ec 03 05 44 ec cf 86
       -2.2294093e-36 2.82668e-35 6.203107e-36 -7.8211907e-35
0002c0 06 81 bf 89 54 ba 8f 04 0c 39 e8 83 23 c2 93 85
       -4.610291e-33 3.3790254e-36 -1.3648832e-36 -1.3895128e-35
0002d0 a8 36 ae 05 fd 32 73 83 8d c4 47 86 ac 81 ed 88
       1.6382959e-35 -7.1469813e-37 -3.7572143e-35 -1.4294404e-33
0002e0 3d c3 25 04 79 ba 49 84 e7 40 27 85 50 47 32 05
       1.9485306e-36 -2.371306e-36 -7.864223e-36 8.382618e-36
0002f0 91 a6 00 06 9d 57 43 05 9d 34 1b 06 80 f5 8c 86
       2.4196498e-35 9.184948e-36 2.9190914e-35 -5.3022877e-35
000300 23 f3 8d 06 59 ef 39 05 b4 4f 4f 02 9e 01 b4 83
       5.339556e-35 8.7426194e-36 1.5230832e-37 -1.057982e-36
000310 b9 56 7c 85 9f 10 bf 84 73 6d 8a 05 a8 e9 04 85
       -1.18649115e-35 -4.491915e-36 1.3017663e-35 -6.249526e-36
000320 b5 12 15 83 9a d7 2d 85 a2 cb c8 05 c4 33 68 83
       -4.380864e-37 -8.174021e-36 1.8882712e-35 -6.8238096e-37
000330 eb 9f c2 86 d1 10 85 87 20 54 06 85 d0 d9 b7 84
       -7.320967e-35 -2.00215e-34 -6.316101e-36 -4.3223122e-36
000340 b9 5b bb 05 2e bd 7a 05 4e 99 eb 83 62 97 af 04
       1.7619089e-35 1.178969e-35 -1.3847256e-36 4.1281325e-36
000350 78 de a0 05 ce 49 34 06 0c 98 18 05 eb 43 a6 03
       1.512805e-35 3.390846e-35 7.174932e-36 9.772196e-37
000360 f5 8c 2b 05 9b 32 03 80 2e 77 53 05 cc 1f e1 05
       8.066271e-36 -2.9366e-40 9.943062e-36 2.1170579e-35
000370 5d 09 65 07 db dc c9 05 32 ed d7 05 1b d8 20 04
       1.7230797e-34 1.8983079e-35 2.0305635e-35 1.890714e-36
000380 3f 4a ee 03 50 0f 87 05 6e 2d 2a 06 e5 dc a9 05
       1.4005429e-36 1.2700964e-35 3.2006823e-35 1.5973827e-35
000390 33 90 56 84 d6 12 03 06 d4 02 b7 06 5d df f0 04
       -2.5221792e-36 2.46522e-35 6.8841105e-35 5.6628856e-36
0003a0 e9 10 aa 84 e0 6b 61 86 97 c2 67 83 49 66 13 85
       -3.9982337e-36 -4.239705e-35 -6.8108177e-37 -6.9306936e-36
0003b0 03 a2 00 06 38 dd 3b 85 aa a5 95 86 60 e1 d9 07
       2.4193152e-35 -8.833329e-36 -5.629099e-35 3.2782995e-34
0003c0 52 57 84 03 88 dc 33 85 b0 f2 4c 82 4f 8b b4 85
       7.7783105e-37 -8.457045e-36 -1.5057201e-37 -1.6978293e-35
0003d0 ed 57 9e 04 d4 d3 57 05 a7 4d e2 85 e1 25 5c 84
       3.722637e-36 1.0148158e-35 -2.1281463e-35 -2.5878269e-36
0003e0 d0 d0 12 04 8d b2 52 86 c4 f7 b2 05 7c 2b 50 06
       1.72581e-36 -3.962779e-35 1.6830054e-35 3.91524e-35
0003f0 12 c7 59 06 2e 90 59 04 fa 69 4d 04 f2 60 15 85
       4.0959418e-35 2.5574431e-36 2.4146296e-36 -7.0237524e-36
