checkpoints/trial_0_alpha0.508_beta1.143_lr0.000depth4_mlpTrue_hdim16/checkpoint.pth (torch, 644686 bytes, 113 tensors)

root.gating.0.weight f4 [32, 437]
-0.02080804 -0.021107426 0.004965235 -0.017813502 -0.04232259 -0.029276159 0.026945358 0.023993779
0.0064836503 -0.044945315 -0.037882186 -0.0058114897 0.022799656 -0.0017891162 -0.00628928 0.004875955
0.0015301274 0.0039460696 0.024322791 0.005701056 -0.018820036 -0.0029172457 0.02255621 0.034670837
-0.023598742 -0.030390842 -0.039794527 -0.013927585 0.010753142 -0.0056571295 -0.006168386 0.018875191
-0.04095341 0.03417909 -0.0133985095 -0.01733351 0.031096885 -0.010543884 0.002276269 0.027046164
0.0068527064 0.021770937 0.00014409027 0.009569346 0.00087059365 0.017184643 -0.09969337 -0.019986665
0.004733451 0.02587697 0.035015002 -0.007287038 -0.0025105467 0.033979695 0.010733528 -0.01902851
0.022936456 -0.065937765 0.04003221 -0.023011234 -0.0036557992 -0.013018827 -0.014069528 0.03165285
-0.0077905813 0.015331831 0.026544664 0.035943396 0.0066958116 0.020741185 -0.0066296514 0.018121598
-0.015926782 -0.008914107 0.012135659 0.016641455 -0.0022844402 0.0054908358 -0.0019531151 0.03165687
0.027597468 -0.040126823 -0.010290032 0.017512161 -0.024547728 0.03167623 0.011007166 -0.0013712473
-0.011280786 -0.00055506296 -0.02394087 0.04002463 -0.0071791597 -0.010565555 -0.014841121 -0.025183268
-0.013586287 -0.013260776 0.027215892 0.010296703 0.028977294 0.038717464 0.036771175 -0.021601152
0.0024040649 0.025318084 -0.027765304 -0.02266971 -0.04916345 0.0040095244 0.017744357 0.015886027
-0.019155866 -0.03329323 -0.0014375556 -0.011579558 -0.01240341 0.022256648 0.017416837 -0.028559027
0.010205882 0.030290147 -0.01054342 -0.052665886 -0.03746519 0.00627877 0.023735771 -0.016596265
0.029980093 -0.00063534995 -0.034320608 -0.0256099 -0.02090533 0.017518375 0.06873885 -0.01304524
0.007998599 -0.025760228 -0.011908122 0.014321686 -0.019789012 0.0007588507 -0.016852723 0.028611142
0.02826587 -0.0051038144 0.029208561 0.017399449 -0.012096921 0.014673289 0.032240324 0.025597736
-0.039283454 -0.023741301 -0.009503356 0.013965408 0.0353813 0.051167063 -0.0012363801 -0.00897217
-0.0069287876 -0.0018747526 -0.002391865 -0.043125577 0.0049288897 -0.016478254 0.017678933 -0.01235792
0.014456962 0.0028923117 0.020642322 0.027107714 -0.011215683 0.04022344 0.018472057 0.023899935
0.012252211 0.03378109 -0.011948635 -0.008019095 -0.041779745 0.037963793 -0.018865302 0.0025610633
0.024402006 0.007135793 -0.017928718 -0.0018297874 -0.0140608065 0.0027392022 -0.013150989 -0.048322733
0.035802055 0.00010984056 0.021933045 0.012974528 0.012075392 -0.011769545 -0.01611682 -0.009660319
-0.025010617 -0.0043350286 -0.008733431 0.007046518 0.006141698 0.015533167 0.002350618 -0.027552558
0.005195234 0.0030364878 0.025489558 0.005430691 0.030400114 -0.00031922886 -0.004812225 -0.010059896
0.029497977 -0.009727592 -0.0118545275 0.0015108677 0.005935656 0.0141204465 -0.057164233 -0.020724004
0.019716233 0.027352536 0.026556475 0.01521925 0.038268376 0.0069300234 -0.02763216 0.0033832279
0.0092149405 -0.013900993 0.006740728 0.0081743905 -0.012516477 -0.022394389 -0.01587003 -0.01367667
0.01175866 -0.0073368135 0.031029047 -0.013234178 -0.0364943 -0.024421994 -0.014650741 0.007467627
-0.01708085 0.030540911 0.014520967 -0.040019166 0.028973302 -0.022442324 -0.014278637 -0.017849602
00000000: 9f75 aabc 7be9 acbc 69b3 a23b 9fed 91bc
00000010: 745a 2dbd 8ed4 efbc 83bc dc3c 9a8e c43c
00000020: cd74 d43b 9418 38bd 5a2a 1bbd 4f6e bebb
00000030: 58c6 ba3c c780 eaba 4e16 cebb 7ac6 9f3b
00000040: 8e8e c83a 084e 813b 9740 c73c edcf ba3b
00000050: 7a2c 9abc 432f 3fbb cdc7 b83c 0203 0e3d
00000060: 2652 c1bc 37f6 f8bc 96ff 22bd 8730 64bc
00000070: f22d 303c 715f b9bb 2c20 cabb 25a0 9a3c
00000080: c3be 27bd 60ff 0b3d 6c85 5bbc 01ff 8dbc
00000090: e5be fe3c 41c0 2cbc 752d 153b eb8f dd3c
000000a0: ab8c e03b f758 b23c f016 1739 bfc8 1c3c
000000b0: 8d38 643a cfc6 8c3c 0a2c ccbd 13bb a3bc
000000c0: 111b 9b3b f0fb d33c e46b 0f3d 1bc8 eebb
000000d0: fc87 24bb 4b2e 0b3d aedb 2f3c aee1 9bbc
000000e0: 3ce5 bb3c 610a 87bd d1f8 233d 0e82 bcbc
000000f0: 2296 6fbb eb4c 55bc e183 66bc 6ba6 013d
00000100: 2248 ffbb 5c32 7b3c 3274 d93c 6239 133d
00000110: 8a68 db3b 6be9 a93c 8c3d d9bb bf73 943c
00000120: e278 82bc 7a0c 12bc a5d4 463c a953 883c
00000130: 8cb6 15bb 78ec b33b abff ffba a2aa 013d
00000140: 1614 e23c 065c 24bd 8697 28bc aa75 8f3c
00000150: 5118 c9bc efbe 013d 6657 343c 6dbb b3ba
00000160: 0cd3 38bc a581 11ba a51f c4bc def0 233d
00000170: 283f ebbb 261b 2dbc 2c28 73bc 244d cebc
00000180: 0599 5ebc ba43 59bc ddf3 de3c 81b3 283c
00000190: ca61 ed3c 3496 1e3d 5f9d 163d e6f4 b0bc
000001a0: 848d 1d3b df67 cf3c 1074 e3bc d4b5 b9bc
000001b0: 9d5f 49bd 5462 833b 9d5c 913c 6a23 823c
000001c0: c3ec 9cbc 7b5e 08bd 5d6c bcba 30b8 3dbc
000001d0: ac37 4bbc 9353 b63c c1ad 8e3c 9ff4 e9bc
000001e0: 9236 273c 0b23 f83c 4fbe 2cbc 2fb8 57bd
000001f0: 1975 19bd 24be cd3b 8571 c23c e4f4 87bc
00000200: d098 f53c 9d8d 26ba c493 0cbd dacb d1bc
00000210: a841 abbc b282 8f3c f4c6 8c3d b4bb 55bc
00000220: 8e0c 033c 1d07 d3bc 491a 43bc 81a5 6a3c
00000230: 911c a2bc 9ced 463a b90e 8abc ea61 ea3c
00000240: d38d e73c e63d a7bb cb46 ef3c 4a89 8e3c
00000250: 2a32 46bc 3c68 703c 6e0e 043d 58b2 d13c
00000260: b0e7 20bd 1e7d c2bc f7b3 1bbc 2bcf 643c
00000270: fbeb 103d 8e94 513d 080e a2ba 0200 13bc
00000280: e20a e3bb 42ba f5ba d6c0 1cbb 72a4 30bd
00000290: 8682 a13b 67fd 86bc 69d3 903c e078 4abc
000002a0: e5dc 6c3c f08c 3d3b 161a a93c ff10 de3c
000002b0: fcc1 37bc 55c1 243d b652 973c ccc9 c33c
000002c0: 7fbd 483c 0a5e 0a3d 35c4 43bc 8662 03bc
000002d0: 3d21 2bbd ec7f 1b3d 688b 9abc 83d7 273b
000002e0: b7e6 c73c 5fd3 e93b 3fdf 92bc 7ad5 efba
000002f0: 4c5f 66bc 3084 333b 3f77 57bc 0fee 45bd
00000300: 2da5 123d 345a e638 eeac b33c 1d93 543c
00000310: ddd7 453c 0dd5 40bc 6c07 84bc 5146 1ebc
00000320: 11e3 ccbc db0c 8ebb aa16 0fbc 7ae6 e63b
00000330: 4c40 c93b d37e 7e3c d30c 1a3b e7b5 e1bc
00000340: c83c aa3b d0ff 463b 7acf d03c f0f3 b13b
00000350: a909 f93c 2c5e a7b9 deaf 9dbb 43d2 24bc
00000360: bea5 f13c 7a60 1fbc 7e39 42bc 4f08 c63a
00000370: e47f c23b 7259 673c 0b25 6abd 63c5 a9bc
00000380: f083 a13c 6d12 e03c f78c d93c 295a 793c
00000390: 4dbf 1c3d 4015 e33b d75c e2bc 25b9 5d3b
000003a0: 43fa 163c fec0 63bc 53e1 dc3b e1ed 053c
000003b0: e911 4dbc 7074 b7bc dd01 82bc 1d14 60bc
000003c0: 65a7 403c a769 f0bb a130 fe3c 2ad4 58bc
000003d0: 0c7b 15bd a210 c8bc a909 70bc ffb2 f43b
000003e0: 24ed 8bbc ef30 fa3c 5ae9 6d3c 23eb 23bd
000003f0: 6b59 ed3c f7d8 b7bc f2f0 69bc 5439 92bc

root.gating.0.bias f4 [32]
-0.0079015605 -0.015982559 -0.0015355253 -0.005495142 0.048469625 -0.0220929 0.023935901 0.026834596
0.00952497 0.010642725 1.5688442e-05 0.012759564 -0.02571957 0.0002334859 -0.017432269 -0.028504916
0.0029737903 0.014460297 0.019763634 -0.041340027 0.023619447 0.03352494 -0.007185436 -0.013799757
0.0020138333 0.0155618405 0.002944755 0.014444134 -0.018738631 -0.0104225855 -0.020760423 -0.004405919
00000000: 8c75 01bc dbed 82bc ae43 c9ba 9810 b4bb
00000010: 1688 463d 2bfc b4bc 3915 c43c 3ad4 db3c
00000020: 9f0e 1c3c d35e 2e3c ac9a 8337 7e0d 513c
00000030: d9b1 d2bc e5d3 7439 1ece 8ebc 2483 e9bc
00000040: ece3 423b e2ea 6c3c 58e7 a13c 2954 29bd
00000050: 927d c13c 7351 093d ce73 ebbb 6018 62bc
00000060: 84fa 033b 17f7 7e3c cafc 403b 17a7 6c3c
00000070: c281 99bc 7ec3 2abc c311 aabc 875f 90bb

root.gating.2.weight f4 [1, 32]
-0.17187715 0.11321845 0.098989844 -0.043426108 -0.15543514 0.07483237 0.1517152 -0.09007672
0.074631274 -0.09816529 -0.10683729 -0.10211225 0.14675613 -0.00076566 0.109842844 0.112782836
-0.0841538 -0.08793425 -0.05989489 0.17924607 -0.07705682 -0.08413973 0.065850966 -0.14767481
0.0007592576 -0.11906809 -0.17127068 -0.048411585 -0.16819037 0.122121334 0.043285303 -0.13253412
00000000: 9000 30be 13df e73d 30bb ca3d 93df 31bd
00000010: 642a 1fbe b741 993d 3b5b 1b3e 257a b8bd
00000020: 48d8 983d e20a c9bd 82cd dabd 3a20 d1bd
00000030: 3d47 163e 93b6 48ba 49f5 e03d b0fa e63d
00000040: d458 acbd df16 b4bd 5854 75bd 488c 373e
00000050: f7cf 9dbd 7351 acbd dfdc 863d 1138 17be
00000060: ea08 473a f9d9 f3bd 9561 2fbe 3a4b 46bd
00000070: 193a 2cbe c01a fa3d ee4b 313d 06b7 07be

root.left_child.w f4 [437]
0.05019252 0.054464914 -0.08023369 -0.034820735 -0.0038867255 -0.04587831 -0.053874593 0.058862712
0.04256247 0.019552862 0.1709726 -0.053003438 0.21648622 -0.06996893 0.11013673 0.14144225
0.06495357 0.049419254 -0.037355516 -0.022352377 0.039867647 0.14288923 0.08102521 -0.06334613
-0.19760375 0.044700213 -0.039151058 0.08939701 -0.15623043 -0.022711338 0.02213057 -0.11688521
0.049713273 -0.06569294 0.0055829845 0.046358284 0.11566901 0.10515842 0.0974101 0.048478413
0.06782585 -0.04612564 -0.09067769 0.04749671 -0.06487961 0.09650382 0.09244137 0.08958297
0.014397626 -0.116782844 0.05440585 0.19679257 -0.18364792 -0.1157008 -0.24157064 0.010167547
0.07455657 -0.05110578 0.07301572 -0.1041635 -0.01753312 -0.00696449 -0.019776879 0.12406486
-0.061296165 -0.085854426 0.0555204 0.13244912 -0.2326385 -0.12294628 -0.0006843271 0.022183789
0.03193922 0.041010857 0.07682562 -0.047755428 0.07724613 0.052343328 0.015887612 -0.0149220815
0.0923283 -0.0016185635 0.028976236 0.20453547 -0.16539085 -0.17507009 -0.0552637 -0.1291143
0.003954857 -0.2307837 -0.12623683 -0.1541476 0.0017948167 -0.13840662 0.033488303 -0.020040447
-0.049779758 -0.14248218 0.0066237836 0.22701354 -0.014102778 -0.039966736 -0.031184604 -0.0325501
-0.14088738 0.02444631 0.024428494 0.15295108 -0.06315865 -0.05243744 -0.07182026 0.14846659
-0.12505141 -0.038328968 -0.055966336 0.040052217 -0.12694548 -0.030083703 -0.15637341 -0.23319043
0.1333924 0.058441978 0.17163411 -0.043031618 -0.06504702 -0.10338773 0.28998023 0.05940668
-0.07026422 -0.09351283 0.07411464 0.011425527 0.03302704 0.072802834 0.012136099 0.07304261
0.087476455 -0.00070438517 0.02790173 0.08068425 -0.10486169 0.008726421 0.09461217 0.15198612
-0.071117595 0.067849986 0.114341974 0.069912285 0.04140681 -0.12951931 0.08400411 -0.048880603
0.21364148 -0.105195954 -0.024490295 0.006567209 0.056227293 0.008147348 -0.01871402 -0.06472804
0.04738812 -0.009236666 -0.043973334 0.020638024 0.14133826 -0.21384765 0.09890022 -0.03843926
0.112582855 -0.034202933 -0.11252551 -0.0010305761 -0.0792693 0.030201763 -0.068190895 0.07927121
-0.1773221 -0.051102616 -0.057479855 -0.0022511352 0.07997356 0.08134421 -0.14573641 0.050333414
-0.07099672 -0.01878957 0.123684086 0.009982219 0.14734682 -0.065871574 0.18197212 0.1556891
0.09936896 0.06247305 0.019274347 -0.06785951 -0.006804896 -0.0008906173 -0.00215572 -0.18848425
0.051565226 -0.03232306 -0.16147697 0.029220536 -0.016657045 -0.10400691 -0.15962096 -0.13110535
0.008277587 0.026926164 -0.04499904 -0.012278064 -0.07236313 -0.13032037 -0.030086352 -0.018801872
0.056162663 -0.1904888 -0.0060859458 0.12993668 -0.216645 -0.10503187 -0.029799877 -0.14296997
-0.1213771 -0.008713467 0.05272086 0.06357386 0.048139427 -0.14091343 0.19559161 0.07092216
-0.12409603 0.076677494 0.006800132 0.0037547231 -0.061400216 0.013398061 -0.018138403 0.15502508
-0.13947484 0.08324703 -0.20360845 -0.107351184 -0.0011245965 -0.028016748 0.010075846 0.0101257935
-0.173753 0.103721164 0.0688356 0.02372478 -0.094299495 0.11430806 0.10872282 -0.1189207
00000000: ac96 4d3d 9a16 5f3d 9051 a4bd 30a0 0ebd
00000010: 6fb8 7ebb e5ea 3bbd 9bab 5cbd 071a 713d
00000020: fc55 2e3d 532d a03c 7113 2f3e 221a 59bd
00000030: 90ae 5d3e df4b 8fbd 5e8f e13d 3dd6 103e
00000040: 6106 853d d86b 4a3d 1902 19bd 551c b7bc
00000050: 424c 233d 8e51 123e 8cf0 a53d 9ebb 81bd
00000060: a358 4abe 9217 373d dc5c 20bd c815 b73d
00000070: dffa 1fbe 210d babc 2b4b b53c 8361 efbd
00000080: 25a0 4b3d 058a 86bd 78f1 b63b 2fe2 3d3d
00000090: e0e3 ec3d 4c5d d73d f27e c73d 4d91 463d
000000a0: 47e8 8a3d 3dee 3cbd 3ab5 b9bd e98b 423d
000000b0: 9adf 84bd cba3 c53d e751 bd3d 4777 b73d
000000c0: 05e4 6b3c d82b efbd abd8 5e3d fe83 493e
000000d0: 330e 3cbe 8bf4 ecbd 4b5e 77be c895 263c
000000e0: 1db1 983d 4b54 51bd 4489 953d ac53 d5bd
000000f0: 9ea1 8fbc 6036 e4bb 1f03 a2bc b815 fe3d
00000100: b011 7bbd 72d4 afbd 5c69 633d bea0 073e
00000110: c938 6ebe 42cb fbbd 6a64 33ba c7ba b53c
00000120: b3d2 023d 00fb 273d c056 9d3d 329b 43bd
00000130: 3833 9e3d f565 563d bd26 823c bf7b 74bc
00000140: 9f16 bd3d fb25 d4ba 925f ed3c bf71 513e
00000150: 385c 29be 9345 33be 315c 62bd 8a36 04be
00000160: bf97 813b 9052 6cbe 3a44 01be ded8 1dbe
00000170: 0e40 eb3a 77ba 0dbe 082b 093d dd2b a4bc
00000180: dce5 4bbd d9e6 11be 530c d93b 3d76 683e
00000190: 570f 67bc 29b4 23bd db76 ffbc 4153 05bd
000001a0: c844 10be a143 c83c 441e c83c 359f 1c3e
000001b0: 5359 81bd a4c8 56bd 8016 93bd a007 183e
000001c0: 7a0d 00be d6fe 1cbd f53c 65bd cb0d 243d
000001d0: fffd 01be 1972 f6bc 5a20 20be 79c9 6ebe
000001e0: 0498 083e db60 6f3d dac0 2f3e ec41 30bd
000001f0: 5f37 85bd f2bc d3bd 4a78 943e 6b54 733d
00000200: b0e6 8fbd a883 bfbd 6bc9 973d 2232 3b3c
00000210: 5d47 073d a719 953d 7dd6 463c 5d97 953d
00000220: db26 b33d 7da6 38ba 2b92 e43c c93d a53d
00000230: bac1 d6bd 43f9 0e3c 06c4 c13d 40a2 1b3e
00000240: 1aa6 91bd eff4 8a3d 202c ea3d 2c2e 8f3d
00000250: 309a 293d b6a0 04be 590a ac3d 0737 48bd
00000260: d5c4 5a3e fa70 d7bd df9f c8bc be31 d73b
00000270: 974e 663d 747c 053c 254e 99bc 2290 84bd
00000280: 0c1a 423d 6355 17bc 621d 34bd 1311 a93c
00000290: faba 103e e1fa 5abe 338c ca3d 7c72 1dbd
000002a0: d791 e63d 6018 0cbd c673 e6bd 6514 87ba
000002b0: f157 a2bd b069 f73c aba7 8bbd f258 a23d
000002c0: ed93 35be fa50 51bd ff6f 6bbd c887 13bb
000002d0: 2ec9 a33d cb97 a63d ed3b 15be 692a 4e3d
000002e0: ba66 91bd 96ec 99bc 154e fd3d 768c 233c
000002f0: 16e2 163e ade7 86bd e656 3a3e f76c 1f3e
00000300: f481 cb3d bee3 7f3d 3ce5 9d3c edf9 8abd
00000310: 9bfb debb 5178 69ba fb46 0dbb 0402 41be
00000320: 0f36 533d 2f65 04bd 385a 25be e85f ef3c
00000330: 5b74 88bc 9301 d5bd ad73 23be 7b40 06be
00000340: b79e 073c 4294 dc3c ea50 38bd ef29 49bc
00000350: 1f33 94bd b472 05be a777 f6bc 6206 9abc
00000360: d20a 663d 7f0f 43be 9d6c c7bb 1f0e 053e
00000370: 30d8 5dbe f31a d7bd df1e f4bc b866 12be
00000380: 8f94 f8bd eec2 0ebc d4f1 573d 0333 823d
00000390: d92d 453d 9c4b 10be 2b49 483e a33f 913d
000003a0: 0f26 febd 1709 9d3d a4d3 de3b cd11 763b
000003b0: cb7e 7bbd 8a83 5b3c fd96 94bc e5be 1e3e
000003c0: 7ed2 0ebe 6b7d aa3d bc7e 50be f0da dbbd
000003d0: 3267 93ba 6183 e5bc 2915 253c a8e6 253c
000003e0: 4eec 31be c36b d43d aef9 8c3d 785a c23c
000003f0: 1820 c1bd 581a ea3d 12aa de3d b28c f3bd

root.left_child.left_child.w f4 [437]
0.115828365 -0.07151865 -0.12793198 0.012841466 -0.2003567 -0.20342878 0.04425686 -0.03402111
0.006784795 -0.00391266 0.17799383 0.0618588 0.08156904 -0.0077218623 0.14827329 -0.060331255
0.06434136 -0.060501125 0.113665186 0.1200243 0.062198162 0.03995933 0.024283156 -0.09520465
0.14318112 0.072867796 0.04405531 -0.08140239 0.14798073 -0.028666297 -0.0847343 0.16418295
0.08789787 0.22084014 0.15734842 0.15567157 -0.011054833 -0.054689974 0.059416726 0.05371355
-0.09916544 -0.15214969 -0.06783102 0.1351801 0.028496638 -0.019464817 -0.094437 0.1294188
0.049315806 -0.060922176 -0.04618363 -0.032700967 0.03469264 0.11206168 0.08655733 -0.052973777
-0.19324113 -0.06259827 0.083120175 -0.082260616 0.081198186 0.012267306 -0.046698183 0.053559814
-0.089805335 -0.04291851 0.07501932 -0.07455716 -0.23257619 0.092593595 0.037414122 0.01626278
0.004504891 -0.05265317 0.12143994 0.08873505 0.057900477 -0.108199485 0.18425377 -0.073414125
0.045968965 0.033461362 0.011515013 0.118579775 0.00024765247 0.13331316 -0.212217 -0.1344179
-0.061219376 0.0031895125 0.050919216 -0.11196878 -0.06455737 -0.056540027 0.22116809 0.044395268
-0.00823542 0.048949473 0.12101966 0.063444056 0.12615176 0.037847776 0.039818544 0.062851526
0.03257474 -0.052147776 -0.1000483 0.0024430507 -0.0036117984 0.015297385 -0.0034923851 -0.022920983
0.03942289 0.18616682 0.10084534 0.023709066 0.1402006 -0.08225224 -0.17688863 0.07306384
0.1443645 -0.080485016 -0.04836162 -0.11559342 0.01647086 0.016839236 -0.052469175 0.07534029
0.009097236 -0.07343206 -0.066204034 0.080038905 0.08199311 0.007867145 -0.04992748 -0.0029082382
-0.13503549 -0.083248116 0.019088328 0.028964223 -0.062272295 0.10410826 0.13933651 0.04857531
0.0130971065 0.14530304 0.03916889 -0.15536436 0.10841587 -0.031971656 -0.0338373 0.059023157
-0.0068756766 -0.048319004 -0.10191236 -0.007130025 -0.027282499 -0.12677343 -0.058391 -0.13582323
-0.012904285 0.0842242 0.10550178 0.016506657 -0.07289026 0.053267684 -0.026254326 -0.0653705
0.012585084 -0.22048071 0.0557897 0.08412505 -0.028392749 -0.037676204 -0.18464282 -0.081392355
0.14423443 0.023300817 0.13032724 -0.025942987 0.028989086 0.18602222 -0.18040907 -0.014923444
-0.041881442 -0.08694517 0.048994824 -0.01904127 -0.07573362 -0.09987554 0.103545316 0.030612571
-0.032173753 -0.016623806 -0.06813853 0.19826917 -0.088368036 0.0013269495 0.12162162 0.111090936
-0.1231581 -0.094712175 0.09029384 0.014708557 -0.0052891625 0.07442468 -0.035275873 0.058053393
0.021248955 -0.001953542 -0.060979042 -0.12917611 0.022329295 -0.10769564 -0.09138454 -0.083921574
0.025347723 -0.06704792 0.073254235 -0.018855937 0.04630913 -0.020551829 -0.0059300135 -0.054726396
0.023883484 0.09635573 0.035976753 0.04453451 -0.16318114 -0.10719642 0.23067896 0.040850215
0.13503958 -0.12900235 -0.12981933 -0.018534074 0.035472568 0.017910749 -0.08660709 0.038277704
-0.08072088 0.018607121 0.07503976 -0.17832564 0.15662363 0.062826134 0.057014395 -0.018777812
-0.011361869 -0.014162745 -0.0058666565 0.1482482 -0.024529293 0.033122167 0.055151697 -0.010859042
00000000: 6c37 ed3d 5f78 92bd 9a00 03be 0365 523c
00000010: 4f2a 4dbe a24f 50be ae46 353d b859 0bbd
00000020: fc52 de3b c535 80bb 0444 363e a75f 7d3d
00000030: ab0d a73d ad07 fdbb f4d4 173e e81d 77bd
00000040: 67c5 833d 07d0 77bd 4bc9 e83d 4dcf f53d
00000050: 80c3 7e3d 65ac 233d 78ed c63c a8fa c2bd
00000060: 129e 123e b63b 953d 5773 343d 4cb6 a6bd
00000070: 4388 173e 95d5 eabc 2d89 adbd 931f 283e
00000080: cc03 b43d eb23 623e f21f 213e 5e68 1f3e
00000090: 551f 35bc 9802 60bd f45e 733d bd02 5c3d
000000a0: 4017 cbbd 21cd 1bbe fdea 8abd a76c 0a3e
000000b0: c871 e93c ae74 9fbc 3068 c1bd 5d86 043e
000000c0: 5fff 493d 8889 79bd 0c2b 3dbd 73f1 05bd
000000d0: df19 0e3d 9880 e53d f844 b13d 08fb 58bd
000000e0: 01e1 45be 8633 80bd e93a aa3d 4178 a8bd
000000f0: 3c4b a63d d0fc 483c 9846 3fbd 8961 5b3d
00000100: dceb b7bd 52cb 2fbd bba3 993d 6db1 98bd
00000110: 7428 6ebe b6a1 bd3d 8d3f 193d 8639 853c
00000120: c49d 933b daaa 57bd 81b5 f83d b9ba b53d
00000130: 0d29 6d3d b197 ddbd 05ad 3c3e 255a 96bd
00000140: f449 3c3d c80e 093d 77a9 3c3c f4d9 f23d
00000150: 5ad7 8139 3f83 083e 6a4f 59be d9a4 09be
00000160: 2bc1 7abd 2407 513b ab90 503d e34f e5bd
00000170: a836 84bd 8496 67bd e379 623e d0d7 353d
00000180: dbed 06bc 3e7f 483d 28d9 f73d f5ee 813d
00000190: ed2d 013e 4506 1b3d c518 233d 4db8 803d
000001a0: 176d 053d e898 55bd 20e6 ccbd 971b 203b
000001b0: ecb3 6cbb e2a1 7a3c 80e0 64bb c9c4 bbbc
000001c0: e579 213d 84a2 3e3e 0088 ce3d 8439 c23c
000001d0: bf90 0f3e dd73 a8bd 4b22 35be 7fa2 953d
000001e0: 4ad4 133e 54d5 a4bd d616 46bd 3ebc ecbd
000001f0: e6ed 863c 70f2 893c ebe9 56bd 034c 9a3d
00000200: 930c 153c 8c63 96bd fb95 87bd 70eb a33d
00000210: 01ec a73d 33e5 003c c280 4cbd 2498 3ebb
00000220: be46 0abe fd7d aabd 205f 9c3c 6146 ed3c
00000230: 3c11 7fbd b636 d53d 3bae 0e3e e7f6 463d
00000240: 3f95 563c 52ca 143e 8f6f 203d d617 1fbe
00000250: 2409 de3d b6f4 02bd fb98 0abd 44c2 713d
00000260: 5b4d e1bb 26ea 45bd 6db7 d0bd fca2 e9bb
00000270: 8c7f dfbc e5d0 01be 672b 6fbd 3f15 0bbe
00000280: 7f6c 53bc bd7d ac3d 5111 d83d f838 873c
00000290: 7d47 95bd 372f 5a3d 5013 d7bc f8e0 85bd
000002a0: ab31 4e3c b2c5 61be be83 643d c149 ac3d
000002b0: e997 e8bc 5d52 1abd 0213 3dbe 09b1 a6bd
000002c0: 31b2 133e 5be1 be3c 8174 053e 6386 d4bc
000002d0: 857a ed3c 9c7c 3e3e 28bd 38be 7681 74bc
000002e0: e08b 2bbd 4f10 b2bd ccae 483d 70fc 9bbc
000002f0: 3a1a 9bbd 8c8b ccbd 910f d43d 37c7 fa3c
00000300: a0c8 03bd a62e 88bc 378c 8bbd 1307 4b3e
00000310: 4dfa b4bd 09ed ad3a c214 f93d a583 e33d
00000320: 503a fcbd 75f8 c1bd faeb b83d 29fc 703c
00000330: b650 adbb f76b 983d 6f7d 10bd 65c9 6d3d
00000340: 4a12 ae3c ff06 00bb 29c5 79bd be46 04be
00000350: edeb b63c 888f dcbd d127 bbbd 13df abbd
00000360: 07a6 cf3c 6b50 89bd 5106 963d c477 9abc
00000370: a4ae 3d3d 4f5c a8bc 8f50 c2bb c928 60bd
00000380: 4ca7 c33c 2756 c53d 5c5c 133d d169 363d
00000390: f518 27be cc89 dbbd 1b37 6c3e 8e52 273d
000003a0: d147 0a3e 3119 04be 5cef 04be c5d4 97bc
000003b0: af4b 113d 90b9 923c 0f5f b1bd 15c9 1c3d
000003c0: fd50 a5bd f66d 983c 72ae 993d ff9a 36be
000003d0: f261 203e fdaa 803d ed87 693d edd3 99bc
000003e0: 2227 3abc dc0a 68bc 153d c0bb 60ce 173e
000003f0: a8f1 c8bc 1cab 073d bfe6 613d 20ea 31bc

root.left_child.left_child.left_child.w f4 [437]
-0.05592105 0.069713354 0.14421354 0.12506112 0.0071707633 -0.019344505 -0.0316272 0.056357723
-0.093309365 0.03058601 0.010440168 -0.03523366 0.014820493 0.055427797 0.11338562 0.0009309657
0.07374183 0.043630324 -0.06555068 0.13251685 0.039571717 0.046837684 -0.047218144 -0.06763019
0.05704584 -0.00041200581 0.123928 -0.02467075 0.0510989 0.042716216 0.12608846 0.039922833
0.050484307 0.023862258 -0.07849424 -0.006595174 0.062292323 -0.02603637 -0.11441245 0.041522015
0.07044528 -0.04977612 -0.14941216 0.023464058 -0.0058238204 -0.07848221 -0.09405491 -0.18523462
0.009761168 -0.026120584 -0.0071965116 -0.16563709 0.009282478 -0.050392225 0.03404404 0.021019885
0.060686164 0.022688068 0.07059586 -0.049354617 -0.09841757 0.028176479 -0.021368414 0.049458154
-0.031471755 0.04809815 0.07865028 -0.02447831 0.049226437 -0.012252539 -0.021767484 0.010411914
-0.06963622 0.029398324 -0.0009204039 0.03372616 0.0054137115 0.09053698 0.02607638 0.007196691
-0.0490671 0.021862542 0.032812517 -0.024958275 -0.017739624 -0.023057848 0.07145839 -0.032058995
0.093281396 0.031142958 0.13978072 0.01592045 0.10045909 0.0145258205 0.025220064 -0.00033291502
-0.023629393 0.15625352 -0.100498326 0.004716786 -0.022318931 0.090517804 -0.068959825 0.05605691
-0.032926925 -0.03341798 -0.06552739 -0.015951188 -0.025008198 0.010079368 -0.039901014 -0.04425861
-0.07913041 -0.022054708 -0.004186185 -0.004749359 -0.06386306 -0.048714295 0.057015594 -0.101894066
0.019208355 0.007849591 -0.06346799 -0.051486135 -0.019412473 0.11029553 0.0061979797 0.00078542985
-0.01505718 0.10226418 -0.06864456 -0.011002287 0.07623857 0.013892405 -0.042057812 -0.13534339
0.0495192 0.08005853 0.06994576 0.001814972 -0.078300074 -0.0240795 0.05650423 -0.10032977
0.004623158 -0.019788982 0.009684261 -0.042251214 -0.038232233 -0.0117731765 -0.037793763 -0.039009493
0.079673275 0.068028435 -0.051106717 0.07375479 -0.10304172 -0.04560901 -0.1830776 0.015527016
-0.055006612 -0.06947821 0.0025110669 0.00027365438 -0.069990695 0.059042063 -0.0844009 -0.029052556
0.007650243 -0.1306042 0.061806865 0.00036453566 -0.03785788 -0.04990906 0.06989929 0.14371109
0.0036674144 0.07907586 -0.041176777 0.12089803 0.02181146 0.07978421 -0.060258918 -0.08322718
0.045785747 -0.0010067623 0.07278889 -0.043091923 0.0005181916 -0.15548025 0.01577608 -0.012366774
0.116064526 -0.05995278 -0.001749704 -0.110380694 -0.14140338 0.11844425 -0.091568016 -0.06959387
-0.0631849 -0.00436207 -0.041175846 0.002095635 0.003480642 0.040279474 -0.06154256 0.06453308
0.07786346 0.050136246 -0.01740624 0.019636927 0.08150067 0.004965194 -0.05862851 0.03722415
-0.052011486 -0.021898663 0.07006906 -0.1119382 0.024427203 -0.021353766 -0.12673803 -0.05872796
0.043569077 0.011890254 0.048270144 -0.026871832 0.084114365 0.004638317 0.038599316 0.063174024
-0.1859927 -0.06102692 0.0562657 -0.18328369 -0.0895379 0.03206446 -0.11194703 0.0361267
-0.052097704 -0.066406466 -0.05127942 0.0842748 -0.010879737 0.13251431 0.059953142 -0.019849965
0.07530274 -0.099391825 -0.026280181 0.052317146 0.08883671 -0.04061776 -0.044633348 -0.05948323
00000000: 790d 65bd e0c5 8e3d b7ac 133e 0610 003e
00000010: b9f8 ea3b 5e78 9ebc 868b 01bd 5bd7 663d
00000020: fb18 bfbd 838f fa3c 3d0d 2b3c 2c51 10bd
00000030: a7d1 723c 4208 633d b836 e83d 0d0c 743a
00000040: f505 973d b6b5 323d 6f3f 86bd 7fb2 073e
00000050: f415 223d dfd8 3f3d d067 41bd b281 8abd
00000060: e6a8 693d 7c02 d8b9 f7cd fd3d 501a cabc
00000070: 154d 513d 33f7 2e3d 551d 013e 2086 233d
00000080: a2c8 4e3d c87a c33c 97c1 a0bd 541c d8bb
00000090: 3c26 7f3d 3a4a d5bc 1351 eabd fd12 2a3d
000000a0: 9d45 903d 0be2 4bbd 80ff 18be b237 c03c
000000b0: bfd5 bebb 48bb a0bd dc9f c0bd 25ae 3dbe
000000c0: 4eed 1f3c d6fa d5bc b7d0 ebbb c59c 29be
000000d0: 8915 183c 1468 4ebd c371 0b3d e531 ac3c
000000e0: 0e92 783d 54dc b93c 9094 903d 1128 4abd
000000f0: 278f c9bd 5cd2 e63c d00c afbc a294 4a3d
00000100: 87e8 00bd 9102 453d 6613 a13d bd86 c8bc
00000110: a9a1 493d e0be 48bc b951 b2bc bc96 2a3c
00000120: 6f9d 8ebd c1d4 f03c 4347 71ba 7124 0a3d
00000130: 8165 b13b 746b b93d 229e d53c 38d2 eb3b
00000140: 95fa 48bd 1319 b33c 6b66 063d 4c75 ccbc
00000150: b052 91bc d0e3 bcbc c758 923d 4b50 03bd
00000160: 510a bf3d 841f ff3c ad22 0f3e 9b6b 823c
00000170: 7fbd cd3d b5fd 6d3c 4f9a ce3c 198b aeb9
00000180: 6e92 c1bc ec00 203e 11d2 cdbd 458f 9a3b
00000190: 31d6 b6bc 6661 b93d cf3a 8dbd ee9b 653d
000001a0: 62de 06bd 4be1 08bd 3933 86bd 11ac 82bc
000001b0: fedd ccbc ef23 253c 3f6f 23bd 8448 35bd
000001c0: 200f a2bd 13ac b4bc 442c 89bb 83a0 9bbb
000001d0: a3ca 82bd a488 47bd 2f89 693d d6ad d0bd
000001e0: d75a 9d3c 929b 003c 81fb 81bd 20e3 52bd
000001f0: e806 9fbc 9fe2 e13d 6c18 cb3b 4ee5 4d3a
00000200: 64b2 76bc e26f d13d 8595 8cbd f042 34bc
00000210: f822 9c3d f89c 633c d044 2cbd 7597 0abe
00000220: a5d4 4a3d baf5 a33d b93f 8f3d 5be4 ed3a
00000230: ca5b a0bd 5f42 c5bc fb70 673d b279 cdbd
00000240: dc7d 973b 811c a2bc bcaa 1e3c 9c0f 2dbd
00000250: 6799 1cbd 48e4 40bc a2cd 1abd 6bc8 1fbd
00000260: be2b a33d 7e52 8b3d 4755 51bd c00c 973d
00000270: 8a07 d3bd 83d0 3abd b278 3bbe 0665 7e3c
00000280: 9d4e 61bd 974a 8ebd b690 243b 4579 8f39
00000290: 4857 8fbd 17d6 713d 61da acbd a0ff edbc
000002a0: e4ae fa3b 1bbd 05be 3229 7d3d 261f bf39
000002b0: dd10 1bbd 716d 4cbd 5c27 8f3d 0029 133e
000002c0: 0159 703b 86f2 a13d fba8 28bd 6399 f73d
000002d0: f2ad b23c e765 a33d 0ed2 76bd 0373 aabd
000002e0: d689 3b3d 56f5 83ba 5712 953d 2881 30bd
000002f0: 40d7 073a 3736 1fbe d63c 813c 029e 4abc
00000300: 3db3 ed3d 0c91 75bd 5356 e5ba 460f e2bd
00000310: 0ccc 10be e692 f23d 0388 bbbd 3b87 8ebd
00000320: 1667 81bd b2ef 8ebb 01a8 28bd ec56 093b
00000330: 7c1b 643b 17fc 243d 0d14 7cbd eb29 843d
00000340: e176 9f3d aa5b 4d3d 8897 8ebc 9fdd a03c
00000350: d3e9 a63d 11b3 a23b 7324 70bd 5a78 183d
00000360: ff09 55bd d364 b3bc 5e80 8f3d db3f e5bd
00000370: 8f1b c83c 18ee aebc 9dc7 01be bb8c 70bd
00000380: 7d75 323d 57cf 423c eab6 453d 5122 dcbc
00000390: 2744 ac3d 06fd 973b 511a 1e3d 6261 813d
000003a0: df74 3ebe 5df7 79bd dd76 663d b8ae 3bbe
000003b0: a65f b7bd 0656 033d 7c44 e5bd 97f9 133d
000003c0: 6764 55bd 1d00 88bd 5e0a 52bd 4498 ac3d
000003d0: ed40 32bc d5b1 073e 6d91 753d 659c a2bc
000003e0: 5338 9a3d f18d cbbd 8949 d7bc 814a 563d
000003f0: 05f0 b53d cf5e 26bd 75d1 36bd b0a4 73bd

root.left_child.left_child.left_child.left_child.w f4 [437]
5.9154e-41 -4.9131e-41 4.9378e-41 -1.27561e-10 1.2826336e-08 4.9251e-41 -4.8260542e-08 -5.292e-41
4.9771e-41 8.47873e-08 -4.9899e-41 1.864e-41 5.5626e-41 -8.8176005e-38 -1.8363494e-07 -4.9801e-41
-5.178e-41 -0.0001774462 -5.057e-41 -5.0207e-41 -2.6536675e-38 -3.3766147e-15 1.6457492e-09 0.0070043486
5.4494e-41 -0.0003372159 -1.0725298e-33 2.8744846e-36 4.7072e-41 -1.31825545e-05 -1.8902525e-06 1.3162675e-23
-5.670916e-21 4.9165e-41 6.3915536e-07 7.6830466e-35 4.947539e-13 5.0115e-41 5.592477e-09 5.9771e-41
1.486912e-11 -8.37932e-08 -1.2216484e-06 5.8989535e-06 4.0118994e-05 5.0204e-41 -2.0724513e-38 2.2237653e-07
4.9372134e-12 -5.2837e-41 -5.3794e-41 -6.376057e-08 -1.6021058e-09 -5.105076e-12 -2.3136747e-27 3.2815265e-13
-2.600572e-26 5.0595e-41 -1.5117682e-15 -9.0569e-34 -3.6890662e-16 4.9364e-41 3.944455e-17 -4.9774e-41
-2.5569482e-33 -5.271e-41 1.2550089e-07 0.00014247118 2.5878748e-27 -4.9256e-41 5.1185e-41 1.7802321e-20
-4.9236e-41 -3.2956818e-06 4.633852e-14 4.9647e-41 -8.572153e-06 -4.939e-41 -1.766361e-31 8.319681e-05
-0.0002961346 -2.1239448e-19 -4.9184e-41 1.19025205e-14 4.1419457e-24 -6.133e-41 -4.9131e-41 -0.002947975
5.774614e-10 1.6321534e-05 0.00020984576 -0.0020771103 9.068002e-05 1.2215266e-05 1.0665889e-09 -5.6965703e-27
-5.0155e-41 6.5076318e-09 -8.872024e-27 -3.437504e-17 -1.6815597e-05 1.8542378e-16 4.9452e-41 3.4120785e-18
-1.2546118e-31 -4.9907e-41 -9.168207e-18 -5.1526906e-05 4.9463e-41 -6.045058e-09 5.0102e-41 -4.998e-41
5.0017e-41 -4.9628e-41 -4.9474e-41 2.7101763e-14 -4.9361e-41 -4.9351e-41 7.8247695e-08 1.3390055e-32
4.9836e-41 -1.1481214e-08 -6.668973e-39 -7.35566e-08 -0.0028355306 -1.5573329e-06 -4.3112e-41 -2.1533103e-10
-5.148e-41 -8.6714875e-35 5.0812e-41 8.10384e-35 1.1944472e-34 5.710892e-35 4.0899852e-09 3.312762e-08
4.9393e-41 -8.2618874e-16 5.1841e-41 4.9676e-41 5.408813e-23 4.5448866e-15 -4.9596e-41 2.030516e-13
4.9424e-41 4.9372e-41 -1.02354386e-14 7.94875e-11 4.937e-41 4.9584e-41 4.3426282e-15 -2.5139595e-34
5.1458e-41 -1.721676e-23 -2.1845779e-09 -6.0477766e-16 -2.1894682e-19 -4.9543e-41 -1.89642e-08 -5.786895e-07
-8.698907e-07 -1.8311622e-10 2.222876e-17 4.9299e-41 5.0451e-41 3.1473108e-05 5.8134362e-37 -6.0966e-41
0.0039458806 2.624757e-39 1.1358428e-12 0.010322202 -4.9724e-41 1.1869006e-31 2.3373903e-07 -5.3346e-41
1.3731751e-29 0.0025116606 1.5329085e-19 -7.961343e-07 -4.9316e-41 -5.015e-41 4.9644e-41 -8.485613e-20
4.9698e-41 3.47839e-19 -9.874116e-38 -5.0564e-41 -5.497e-41 -4.9645e-41 4.969e-41 -4.9079e-41
-5.0378e-41 -2.0748208e-21 2.8204341e-33 -9.466129e-16 -4.9326e-41 4.9783e-41 4.5874127e-22 -7.2097228e-06
4.9885e-41 -4.9394e-41 4.9417e-41 3.6618077e-09 -6.244e-41 2.4786257e-07 -2.2356997e-33 2.4505729e-09
-8.766302e-18 -3.6978837e-10 4.9195e-41 9.681936e-06 -6.9240556e-09 5.480417e-16 -3.679068e-15 -1.1312319e-05
-3.7602755e-12 1.3499329e-15 -0.00018710158 -5.24933e-11 4.9176e-41 -1.5565415e-13 -1.821427e-11 1.6868138e-05
4.858898e-09 -5.1973e-41 4.9148e-41 -0.00011566809 5.7602e-41 6.1799e-41 -1.4765662e-09 4.9302e-41
-4.17639e-40 -0.00073851063 4.229188e-06 -0.005319618 -5.6684e-41 -4.9428e-41 -4.770829e-30 4.9546e-41
1.1058123e-05 0.00013057007 -5.7378e-41 -9.36508e-39 4.985e-41 -4.9087e-41 -5.0451e-41 2.3689871e-08
-5.2917e-41 -1.6001785e-07 -4.9638e-41 0.00011091316 -4.918e-41 -8.010481e-06 4.9917e-41 2.3271021e-15
00000000: e6a4 0000 f588 0080 a589 0000 3b41 0caf
00000010: d35a 5c32 4b89 0000 0747 4fb3 8593 0080
00000020: be8a 0000 5014 b633 198b 0080 f633 0000
00000030: 109b 0000 b509 f081 302d 45b4 d38a 0080
00000040: 5790 0080 da10 3ab9 f88c 0080 f58b 0080
00000050: ba7a 1081 8c4f 73a7 a730 e230 bc84 e53b
00000060: e897 0000 5acc b0b9 5f34 b288 bb88 7404
00000070: 3883 0000 a42a 5db7 95b4 fdb5 699a 7e19
00000080: bc3d d69d 0d89 0000 6c92 2b35 1b40 cc06
00000090: c742 0b2b b38b 0000 f327 c031 9ea6 0000
000000a0: 48ca 822d cdf1 b3b3 85f7 a3b5 a0ef c536
000000b0: 7145 2838 f38b 0000 83ab e180 65c6 6e34
000000c0: 77b6 ad2c 4a93 0080 f595 0080 beec 88b3
000000d0: 1631 dcb0 709e b3ac e64e 3793 c8bb b82a
000000e0: 2bc6 0095 0a8d 0000 67de d9a6 cb7b 9688
000000f0: 02a9 d4a5 9b89 0000 e8e7 3524 c08a 0080
00000100: 466c 5489 ef92 0080 6cc1 0634 5164 1539
00000110: 5608 4d13 4e89 0080 af8e 0000 5f23 a81e
00000120: 4089 0080 622b 5db6 adb0 5029 658a 0000
00000130: 1ed1 0fb7 ae89 0080 6a49 658c f279 ae38
00000140: 8342 9bb9 4bc0 7aa0 1b89 0080 b06a 5628
00000150: d83b a018 f7aa 0080 f588 0080 d032 41bb
00000160: 3cbb 1e30 3aea 8837 0b0a 5c39 2120 08bb
00000170: 772b be38 2bf0 4c37 4397 9230 16aa e193
00000180: d08b 0080 bc99 df31 82ba 2f94 e286 1ea4
00000190: 380f 8db7 71c7 5525 da89 0000 57c4 7b22
000001a0: a1db 228c 1f8b 0080 a21f 29a3 981e 58b8
000001b0: e289 0000 e4b4 cfb1 aa8b 0000 538b 0080
000001c0: 6d8b 0000 588a 0080 ea89 0080 691c f428
000001d0: 9989 0080 9289 0080 2009 a833 df0c 8b0a
000001e0: ec8a 0000 ea3e 45b2 629e 4880 2bf6 9db3
000001f0: 4fd4 39bb 8d05 d1b5 2e78 0080 4cc2 6caf
00000200: 818f 0080 1687 e686 a58d 0000 e16f d706
00000210: efc4 1e07 51d2 9706 e487 8c31 3448 0e33
00000220: b089 0000 f821 6ea6 8390 0000 7a8a 0000
00000230: eec6 821a 2ebf a327 418a 0080 a49d 642a
00000240: c689 0000 a189 0000 a162 38a8 7ccb ae2e
00000250: a089 0000 388a 0000 ad75 9c27 ce14 a787
00000260: 728f 0000 a282 a699 801f 16b1 b750 2ea6
00000270: 4f3e 81a0 1b8a 0080 b8e6 a2b2 3d57 1bb5
00000280: 6f82 69b5 a256 49af 2d06 cd23 6d89 0000
00000290: a38c 0000 fe01 0438 2cd2 4503 f3a9 0080
000002a0: 724c 813b c194 1c00 0ddb 9f2b 741e 293c
000002b0: 9c8a 0080 8a11 1a0c b2f9 7a34 b594 0080
000002c0: aa41 8b0f ac9a 243b 51f9 3420 efb5 55b5
000002d0: 7989 0080 cc8b 0080 638a 0000 625c c89f
000002e0: 8a8a 0000 f253 cd20 4666 0682 f48c 0080
000002f0: 3c99 0080 648a 0080 848a 0000 d088 0080
00000300: 6f8c 0080 dfc4 1c9d 0050 6a09 da6b 88a6
00000310: 8089 0080 c68a 0000 63a5 0a1c 0ceb f1b6
00000320: 0f8b 0000 b189 0080 c189 0000 34a3 7b31
00000330: 0fae 0080 f911 8534 13bc 3989 ef66 2831
00000340: b1b5 21a3 164b cbaf 2389 0000 996f 2237
00000350: a3e8 edb1 57f6 1d26 6a8d 84a7 0aca 3db7
00000360: 8d4d 84ac bc8b c226 b330 44b9 34de 66ae
00000370: 1589 0000 4140 2faa e436 a0ad 0d80 8d37
00000380: 52f3 a631 e190 0080 0189 0000 d592 f2b8
00000390: 92a0 0000 45ac 0000 0ef0 cab0 6f89 0000
000003a0: 358c 0480 9c98 41ba 73e8 8d36 3150 aebb
000003b0: 039e 0080 c989 0080 1f87 c18e 1d8a 0000
000003c0: 4786 3937 a3e9 0839 f29f 0080 08fa 6580
000003d0: f68a 0000 d688 0080 a38c 0080 947e cb32
000003e0: 8393 0080 5fd1 2bb4 5f8a 0080 0d9a e838
000003f0: 1889 0080 c164 06b7 268b 0000 75af 2727

root.left_child.left_child.left_child.left_child.feature_selector.logit_phi f4 [437]
-0.53482056 -0.5348905 -0.5349728 -0.53490067 -0.53460336 -0.5343563 -0.5347206 -0.5347302
-0.53459185 -0.5347649 -0.5346863 -0.5346222 -0.5347056 -0.5347643 -0.5347971 -0.53466123
-0.53460634 -0.53471917 -0.5345491 -0.5343979 -0.53455395 -0.53461146 -0.5347701 -0.5347801
-0.5347672 -0.53490084 -0.53488797 -0.53469634 -0.5346328 -0.5345336 -0.5347364 -0.53471184
-0.5345325 -0.53484035 -0.5346092 -0.53503275 -0.53466386 -0.5348873 -0.5345948 -0.5348165
-0.5345754 -0.5348089 -0.534808 -0.53477305 -0.534639 -0.5348177 -0.53483796 -0.5347126
-0.5345685 -0.5346998 -0.5348858 -0.53479755 -0.5347535 -0.53478867 -0.53478193 -0.5349042
-0.53473824 -0.5348334 -0.5345701 -0.53460896 -0.53417426 -0.5349008 -0.5348004 -0.5347463
-0.53475195 -0.53461826 -0.53461635 -0.5348877 -0.53480476 -0.53473145 -0.53457177 -0.5346112
-0.53476185 -0.5345703 -0.53483623 -0.534829 -0.53496027 -0.53495026 -0.5345668 -0.5347826
-0.5348642 -0.5348488 -0.5348772 -0.53461015 -0.53478736 -0.53459203 -0.5347392 -0.5346968
-0.53491074 -0.53489196 -0.5343541 -0.53480685 -0.5347152 -0.53490156 -0.5346832 -0.534751
-0.53483987 -0.5347903 -0.53469443 -0.53463984 -0.53479934 -0.534877 -0.53473854 -0.5348469
-0.53475934 -0.53479725 -0.53477085 -0.5347604 -0.5346278 -0.5347896 -0.5348704 -0.5347968
-0.5344666 -0.5347926 -0.5345358 -0.5347318 -0.534866 -0.5349239 -0.53479105 -0.534814
-0.5347727 -0.5348288 -0.5349093 -0.534926 -0.5345815 -0.5345793 -0.534774 -0.5348123
-0.53468764 -0.53480154 -0.53482413 -0.53474194 -0.5348305 -0.5349006 -0.53500307 -0.53454137
-0.53478163 -0.53484 -0.53452736 -0.5348297 -0.53484213 -0.5347632 -0.53499436 -0.5346524
-0.5348739 -0.53474736 -0.5346186 -0.53478366 -0.5349453 -0.5348194 -0.53478354 -0.5346313
-0.5347158 -0.53475314 -0.5348502 -0.53483677 -0.5346751 -0.53470045 -0.53474104 -0.534455
-0.53460777 -0.5343715 -0.534755 -0.53472596 -0.53456885 -0.53475386 -0.5347608 -0.5346708
-0.5347767 -0.5348521 -0.5347812 -0.53465563 -0.53482836 -0.5346923 -0.53478205 -0.5348223
-0.53482187 -0.53475964 -0.5347284 -0.53457695 -0.5347574 -0.5346142 -0.53472495 -0.53473955
-0.5346753 -0.5346701 -0.5346182 -0.53479505 -0.53479177 -0.53426415 -0.5348295 -0.53466016
-0.53481954 -0.5349546 -0.5348196 -0.5346976 -0.53480184 -0.5348073 -0.5348097 -0.53483427
-0.5348988 -0.53403854 -0.5348031 -0.5348372 -0.5347723 -0.534796 -0.5349764 -0.5345046
-0.5348481 -0.53474504 -0.53490096 -0.53465796 -0.5345234 -0.53473675 -0.53471655 -0.5348517
-0.53469145 -0.53488344 -0.5347747 -0.5345746 -0.53476435 -0.53487635 -0.53431284 -0.53483486
-0.53485566 -0.53487265 -0.53479755 -0.53461975 -0.534758 -0.5347469 -0.5345892 -0.5347938
-0.5346947 -0.5348009 -0.53429157 -0.53460836 -0.53476787 -0.53485113 -0.5349022 -0.53472084
-0.5349016 -0.53480726 -0.53494996 -0.5348569 -0.5347309 -0.5340445 -0.534701 -0.5347265
-0.5349158 -0.53478533 -0.53487164 -0.5347023 -0.53456783 -0.5346747 -0.53469515 -0.5347665
00000000: 00ea 08bf 95ee 08bf faf3 08bf 40ef 08bf
00000010: c4db 08bf 93cb 08bf 73e3 08bf 14e4 08bf
00000020: 03db 08bf 5ae6 08bf 34e1 08bf 00dd 08bf
00000030: 77e2 08bf 50e6 08bf 76e8 08bf 8fdf 08bf
00000040: f6db 08bf 5be3 08bf 36d8 08bf 4dce 08bf
00000050: 87d8 08bf 4cdc 08bf b1e6 08bf 59e7 08bf
00000060: 81e6 08bf 43ef 08bf 6bee 08bf dce1 08bf
00000070: b2dd 08bf 32d7 08bf 7ce4 08bf e0e2 08bf
00000080: 1fd7 08bf 4ceb 08bf 26dc 08bf e8f7 08bf
00000090: bbdf 08bf 60ee 08bf 34db 08bf bce9 08bf
000000a0: efd9 08bf 3ce9 08bf 2de9 08bf e3e6 08bf
000000b0: 1ade 08bf d0e9 08bf 24eb 08bf ede2 08bf
000000c0: 7bd9 08bf 16e2 08bf 47ee 08bf 7ee8 08bf
000000d0: 9be5 08bf e9e7 08bf 78e7 08bf 7bef 08bf
000000e0: 9be4 08bf d7ea 08bf 96d9 08bf 22dc 08bf
000000f0: a5bf 08bf 42ef 08bf aee8 08bf 22e5 08bf
00000100: 81e5 08bf bedc 08bf 9edc 08bf 66ee 08bf
00000110: f7e8 08bf 29e4 08bf b2d9 08bf 48dc 08bf
00000120: 27e6 08bf 99d9 08bf 07eb 08bf 8eea 08bf
00000130: 28f3 08bf 80f2 08bf 5fd9 08bf 83e7 08bf
00000140: dcec 08bf daeb 08bf b6ed 08bf 36dc 08bf
00000150: d3e7 08bf 06db 08bf abe4 08bf e4e1 08bf
00000160: e9ef 08bf aeee 08bf 6ecb 08bf 1ae9 08bf
00000170: 18e3 08bf 4fef 08bf 00e1 08bf 71e5 08bf
00000180: 44eb 08bf 04e8 08bf bce1 08bf 28de 08bf
00000190: 9ce8 08bf b3ed 08bf a0e4 08bf baeb 08bf
000001a0: fde5 08bf 79e8 08bf bee6 08bf 0fe6 08bf
000001b0: 5edd 08bf f9e7 08bf 44ed 08bf 71e8 08bf
000001c0: ced2 08bf 2be8 08bf 57d7 08bf 2fe4 08bf
000001d0: faec 08bf c6f0 08bf 11e8 08bf 92e9 08bf
000001e0: dde6 08bf 8aea 08bf d1ef 08bf e9f0 08bf
000001f0: 55da 08bf 30da 08bf f3e6 08bf 75e9 08bf
00000200: 4ae1 08bf c1e8 08bf 3cea 08bf d9e4 08bf
00000210: a7ea 08bf 3fef 08bf f6f5 08bf b4d7 08bf
00000220: 73e7 08bf 46eb 08bf c9d6 08bf 99ea 08bf
00000230: 6aeb 08bf 3ee6 08bf 64f5 08bf fbde 08bf
00000240: 7fed 08bf 34e5 08bf c4dc 08bf 95e7 08bf
00000250: 2df2 08bf ede9 08bf 93e7 08bf 99dd 08bf
00000260: 22e3 08bf 95e5 08bf f1eb 08bf 10eb 08bf
00000270: 78e0 08bf 21e2 08bf cae4 08bf 0bd2 08bf
00000280: 0edc 08bf 92cc 08bf b4e5 08bf cde3 08bf
00000290: 81d9 08bf a1e5 08bf 15e6 08bf 30e0 08bf
000002a0: 20e7 08bf 11ec 08bf 6ce7 08bf 31df 08bf
000002b0: 83ea 08bf 98e1 08bf 7ae7 08bf 1dea 08bf
000002c0: 16ea 08bf 02e6 08bf f6e3 08bf 09da 08bf
000002d0: dce5 08bf 7adc 08bf bce3 08bf b1e4 08bf
000002e0: 7be0 08bf 24e0 08bf bddc 08bf 54e8 08bf
000002f0: 1de8 08bf 89c5 08bf 96ea 08bf 7ddf 08bf
00000300: efe9 08bf c9f2 08bf f0e9 08bf f1e1 08bf
00000310: c6e8 08bf 22e9 08bf 4ae9 08bf e6ea 08bf
00000320: 21ef 08bf c0b6 08bf dbe8 08bf 17eb 08bf
00000330: d6e6 08bf 64e8 08bf 37f4 08bf 4bd5 08bf
00000340: ceeb 08bf 0de5 08bf 45ef 08bf 58df 08bf
00000350: 87d6 08bf 82e4 08bf 2fe3 08bf 0aec 08bf
00000360: 8ae1 08bf 1fee 08bf ffe6 08bf e2d9 08bf
00000370: 51e6 08bf a8ed 08bf bac8 08bf f0ea 08bf
00000380: 4dec 08bf 6aed 08bf 7ee8 08bf d7dc 08bf
00000390: e6e5 08bf 2ce5 08bf d6da 08bf 3fe8 08bf
000003a0: c0e1 08bf b6e8 08bf 55c7 08bf 18dc 08bf
000003b0: 8ce6 08bf 01ec 08bf 5aef 08bf 77e3 08bf
000003c0: 50ef 08bf 21e9 08bf 7bf2 08bf 62ec 08bf
000003d0: 20e4 08bf 24b7 08bf 2ae2 08bf d6e3 08bf
000003e0: 3ef0 08bf b1e7 08bf 59ed 08bf 40e2 08bf
000003f0: 70d9 08bf 71e0 08bf c8e1 08bf 75e6 08bf

root.left_child.left_child.left_child.left_child.local_expert.fc1.weight f4 [16, 437]
0.028031986 -0.013819571 -0.018624006 0.047844462 0.020707125 -0.0023614978 0.004385606 0.0032681946
0.066621885 -0.0184561 0.014675184 0.0042470456 -0.02120075 0.003171232 -0.029384915 -0.028918745
0.011686748 -0.024125502 0.04199102 -0.013813735 -0.011327341 0.04444812 -0.002299955 0.008641227
0.034861784 -0.015306222 0.0051276544 -0.04162802 -0.018449845 0.017318487 0.052922864 0.053325493
0.03484201 0.03865529 0.055535372 0.0027489713 -0.021277593 0.009706617 -0.086141296 0.014684956
0.06459756 0.04675805 0.009574388 0.03908431 0.01921617 -0.006736695 -0.0035352947 0.009250925
0.0064222403 -0.0044594146 0.021097232 0.021850334 0.0628694 0.022663524 0.04781593 0.061420903
0.047552448 0.07075926 0.06502405 0.06302545 0.016199078 -0.012776634 -0.0024261288 0.05704717
0.002855948 -0.027950995 0.01075349 0.035922028 -0.032485615 0.058016147 0.00812565 -0.031033803
0.018493261 0.034069855 0.04034456 0.006399126 0.0052879816 0.015829356 0.0019623695 -0.035317346
0.026718164 0.027645333 -0.033602994 -0.025745763 0.019150274 -0.010938991 0.009818832 0.021172993
-0.0118043665 0.0087808 0.07124912 -0.012254276 0.06906238 -0.039622363 0.029891994 0.005650845
0.025756314 0.02800977 0.018474953 -0.02001513 0.04551645 0.063041985 0.045718767 0.06638055
-0.05893689 0.052062992 0.014710225 -0.011428886 -0.015862644 0.03357761 0.029944465 -0.0125255175
-0.032379605 -0.012275425 0.025299178 -0.014585071 -0.012759149 0.025941541 0.0013293213 0.052188437
-0.008136817 0.049780656 0.024473121 0.035745252 -0.022082508 0.044606864 -0.00290589 0.0010652976
-0.009154907 0.047194738 0.013474493 -0.015237071 0.035400365 -0.029537639 0.040364668 0.04414958
-0.009169343 -0.007014565 0.016046988 -0.011881194 0.03238521 0.04579715 -0.030204894 0.0073225265
-0.014341293 0.028107217 -0.011092279 0.032540392 -0.036451716 0.050019022 0.053524695 0.04382845
0.0047741393 0.032033965 -0.007966568 0.031136287 -0.020123752 -0.005633862 -0.007988707 0.014143075
-0.02205781 0.040094875 0.055988595 -0.02598209 0.054840427 -0.00786123 0.058932755 -0.0059270016
0.041904137 0.04189403 -0.013786458 -0.022424355 0.027977 -0.029380156 0.019084292 -0.015162725
-0.031429596 -0.026258191 0.07010705 -0.032318704 -0.0017940388 0.013433718 0.012242627 -0.01690297
0.052723423 0.046759978 0.008863314 0.0067536924 0.023727389 0.043182485 0.046758674 0.011468432
-0.0120074125 0.02066305 -0.030170158 -0.041983098 0.031578835 0.016564524 -0.012386802 0.01043243
-0.024327736 -0.025938595 0.0062887953 -0.0024288164 0.050405394 0.06631862 0.032202646 0.0011434767
0.05249198 0.04820773 0.0020815341 0.026341112 0.0023729266 -0.011703852 -0.017677076 -0.019707944
0.055740904 0.05260932 0.0014493531 0.0075336723 0.04443786 0.004579724 0.042209968 -0.017234184
0.011763068 -0.011885998 -0.028042188 0.06380821 0.0124191865 -0.0007289364 0.0328423 -0.027787868
0.04462869 0.0019809515 -0.046925448 0.018177543 -0.002711375 0.016360687 0.04747731 0.05650526
-0.017100424 -0.02397826 0.037833415 0.009860267 0.006008733 -0.036860675 -0.031145245 -0.03354305
-0.0012126575 0.05657401 0.016300121 -0.032294698 -0.028581232 0.03831513 0.02079332 -0.008057456
00000000: 56a3 e53c 7b6b 62bc 5f91 98bc 8ef8 433d
00000010: fda1 a93c 5cc3 1abb 21b5 8f3b 352f 563b
00000020: 0e71 883d 3f31 97bc 2f70 703c cd2a 8b3b
00000030: 32ad adbc 72d4 4f3b a2b8 f0bc 01e7 ecbc
00000040: c679 3f3c d8a2 c5bc c7fe 2b3d 0153 62bc
00000050: 5096 39bc 3b0f 363d d8ba 16bb ef93 0d3c
00000060: 3bcb 0e3d f3c6 7abc e205 a83b 2582 2abd
00000070: 2124 97bc 80df 8d3c a5c5 583d d56b 5a3d
00000080: 7fb6 0e3d 0255 1e3d 0f79 633d 1628 343b
00000090: 594e aebc 8108 1f3c d96a b0bd 2b99 703c
000000a0: ba4b 843d 5e85 3f3d e5dd 1c3c df16 203d
000000b0: 3b6b 9d3c 7ebf dcbb 67b0 67bb 3191 173c
000000c0: a871 d23b 4820 92bb 1ad4 ac3c 79ff b23c
000000d0: acc1 803d dba8 b93c a3da 433d 7c94 7b3d
000000e0: 5bc6 423d 3bea 903d 542b 853d 7d13 813d
000000f0: eeb3 843c 1655 51bc b0ff 1ebb 4baa 693d
00000100: db2a 3b3b 7cf9 e4bc 682f 303c fa22 133d
00000110: a30f 05bd 57a2 6d3d 7221 053c 9a3a febc
00000120: 2e7f 973c d58c 0b3d 5640 253d c2af d13b
00000130: ce46 ad3b 91ac 813c 199b 003b eca8 10bd
00000140: 0de0 da3c 7778 e23c 4ba3 09bd c7e8 d2bc
00000150: 09e1 9c3c 7439 33bc 2bdf 203c fc72 ad3c
00000160: 1a67 41bc 58dd 0f3c 0feb 913d 29c6 48bc
00000170: 9470 8d3d 0f4b 22bd 0ee0 f43c b92a b93b
00000180: e8fe d23c bf74 e53c c958 973c c5f6 a3bc
00000190: 756f 3a3d 281c 813d 9a43 3b3d 87f2 873d
000001a0: cf67 71bd 0140 553d 2803 713c 3940 3bbc
000001b0: 60f2 81bc ad88 093d 184e f53c d437 4dbc
000001c0: 7aa0 04bd dd1e 49bc 3940 cf3c 39f6 6ebc
000001d0: c00b 51bc 5b83 d43c 9f3c ae3a 8bc3 553d
000001e0: 4950 05bc cde6 4b3d db7b c83c 9d69 123d
000001f0: 60e6 b4bc b0b5 363d bf70 3ebb 75a1 8b3a
00000200: 77fe 15bc 454f 413d 1fc4 5c3c e8a4 79bc
00000210: f9ff 103d ebf8 f1bc 6c55 253d 31d6 343d
00000220: 033b 16bc 70da e5bb f974 833c 57a9 42bc
00000230: 5ba6 043d cb95 3b3d 4170 f7bc cef1 ef3b
00000240: bef7 6abc 1b41 e63c 64bc 35bc 1349 053d
00000250: 654e 15bd bfe0 4c3d b63c 5b3d 7685 333d
00000260: 6270 9c3b 0c36 033d 3586 02bc 8711 ff3c
00000270: 91da a4bc 439c b8bb 11e3 02bc 5bb8 673c
00000280: 95b2 b4bc 863a 243d 4c54 653d 64d8 d4bc
00000290: 5ba0 603d 63cc 00bc 7963 713d 4b37 c2bb
000002a0: aca3 2b3d 1399 2b3d 99e0 61bc 48b3 b7bc
000002b0: 0630 e53c a7ae f0bc a956 9c3c 146d 78bc
000002c0: 52bc 00bd 6b1b d7bc 4994 8f3d 9e60 04bd
000002d0: f425 ebba 1919 5c3c 4d95 483c 1978 8abc
000002e0: 84f4 573d 6487 3f3d 6f37 113c 144e dd3b
000002f0: f15f c23c 1ee0 303d 0686 3f3d 17e6 3b3c
00000300: bdba 44bc 8e45 a93c 6827 f7bc 78f6 2bbd
00000310: cf58 013d 53b2 873c 03f2 4abc c8ec 2a3c
00000320: f64a c7bc 2d7d d4bc 3d12 ce3b c72c 1fbb
00000330: e375 4e3d 0fd2 873d ece6 033d b6e0 953a
00000340: d501 573d 7875 453d 596a 083b 51c9 d73c
00000350: 1a83 1b3b 83c1 3fbc 84cf 90bc 8e72 a1bc
00000360: 9350 643d df7c 573d 38f8 bd3a 06dd f63b
00000370: 7904 363d 8211 963b 5ce4 2c3d b42e 8dbc
00000380: e2b9 403c 7dbd 42bc bbb8 e5bc e1ad 823d
00000390: d879 4b3c 1816 3fba a685 063d 62a3 e3bc
000003a0: 93cc 363d dad2 013b e634 40bd 12e9 943c
000003b0: 53b1 31bb d906 863c 9177 423d 0f72 673d
000003c0: 3016 8cbc 0e6e c4bc 36f7 1a3d f58c 213c
000003d0: e8e4 c43b 38fb 16bd 5024 ffbc 7064 09bd
000003e0: 09f2 9eba 26ba 673d d587 853c 7247 04bd
000003f0: 3023 eabc 53f0 1c3d c156 aa3c 6c03 04bc

root.left_child.left_child.left_child.left_child.local_expert.fc1.bias f4 [16]
-0.0150450785 0.0076952213 -0.017923858 0.030219756 -0.05493299 -0.0028142706 -0.030865712 0.0172658
-0.018639002 0.025324857 -0.02329147 0.02099001 0.019334652 -0.016510164 0.0088341115 -0.02352145
00000000: a27f 76bc 3228 fc3b 0ed5 92bc 6c8f f73c
00000010: 6a01 61bd a06f 38bb 17da fcbc 0271 8d3c
00000020: d2b0 98bc 1376 cf3c c1cd bebc 3ef3 ab3c
00000030: b463 9e3c 5340 87bc f3bc 103c 0eb0 c0bc

root.left_child.left_child.left_child.left_child.local_expert.fc2.weight f4 [2, 16]
0.20309022 0.10830241 -0.2531481 0.20997474 -0.15299329 0.051303647 0.02968 0.032100517
0.26337335 0.067073025 0.19625536 -0.031729545 -0.08914795 0.18730918 0.015120631 0.0885626
0.040652674 0.26389506 -0.108169585 0.07173536 -0.14465162 0.10483785 0.24212682 0.07799526
0.12905113 -0.07926566 -0.05744921 0.13074112 -0.23407456 -0.07046574 0.061762493 -0.26114148
00000000: e2f6 4f3e a7cd dd3d a19c 81be 9e03 573e
00000010: 46aa 1cbe c623 523d 7923 f33c d57b 033d
00000020: dfd8 863e 955d 893d 2af7 483e d7f6 01bd
00000030: 3393 b6bd facd 3f3e 86bc 773c 4f60 b53d
00000040: 6b83 263d 411d 873e 0488 ddbd fde9 923d
00000050: 8e1f 14be 3ab5 d63d 18f0 773e fbbb 9f3d
00000060: fb25 043e 0956 a2bd dd4f 6bbd 00e1 053e
00000070: 3eb1 6fbe 5850 90bd abfa 7c3d 56b4 85be

root.left_child.left_child.left_child.left_child.local_expert.fc2.bias f4 [2]
0.22605084 0.22506459
00000000: df79 673e 5577 663e
